checkpoint.pth (torch_old, 62698 bytes, 8 tensors)

hidden_layers.0.weight f4 [128, 37]
00000000: 1894 8c3d 30b2 18bd 3260 23be 9bb8 303e
00000010: fd2f 11be 1c7f b43d 7955 3fbe dab3 873e
00000020: 8eee 443e 3932 0f3e cc31 393e 52b6 773d
00000030: 4376 8fbe e667 abbe 1ee0 abbe ae5b 8d3e
00000040: 3804 7fbe b838 363d 21c8 35bc 798d b6be
00000050: 4bda 0f3e ef57 c73d 99ef 0d3e a521 9ebc
00000060: bed0 d0bd 1a49 7abd a869 463e a3f4 c23c
00000070: 3eda 093d 920e 4d3c 9a16 24be b2b1 283e
00000080: 0e09 9bbb 0068 c33d 7981 353d daf9 51bd
00000090: c60b 6b3c 7f28 463e 20f4 e53d 300f b83d
000000a0: 2593 f7bc 93b1 1cbe 9701 243e d8b3 7bbe
000000b0: 8c5c a2be 0923 04be 6446 1fbf 1ed2 0a3e
000000c0: 5a21 02be 6726 49b9 48b4 553e 2899 bd3d
000000d0: 7da2 e13d 8405 e2bc 1782 283e 22ac d7bc
000000e0: 4849 acbd 4666 c7bd 230f edbd 80ef a83c
000000f0: 23cd 083c 1fe3 933d 2061 3f3c 8c02 4fbd
00000100: d8ab f1bb b012 fbbd cbc8 d8bd 1c0d 993d
00000110: 3c91 023e 86b9 e83d baef b6bd ecc5 0abe
00000120: 5a6b 043e 36d0 5e3d 4118 343e a60c 49bc
00000130: 6371 0e3d 29b8 89be a6ec 43bd 687c c6be
00000140: 3f21 5bbe 80c2 c23e 19f8 633c 6372 05bf
00000150: 1d86 c83d 059f b9bd 46b3 64bd a218 91bd
00000160: a235 a73c 1c94 31be c976 c33d 9568 1a3e
00000170: 9898 47be ba64 5abb 319c 9dbe d4f7 44bd
00000180: d068 c63d 3581 903d a729 39be edf0 87be
00000190: 735c aa3d f761 463e fbaa d63c 58a1 bbbd
000001a0: 52c7 86be f612 32be 7fba 103d 078f 30be
000001b0: e14d 09be 5ec8 3c3c ff4f 7cbd 5052 723d
000001c0: f065 0dbe 5f01 593e 23db bc3d 2cee 973d
000001d0: 607b d13c e717 76be b52b 453e 8652 193e
000001e0: 6ff7 543e d5e6 bd3d 64f1 69be 790b 7c3d
000001f0: 0fcc 0dbe 150a 29be c901 e3bc 217d e3bd
00000200: 895a aebc 98c7 56be 6a08 14bd ac1f 05be
00000210: 1e59 8c3b 65b8 0b3d 0ce5 993e f0c5 2abd
00000220: 91a2 0c3c 3bbb 52be 7a06 243e 9072 113e
00000230: bff0 3b3e e362 ce3d 4c9b ed3d ef24 f6bc
00000240: 1605 fdbd fbef e4bd 0a5c 3c3e 5a54 8abc
00000250: 00e7 0cbe 64bf d8bd eb62 9bbe c91c 5dbd
00000260: fe41 033e 3c09 643d cbe9 bbbd b267 75bc
00000270: 3a22 873d 888d 0e3e 8086 423d b0fb a2bd
00000280: 0f30 1fbe 4c05 00be ff4e 2e3c ddd4 47be
00000290: 5ac0 76bd fc11 eabc dc4f 97bd b4ce 633e
000002a0: 4ea9 febd d3f5 0cbe 2812 65bc 86c3 51bd
000002b0: 1ce8 e83e 1feb eabd 637a 00be f5f5 b53b
000002c0: ea33 703d 4de2 e23d 0272 793d db43 8abe
000002d0: 9ca1 37bd 4a0e 093e 7cbb 4c3f d038 613c
000002e0: 05a0 90bb 2443 5ebd 0351 10bd b31e 59be
000002f0: 0f9f 16ba d19c 2dbd 8e3d 1abd f1d9 6f3c
00000300: fdf7 413e 1062 4dbd 2daa 7bbe 2faf 2ebe
00000310: d3f4 03be 2b3c 253d 2c44 51be 5ce0 e4bd
00000320: c267 2cbd d711 063e fc78 8ebe 6003 9fbe
00000330: f347 afbe 06d4 2e3d ad85 9c3b 2f12 903d
00000340: 5db2 43bd c7d1 90bc b2c1 13bd 96f2 d0bd
00000350: 292d 943d 7203 0cbf 1e69 02bf 6268 2dbd
00000360: 6ffc 07bd 3412 b0bd d7f1 35bd 4028 34be
00000370: a097 96bd 4683 be3d fe52 8a3d eced 66bd
00000380: 43dc 9cbd 679d 203c 790e 723c 4491 19be
00000390: 001a 253c c6cd e23c 5335 0c3e 1931 febb
000003a0: 6981 933e eab0 5ebc 205d e7bd e626 0a3d
000003b0: a7e3 36be 950b 57be c82c 90be 6893 3a3d
000003c0: ec0e a63e ec74 19bd 44d0 34bd bdb5 3abc
000003d0: 7857 8e3c 4783 02be 8fcc 7d3e a4a7 aabc
000003e0: bafa 86be a731 c8be 1b0f 083e c50b d7bd
000003f0: eb92 063e b674 84bc e7e8 a4bd 6de1 4dbd
0.06864184 -0.037279308 -0.15954664 0.17257921 -0.14178462 0.08813307 -0.18684949 0.26504403
0.19231626 0.13984002 0.18085402 0.06047661 -0.28019914 -0.33477706 -0.33569425 0.2760901
-0.24903953 0.044487685 -0.011095078 -0.3565481 0.14048116 0.09733569 0.1386093 -0.019303152
-0.101960644 -0.06110487 0.19376242 0.023798293 0.033655398 0.012515681 -0.16024247 0.16474035
-0.004731304 0.09541321 0.044312928 -0.051263668 0.014346069 0.19351386 0.11228204 0.08987272
-0.030221531 -0.15302114 0.16016231 -0.24580324 -0.31711233 -0.1290399 -0.6221678 0.13556716
-0.12708035 -0.0001918316 0.20869553 0.09257728 0.1101732 -0.02759052 0.16455875 -0.026327197
-0.08412415 -0.09736304 -0.11575153 0.020622015 0.00834969 0.07221054 0.011680871 -0.05053954
-0.0073752217 -0.12259424 -0.10585173 0.074732035 0.12750715 0.11363511 -0.08932443 -0.13552064
0.12931576 0.054397784 0.17587377 -0.012271082 0.034776103 -0.26898316 -0.047833107 -0.3876679
-0.21399401 0.38039017 0.013914132 -0.52127665 0.09791205 -0.09063534 -0.05583503 -0.070847765
0.020411316 -0.17341655 0.09544141 0.15078957 -0.19491804 -0.0033324198 -0.30783227 -0.04808791
0.0968796 0.07055894 -0.18082295 -0.26551 0.083184145 0.19373308 0.026204577 -0.09161633
-0.26323944 -0.17390046 0.035334107 -0.1724206 -0.13408615 0.011522381 -0.061599728 0.05916053
-0.13808417 0.2119193 0.092214845 0.074184746 0.025571525 -0.24032556 0.19254954 0.14972886
0.20797513 0.09272543 -0.2284599 0.06153438 -0.13847373 -0.16507752 -0.027710812 -0.11107851
-0.021283405 -0.20974576 -0.036140837 -0.13000363 0.0042830845 0.0341114 0.3005756 -0.041692674
0.008583681 -0.20579235 0.16018096 0.14203858 0.18353556 0.10077455 0.11601886 -0.030046908
-0.12354486 -0.11178585 0.18394485 -0.016885925 -0.13759995 -0.1058338 -0.30348906 -0.05398253
0.12818143 0.05567287 -0.09175452 -0.014978336 0.06598325 0.13921177 0.04749155 -0.07958162
-0.15545677 -0.1250202 0.010638951 -0.19514795 -0.060242034 -0.028573029 -0.07388279 0.2224682
-0.12434636 -0.1376565 -0.01398138 -0.051211856 0.45489585 -0.11470627 -0.12546687 0.005553002
0.05864326 0.1107832 0.060899742 -0.27004895 -0.044831857 0.13384357 0.7997358 0.013746455
-0.004413607 -0.05426325 -0.03523351 -0.21203117 -0.00057457475 -0.04238588 -0.03765636 0.014639364
0.18942256 -0.050142348 -0.24576636 -0.17059015 -0.12886362 0.040340584 -0.20436162 -0.11175606
-0.04209114 0.13092743 -0.2782668 -0.31057262 -0.3423458 0.04268267 0.0047766776 0.07034718
-0.047777522 -0.017678155 -0.036073394 -0.102025196 0.07235176 -0.5469276 -0.50941646 -0.042335875
-0.033199724 -0.08597222 -0.04442009 -0.17593479 -0.07353139 0.09302382 0.06754111 -0.056379244
-0.07659199 0.009803153 0.014773958 -0.1499682 0.010077 0.027686011 0.13692217 -0.0077573177
0.2880967 -0.013591984 -0.11297059 0.033728503 -0.1786028 -0.21000512 -0.28159165 0.045550734
0.3243326 -0.03746502 -0.04414393 -0.011395869 0.017375693 -0.12745391 0.24785064 -0.02083189
-0.26363164 -0.39100382 0.13287012 -0.10500292 0.13141982 -0.016168933 -0.08052235 -0.05026381

hidden_layers.0.bias f4 [128]
00000000: e659 003d cb2b c93d c389 06be e3fa d0bd
00000010: 2d21 b2bd 1fb6 19be 2a9b d83d 4f9b 663d
00000020: ffdc a2be 5ba4 b93c f255 edbd 64af efbc
00000030: 5b4f 1cbb b05b af3c 64bc 32be 3e2a dcbd
00000040: 40f8 6b3d d8d0 17be 695d 59bd 1ae4 afbd
00000050: 84c6 e5bd 844b ee3d b752 393e d04b 10be
00000060: 0de1 273e 2e76 e53d d207 433e 2a0e 0cbe
00000070: 74cd 193c f2ec abbc fa0f 443e ed20 a53d
00000080: 92c6 22be 2cca 823d fab3 073e 22be 66be
00000090: 73a2 2e3e ca8e 0b3d 47c2 4c3d 10cd b83d
000000a0: a584 153e 5421 973d 13ac f43d effd 19bd
000000b0: a325 3c3d 757a f0bc 4641 333e 831f 97bd
000000c0: d7b1 21be 1182 df3d 73bb 083e 655d f83d
000000d0: 852d 923d a96f 163e 217f b5bc 0991 e03d
000000e0: e315 d0bd 342b 56bd 59b0 f13c b197 10be
000000f0: f7a5 02be 7997 7f3d 84ac 263d b535 5fbd
00000100: 50a0 573e ca0b 743d 5982 7f3c a8d9 a7bd
00000110: 67ac d9bd 6216 73bd 0e04 9abd 1c81 01be
00000120: ea31 743d f358 24be ad6b 10bd 8457 9b3a
00000130: d863 b43d 740b 29be 44a7 8f3c 1bf3 e73c
00000140: 5b47 983c 082b ff3d 20b9 05bd fac9 6abe
00000150: 9bb2 1abc 5fd3 6d3e 1bf8 ef3d a04a fdbd
00000160: 19a5 bc3c 5c74 133e 98fb 043d 8b79 1fbe
00000170: f680 80bd 38dc d7bd 855d a63c c5f5 053e
00000180: 25e0 46bd 7320 1ebe 6ebd ecbd 3942 0c3e
00000190: a9c6 22be 7541 63be 83d2 393e e596 ea3d
000001a0: 0535 7abe 6959 7ebe 13eb 84bd f33f 26bc
000001b0: c6f4 40be 2a27 183d f118 053e 2765 fbbd
000001c0: 3504 91bd b38b 1cbe 97b7 fc3c 54de 533e
000001d0: 6a5b ee3d 118b 123e 455d a8bb d95b b5bc
000001e0: 80b2 9f3c 4bec cf3d c81b c9bd 1077 77be
000001f0: a88d dfbd 5a50 b03d 4372 253e 5d84 d0bd
0.031335734 0.09822806 -0.1313849 -0.10204103 -0.08697734 -0.1501088 0.1057647 0.056300458
-0.31809232 0.022661379 -0.115886584 -0.029258437 -0.002385101 0.021406025 -0.17454678 -0.107502446
0.057609797 -0.14825761 -0.0530676 -0.08588429 -0.112195045 0.11635497 0.1809796 -0.1409142
0.16394444 0.112041816 0.19045952 -0.13677278 0.009387363 -0.020987008 0.1914672 0.08062921
-0.15896061 0.063862175 0.1325225 -0.22533467 0.17054157 0.03407172 0.049989965 0.090234876
0.14601381 0.07379404 0.11946883 -0.037595686 0.04593433 -0.029355267 0.17505369 -0.07379057
-0.15790497 0.1091348 0.13352756 0.121271886 0.071375884 0.14691032 -0.022155346 0.10965163
-0.101604246 -0.052287295 0.029503034 -0.14120366 -0.12758623 0.062400315 0.040691867 -0.05449458
0.21057248 0.059581555 0.015595042 -0.081958115 -0.10628586 -0.059347518 -0.075203046 -0.12646908
0.059617914 -0.16049556 -0.035258938 0.0011851643 0.08808106 -0.16508275 0.017535813 0.028314164
0.018588712 0.124593794 -0.032647252 -0.2292861 -0.009441997 0.23225163 0.11717244 -0.12367749
0.023027943 0.14399856 0.0324665 -0.15573709 -0.06274597 -0.1054005 0.020308265 0.13082035
-0.048553605 -0.15442066 -0.11559568 0.13697137 -0.15896095 -0.22192939 0.1814671 0.11454562
-0.24434288 -0.24838795 -0.06490149 -0.010147083 -0.18843374 0.037146725 0.12997796 -0.12275153
-0.070808806 -0.15287666 0.030849261 0.2069028 0.116385296 0.14310862 -0.0051380717 -0.022138523
0.019494295 0.10152491 -0.09819752 -0.24166512 -0.10915691 0.08609076 0.16156869 -0.10181496

hidden_layers.1.weight f4 [64, 128]
00000000: 0e9a 8ebd d6d4 0abe b97e adbc c57f 02bd
00000010: 36ca cebd a364 e83c b174 273d cc33 7a3d
00000020: eaeb a83d 081a f73d 8353 9abd 40c8 6bbd
00000030: 23e7 a23d 836d 10be 28e5 aabd 4d73 703d
00000040: a8c1 c03c e756 bfbd e309 423a aa23 10bd
00000050: bb0c 5d3d 7239 963d 4366 a0bd 6a7f 393d
00000060: 5421 50bd 992d dfbd b5ba 9fbd e3cc 3cbd
00000070: 4595 7fbe 0a5e c5bc b101 64be ae9b cb3d
00000080: 2071 cf3c 1cf8 d83c 97cf 37bc c612 c8bc
00000090: c9ef 5b3d 5fad 933c 29b0 ee3d 6614 06bd
000000a0: a9f3 d6bd d9e8 ccbd eedf bebd e308 c4bc
000000b0: be38 f63c 5062 1c3d 9892 2cbe 34f5 b3bd
000000c0: 5692 80be 23fe 93bd acf3 31be db9a 16be
000000d0: d8fc 0dbe 7f29 55be 4d8c da3c facc a23c
000000e0: 675e 3b3c dc11 ecbd d1f4 03bc e96a 5e3d
000000f0: 5c5a afbd 271b 19bd 6f3b b73d 0786 cfbc
00000100: d7b0 e53d 374c 2bbd c7d3 bb3d 4198 a93c
00000110: 6782 533d 212c 8fba 470c 28bc 9c2d 35be
00000120: 4a65 a2bd 6b72 cf3d 56e6 ab3d 021a 19bd
00000130: cc16 bfbc 59a7 02be a647 ccbd ce25 a33d
00000140: e819 e0bd d78e bd3d 54a8 823d 9996 aabd
00000150: e6f7 37bc d887 1ebe 5a10 fbbd 2a9b 3bbd
00000160: bdbd 80be 3f15 b63d 6a4a 0f3d 745a 8abc
00000170: 1507 e4bd e0bd d83b a18a e93d 5d55 1dbe
00000180: 31cd 35be 6d1d 853d 1c16 a1bc 68ac f9bc
00000190: dc3d d83d 29c9 28bb 66fd 59bd 3a59 1abd
000001a0: 4741 e53c a717 f73c ddbb c03d d8e4 cabd
000001b0: bafe e83d 26ee 52bd c7fa 21be 9a9f 943d
000001c0: 903f c5bb 009b ca3d 27c3 00be 3e5e 53bc
000001d0: 0352 1f3c 94da 1b3e 8fe8 babd 7376 25bc
000001e0: 4393 8d3c 9f3c a2bd 2aca 883d 6418 d5bc
000001f0: 135c 0abc 2b9e 32be 5b0e 093d 3142 abbc
00000200: 6c9c dd3c 583e 88bc 220a 83bd 5c12 80bd
00000210: ca0a c9bd 6445 38bd c781 09bd 7c3d 42bd
00000220: de3e 8e3d 8fa3 9abd e393 3bbd 55b7 82bc
00000230: 6584 d0bd 4eb3 e0bc 06f1 3bbd f985 e8bd
00000240: b88a 97bc 6fb7 8f3d c37c 16bc 5037 5c3d
00000250: d9c2 0dbc 5338 31bd 2878 743d 3b04 8cbd
00000260: acaf d7bd bbd9 623c 0fce 503c 20f4 babc
00000270: 338f 533c da4a 4abd 999f 01bc be70 00bd
00000280: 29b6 33bd 7ed3 bebd 1cd1 833b 867f 35bd
00000290: ef66 2f3d ea44 78bc f798 babd da18 a7bd
000002a0: 1665 7fbd 50fb 093d b65e 98bd f32f 95bd
000002b0: ff96 08bd f830 9bbd 7390 79bd 6e11 893d
000002c0: 4492 acbd 5579 80bd f74f 683d 9215 dabb
000002d0: e689 653d 7a9f 9bbd 82a8 063c fb2b 45bd
000002e0: c602 82bd 2789 6fbc 33b6 dbbd a02a a3ba
000002f0: 342a 0dbd b23e dabd 8206 123d e871 473d
00000300: 1ec9 803c 54f0 463d b6ed 283d 8068 8a3d
00000310: 4a2b 4d3d 9ae7 453d 009b 6d3c f43b e2bc
00000320: f8c6 94bc e5dc 19bd 0f92 d1bc 6c77 30bd
00000330: 7440 813c 280a 93bd 1329 6ebd d7ba bd3c
00000340: 68fa babb 9c1a 5c3b 8bfe abbd 06a0 4dbd
00000350: 04b1 2bbc 61e0 05bd 6b76 b23c b12a 14bd
00000360: 5b70 543d 2a33 2bbd 8828 d53c f0eb d2bd
00000370: 1da8 d1b9 4a83 98bd afea 26be 6265 d03c
00000380: a34b 0dbc d027 d2bc 8a0c 91bc a727 88bc
00000390: 9931 383d 58e9 6b3d 5b10 103c 1f27 663d
000003a0: f5e1 dabc 0bd5 4bbd fb51 37bd 7b6f 403d
000003b0: f39c 92bc 4bbf b5bd 0263 493c e5b4 b4ba
000003c0: be49 b6bd d79a a63d b00a 113d fa23 64bd
000003d0: d69a d9bd 5c97 b73d 7c90 4e3d 30fa b8bd
000003e0: ba0a a1bc 4187 dabc 56c3 1f3d 892c bebd
000003f0: ec95 30ba 4c5f 8b3c 5920 413d 8f88 7b3b
-0.06962977 -0.13557753 -0.02117859 -0.03186013 -0.100971624 0.0283683 0.04088277 0.061084554
0.08248122 0.12065512 -0.0753546 -0.05756402 0.07954242 -0.14104275 -0.08344489 0.05870371
0.023529842 -0.09342747 0.0007401986 -0.035190262 0.05396722 0.073351756 -0.07832005 0.045287527
-0.050813034 -0.10897369 -0.077992834 -0.046093833 -0.24959286 -0.024092693 -0.2226627 0.09941803
0.025322497 0.026485495 -0.011218927 -0.024423014 0.053695474 0.018027006 0.11654694 -0.032734297
-0.10495693 -0.1000535 -0.09320055 -0.023930019 0.030056354 0.038179696 -0.16852796 -0.08787003
-0.25111645 -0.07226207 -0.1737811 -0.1470751 -0.13865983 -0.20816611 0.026678229 0.019873131
0.0114360815 -0.11526844 -0.008053974 0.054301176 -0.085621566 -0.03737941 0.08946883 -0.025332464
0.1121537 -0.04182073 0.09171253 0.020702483 0.051638033 -0.0010923186 -0.010256833 -0.1769318
-0.079294756 0.10129245 0.083935425 -0.03737832 -0.0233263 -0.1275915 -0.09974603 0.07966195
-0.10942441 0.0925576 0.06379762 -0.083295055 -0.011228537 -0.15481508 -0.12258978 -0.045802273
-0.2514476 0.08890771 0.034983076 -0.016888835 -0.11134163 0.0066144317 0.114033945 -0.15364595
-0.17754056 0.06499753 -0.019663863 -0.030477718 0.10558674 -0.0025754666 -0.053220175 -0.03768275
0.027985228 0.030162646 0.09410832 -0.0990693 0.1137671 -0.051496647 -0.1581832 0.07257004
-0.00601954 0.09892845 -0.12574445 -0.012900887 0.009724143 0.152201 -0.09126388 -0.010099041
0.017282134 -0.07921719 0.06679185 -0.026012607 -0.008444804 -0.17443149 0.033460956 -0.020905586
0.027052127 -0.01663129 -0.06398417 -0.06253502 -0.09816511 -0.04498805 -0.03357103 -0.047421917
0.06945585 -0.075507276 -0.045795333 -0.01595656 -0.10181502 -0.02742925 -0.045884155 -0.11353678
-0.018498763 0.07017409 -0.009185019 0.053763688 -0.008652412 -0.043266606 0.059684902 -0.068367444
-0.105315536 0.013845856 0.012744441 -0.022821486 0.012912559 -0.04938779 -0.007911586 -0.03135752
-0.043874893 -0.09317683 0.0040227305 -0.04431107 0.042822774 -0.015153149 -0.09111207 -0.08159037
-0.062352262 0.033686936 -0.0743994 -0.07284536 -0.033347126 -0.075776994 -0.060928773 0.066927776
-0.084263355 -0.06273142 0.056716885 -0.0066554034 0.056039713 -0.07598777 0.008218886 -0.048137646
-0.06348185 -0.014620102 -0.10728111 -0.0012448616 -0.034464076 -0.106564894 0.035650738 0.048692614
0.0157209 0.04856904 0.041242324 0.06758213 0.05009011 0.048316576 0.014502287 -0.027616479
-0.018161282 -0.037564177 -0.025582341 -0.04308264 0.015777804 -0.071796715 -0.05814464 0.023160381
-0.0057061203 0.0033585196 -0.083981596 -0.05020144 -0.0104792155 -0.032684688 0.021784982 -0.036173526
0.051864963 -0.04179684 0.026020303 -0.10298908 -0.0003998884 -0.074469164 -0.16300462 0.025438968
-0.00862399 -0.02565375 -0.017706174 -0.01662047 0.044969175 0.05759558 0.008792962 0.056189653
-0.026719073 -0.04976372 -0.044755917 0.046981316 -0.017897105 -0.08874377 0.012291672 -0.0013786821
-0.08900784 0.08135002 0.035410583 -0.055698372 -0.10625236 0.089644164 0.05043076 -0.090320945
-0.019658435 -0.026675822 0.039004646 -0.09285838 -0.0006736207 0.017013215 0.04714999 0.0038380956

hidden_layers.1.bias f4 [64]
00000000: f9d9 7bbd 2fe4 b1bd b589 90bd 14f0 0a3e
00000010: c10d 8d3e 07a0 a8bd f1f1 57bd 269a 183e
00000020: fbec 8ebd 9add 59bd acb8 883c 53f7 d9bd
00000030: d2e1 4abd 487f 06be ad7b c8bd d72a 773d
00000040: cf23 963e 5407 d2bc 36ba 36be f19c ddbd
00000050: 1f66 2a3d 0a8c 073d 699f 8fbd 2e31 6e3e
00000060: f756 913a eaa3 023e d4d7 433d 90b8 363e
00000070: 7cc7 f0bd 1d1a 663d c972 d33c 9876 153e
00000080: 9ecb 5bbd 9b03 213e c796 0b3e f197 623d
00000090: 9f7a e2bc 3354 693d da1a f13a 164c 3a3d
000000a0: 9e00 52bd b159 3d3e 2fc5 983e bc04 0fbe
000000b0: 82f2 f93d 55ab 183e c545 80bd 5167 dfbd
000000c0: 9491 7cbd d9aa 8e3c 423e fb3d a634 19be
000000d0: bd4c b5bd c734 5cbd 6e0b 9bbd 1f08 f93b
000000e0: 439b f43d ea34 093e 4323 d63d 94a6 023e
000000f0: f718 acbc ed10 75bd 1295 3dbd aa26 d9bd
-0.06148717 -0.08686101 -0.070575155 0.13568145 0.27549556 -0.08233648 -0.052720968 0.14902553
-0.06978794 -0.05318985 0.01668962 -0.106428765 -0.049531765 -0.13134491 -0.09789214 0.06034359
0.29324195 -0.02563826 -0.17844471 -0.1082095 0.041601297 0.033092536 -0.07012827 0.23260948
0.001108854 0.12757841 0.04781325 0.17843843 -0.117567986 0.056177247 0.02581157 0.14596021
-0.05366098 0.15724032 0.13631736 0.055320684 -0.02764636 0.056965064 0.0018394843 0.045482717
-0.05127012 0.18491246 0.2983794 -0.1396665 0.12204458 0.14909108 -0.062633075 -0.10908378
-0.06166227 0.01741545 0.12267734 -0.1496149 -0.08852527 -0.05376127 -0.075705394 0.007599845
0.11943676 0.13399091 0.104559444 0.12758857 -0.021007998 -0.059830595 -0.046284743 -0.10603078

hidden_layers.2.weight f4 [32, 64]
00000000: 78c1 9b3d 3d31 b03c 8371 e2bc 11b9 593d
00000010: b9c9 353d c9f6 08be 412d b63d 0e3b 383b
00000020: ea7f 65bc 1d2e 89be badb fa3d 7c7f fa3d
00000030: 9b89 8abd c27c 8bbd 718c 0a3c 093c 583d
00000040: ece9 9c3c 14e4 13be cb7e 963d f0ee 363d
00000050: 8fb1 6ebe faaa e33d 1507 0d3e 3e25 803d
00000060: 2ad3 c1bd 9026 afbd 53d2 023e 3966 14bd
00000070: 0a5c 21be 8c43 e6bc 8673 86be b52c da3d
00000080: 281e 3a3c 89a6 08bc 7d05 923e b5b5 32be
00000090: 2aef afbd 3459 943e 16df e3bd 2a9b 103e
000000a0: eca5 f93d 1fc0 0f3e f3ff a2bd 5b8c daba
000000b0: 9c1d 2bbd fdee 133e ad9c 553d aca3 0a3d
000000c0: 6a27 343e 28cf fe3c 915f 123d d67d eabc
000000d0: bebc dcbd d815 123d c28d 8e3d 0c2f 073e
000000e0: 0047 1fbe 8427 c23d 0f83 323d f069 fe3d
000000f0: b39c ae3c 33e6 99bd 9e2f e93c 925a 5dbd
00000100: 3b72 bf3b 007f 953d e046 313b b89f 65bd
00000110: ee9c b83c 5baf 2fb9 8048 46bd 4bb7 a6bc
00000120: 1172 843d 389a dc3d ac2b 07bd b1c2 b63d
00000130: 6b3f e73d a62c 8a3d c100 5d3d cbf5 e7bd
00000140: 4748 a1bd 49f6 74bd 8239 f93d 3d86 603c
00000150: 5af5 eabd 982e f4bd dceb e9bd cad8 d8bd
00000160: 0467 aabd 9655 96bd 4660 ae3d fac9 98bd
00000170: cc91 dc3d ceef 19bd 72b6 e6bd 31e3 75bd
00000180: 9605 82bd b558 c0bd 8cbf fcbd 1228 f1bc
00000190: d01b d7bd fbaf 33bd 8faf 1ebd 8898 a8bd
000001a0: 713f 85bc 48ef d2bd 5d0b 8dbd 2c3f d13d
000001b0: 7e6a d43d 2136 2a3b f991 fa3c 19d7 cc3d
000001c0: 24d7 e83d 6aa4 88bd 6985 203c 236e 02bd
000001d0: 1cd8 bbbd c45c cb3d d157 b23d 6038 18bb
000001e0: 0716 c23d fcd7 d53c ccae 913d 51f6 333d
000001f0: b377 5a3d 3547 083d 2043 3e3d e0e6 d63d
00000200: defd 833d c798 babd acfe 683d 2695 313e
00000210: 7337 33bc 649e 613d 6be6 cabc c2d7 823e
00000220: 0448 19bd 06af 43bd 4211 653d 17a9 a33d
00000230: 123d 03be c47e cabd e198 3a3e c452 f53b
00000240: 6243 01be 58db e8bb cc5b a13e 2189 e5bd
00000250: 2b94 333e 75b8 783d 8a81 7dbc 0fa7 043c
00000260: 3a0e e43d 5fc7 0f3d 7937 0c3e 382b 6e3d
00000270: 7803 7bbe 24c2 583d 52d5 3abd f2cd a03d
00000280: 1344 5c3d c297 4abe e189 643e ea50 1fbe
00000290: a030 0f3e 0963 4e3e c26a 03ba aea2 1a3e
000002a0: c953 1f3e 81ea eabd 8eb0 03be bb28 6d3d
000002b0: 93c5 c63d 901a 063e 4076 c5bc 757b 7ebb
000002c0: d94a 8a3a 7b5e 013e c89a 223e 984a 0f3e
000002d0: 514e 8fbd d9f0 ca3d 10f4 1bbe 91b1 b2bc
000002e0: 7d7c 2b3e 2fbd 0b3e 6638 ca3d 555a 83bc
000002f0: b114 143d 7f60 d73d 984d eb3b 880b 86bd
00000300: f026 60bd 8e2a 9bbd fce8 9b3d 45a3 943d
00000310: e5b2 42bc c04f 79bb 5602 c0bd d63c e9bd
00000320: 3487 c5bd a1e6 ebbd 5ca2 d2bd f00f 703d
00000330: c247 c3bd 3746 0a3d 0c57 aa3d 2f80 d7bc
00000340: e9a0 5c3b a8c7 9f3d c825 e8bd 2220 dd3d
00000350: 4b9f c63d 2049 f43d 18df 47bd 601c 4f3d
00000360: 5c52 3cbd 2893 dbbb 16ae a03d 8fba 9f39
00000370: e03c 3b3d 2ea1 73bd 7e04 aebd ef80 9b3d
00000380: e3fa 0dbe c6c8 8bbb 3008 46bc fc36 10bd
00000390: 3015 fabd 423a 98bd 401e 92bd 9356 ebbb
000003a0: a0b3 473d c4b1 e8bd a534 98bd 561a f4bd
000003b0: be11 af3d c034 ebbd a8fb 88bc d024 92bc
000003c0: 285e 8cbd 9ce8 b73d 3c0c 5b3d 0e95 853d
000003d0: 8e77 b43d d8ba 7fbd f8b6 773d a8ee ce3d
000003e0: 0494 5dbd 90a0 27bc b0e9 63bc 7d72 18be
000003f0: 60f5 59bc 8001 75bc 4489 efbd 3046 bb3d
0.076052606 0.021507854 -0.027642017 0.05315501 0.04438183 -0.13375391 0.0889535 0.0028111371
-0.014007548 -0.26792994 0.12248941 0.12231347 -0.067645274 -0.06810905 0.008456335 0.05279163
0.019154511 -0.14442474 0.073484026 0.044661462 -0.2330992 0.111165956 0.13772233 0.062571034
-0.094641045 -0.08552277 0.12775545 -0.0362303 -0.15757766 -0.02810838 -0.26260012 0.106530584
0.011359729 -0.008340486 0.28519812 -0.17452128 -0.08590539 0.28974307 -0.11126535 0.1412169
0.1218985 0.14038132 -0.07958975 -0.0016673909 -0.041776285 0.14446636 0.05215137 0.033847496
0.1759316 0.03110464 0.03573567 -0.028624456 -0.10778187 0.035665363 0.06960632 0.1320154
-0.15554428 0.09480193 0.04358202 0.1242255 0.021314954 -0.0751461 0.028465088 -0.054041453
0.0058424748 0.07299614 0.0027050301 -0.056060523 0.022535767 -0.00016754626 -0.048408985 -0.020351073
0.06467069 0.107716024 -0.033000633 0.08923853 0.11291393 0.06746797 0.053955797 -0.11326178
-0.07875114 -0.05980519 0.12169172 0.01370388 -0.11472578 -0.119229496 -0.1142194 -0.10588224
-0.0832043 -0.07340543 0.085144565 -0.07460399 0.10769996 -0.03758221 -0.112652674 -0.06003112
-0.06348722 -0.093919195 -0.12341222 -0.029438052 -0.10503352 -0.043869 -0.038741644 -0.08232218
-0.016265603 -0.102995455 -0.06886933 0.10217127 0.10371874 0.0025972205 0.030587183 0.10001964
0.1136916 -0.066719845 0.009797432 -0.031843316 -0.09172079 0.09929803 0.08708156 -0.0023226961
0.09476858 0.026103966 0.07113418 0.043936078 0.05333681 0.033271033 0.046450734 0.10493255
0.06444906 -0.09111171 0.0568835 0.17342052 -0.010938513 0.055082694 -0.024768075 0.25555235
-0.037422195 -0.047774337 0.05592466 0.07991236 -0.12816265 -0.0988746 0.18222381 0.007486673
-0.12623361 -0.007106226 0.31515348 -0.11207796 0.1753699 0.060722787 -0.015472779 0.0080964705
0.11135526 0.035102244 0.13693036 0.058146685 -0.24513042 0.052919522 -0.045613594 0.07851781
0.053775858 -0.19784454 0.22318222 -0.1555821 0.13983393 0.20154966 -0.00050131616 0.1510112
0.15559305 -0.11470509 -0.12860319 0.05790017 0.09705653 0.1309607 -0.024104238 -0.003883091
0.0010550871 0.12633698 0.15879357 0.13993299 -0.069973595 0.09909219 -0.15229821 -0.021813186
0.16746707 0.13646387 0.098740384 -0.016034285 0.036152545 0.10516452 0.0071808808 -0.06545168
-0.054724634 -0.07576476 0.076127976 0.07257704 -0.011883472 -0.003804192 -0.093754455 -0.11388557
-0.096449286 -0.11518598 -0.10284874 0.05860895 -0.09535171 0.03375837 0.08317384 -0.02630624
0.0033665246 0.07801753 -0.11335331 0.107971445 0.096983515 0.1192801 -0.048796743 0.05056417
-0.04597698 -0.006700892 0.07845704 0.0003046584 0.04571235 -0.059479885 -0.084969506 0.075929515
-0.13865237 -0.0042658774 -0.012086913 -0.035208687 -0.122110724 -0.07432987 -0.07134676 -0.0071819513
0.048755288 -0.11362031 -0.07431916 -0.11919086 0.08548306 -0.11484671 -0.016721562 -0.01783982
-0.068538964 0.089799136 0.053478464 0.065225706 0.08811866 -0.062434047 0.060477227 0.10104114
-0.054096237 -0.010231152 -0.013910696 -0.14887424 -0.013303131 -0.014953971 -0.11696103 0.091442466

hidden_layers.2.bias f4 [32]
00000000: f607 1d3e 5869 94bd 4b65 24be 794c 0dbe
00000010: 6ceb 10bd ae21 10be edec e63e bae3 f13d
00000020: d621 883d 9a0a 933e c972 d7bd 7d6d f3bd
00000030: c35f be3d 869d 843e 9eb8 773e 2d88 18be
00000040: ebeb 69bd 0b07 f63c fa01 a23d 3a1d 03be
00000050: c431 8e3e 4380 81bd 63e9 49bd 2cf1 3ebd
00000060: 5578 953e 3209 f9bd 91a7 053b 7d8e 553d
00000070: 0a55 75bd 060d 943e fccc 523e fd40 bb3c
0.15335068 -0.07246655 -0.16054265 -0.13798703 -0.035380766 -0.14075348 0.45102635 0.118110135
0.06647079 0.28719026 -0.105199404 -0.118861176 0.09295609 0.2590143 0.2419152 -0.14895697
-0.057109755 0.030032655 0.07910533 -0.12804118 0.27772343 -0.06323292 -0.04929484 -0.04661672
0.2919337 -0.12159957 0.0020394067 0.05213784 -0.059895553 0.28916186 0.20586008 0.022858137

output.weight f4 [4, 32]
00000000: 70c0 c93d ef43 9cbd 9b78 acbc 190a 813d
00000010: 787e 12be ba9f 853d 090d 633e 1ef6 063e
00000020: c47f 423e bdcf 783e eaee 3cbd b445 74bc
00000030: 3030 d1bd 5322 763e 693a bc3c 80d6 2a3d
00000040: 8c31 c8bd 2ed7 e4bd 4f77 683a 8f4c 9cbc
00000050: 293e 083e 25a2 443d c19f 53bd 40e0 22bd
00000060: 1116 923d fb33 8eba 3144 b43d 7216 8f3e
00000070: d58a 5abe b7bf 803e 92e9 843e 773f a1bd
00000080: 0435 1e3e 89fd 513d 6931 6dbd f072 033c
00000090: c506 9cbc 792f 0b3e cf2e ad3d 30ce e93d
000000a0: 8c97 5d3e b98f ed3d fe83 8dbc 7b0a 143e
000000b0: 330e 143d 093a 9e3e 2270 de3d c2c6 8cbd
000000c0: 62d5 d13d 3b90 b63d b1fb 07bd 18a9 853c
000000d0: ffc5 b83d 468c 1b3c 03ca e53d c81e fbbc
000000e0: f315 863e e90e 15bc 24cc babd a874 bb3d
000000f0: 9940 fc3d 718b 1a3e 5535 553e 43ca e63d
00000100: 2c13 5b3e 420a efbd 6484 26be 1832 893c
00000110: 313d 2d3d 8d62 76bc 24f3 863e a118 13be
00000120: eff3 12bd c8e0 de3d 1a32 93bd e3d1 18bd
00000130: 6802 23be 6c72 503d 09e6 0d3e 6f26 103d
00000140: 83b6 99bc 5bb1 ad3d 0232 1fbe fc6b 1d3e
00000150: 95dc 993e e342 de3d 3d94 0b3e 338c 083e
00000160: 7396 f13d 58cb 8e3d 27d3 d6bc 9315 f03d
00000170: 6b48 07be 7b64 dd3d bead 663d 88e8 3abc
00000180: 45d7 b6bd 3a20 253d 4859 29be 494a 94bd
00000190: 46eb 80bd b581 89bc 3dd9 763e 01ff a23c
000001a0: bf29 1e3e e01f 8a3d 431f 2a3e 1722 c7bc
000001b0: ab36 3e3e 68ee 48bd 2f99 003e 3011 2ebe
000001c0: 255b 09be 1ca2 1ebe 48fb 17be d4d1 97bd
000001d0: f641 03bd 3d97 e038 76a5 9c3d e006 8bbd
000001e0: d4cc 613e 3f6a ddbd 1947 5bbd bfc4 4abd
000001f0: efd4 d3bb 1226 4a3e d7e9 903e 0273 f53c
0.09851158 -0.07630145 -0.021053603 0.06300754 -0.14306056 0.06524606 0.22172941 0.13179824
0.18994051 0.24297996 -0.046126284 -0.014909197 -0.10214269 0.24036531 0.02297707 0.04170847
-0.09775075 -0.11173855 0.0008867876 -0.019079475 0.13304962 0.048006196 -0.051666025 -0.039764643
0.07133115 -0.0010849232 0.08802069 0.27946812 -0.21342023 0.25146267 0.2595945 -0.07873433
0.15449911 0.05126718 -0.05790845 0.008023009 -0.019046197 0.13592328 0.08456194 0.1141628
0.21639842 0.115996785 -0.017274853 0.14457123 0.036146354 0.30903652 0.108612314 -0.068738475
0.10245778 0.089142285 -0.033199016 0.016315982 0.0902214 0.009493893 0.11220171 -0.030654326
0.2618862 -0.009097793 -0.09120968 0.0915311 0.123170085 0.15092255 0.20821126 0.11269047
0.21394032 -0.116718784 -0.1626144 0.01674752 0.042294685 -0.015038145 0.26357377 -0.14364864
-0.035877164 0.10882717 -0.071872905 -0.03730954 -0.15918887 0.05089037 0.13857283 0.035192903
-0.018763786 0.084810935 -0.1554642 0.15373224 0.30051103 0.108526014 0.13630767 0.13334732
0.11796274 0.069723785 -0.026223732 0.11722865 -0.13211219 0.10810181 0.056318037 -0.011407979
-0.08927778 0.040313937 -0.16537964 -0.07240731 -0.06294875 -0.016785482 0.24106307 0.019896986
0.15445612 0.06744361 0.16613488 -0.024308247 0.18575542 -0.049055487 0.12558435 -0.16998744
-0.13413675 -0.15491527 -0.1484195 -0.074130684 -0.032045327 0.00010709323 0.07648747 -0.06788421
0.22050792 -0.108112805 -0.0535346 -0.049504038 -0.0064645926 0.19741085 0.28303406 0.029962067

output.bias f4 [4]
00000000: 1cc8 933e 620a af3e 840e 503e 85c9 923e
0.2886361 0.3418761 0.20318037 0.28669372
