checkpoint.pth (torch_old, 214008 bytes, 10 tensors)

hidden_layers.0.weight f4 [256, 37]
0	0x3d8bb97a	0.06822486
1	0x3d853e7c	0.065060586
2	0xbeb70d1d	-0.35752192
3	0xbdb13f35	-0.08654634
4	0xbe154b14	-0.14579421
5	0x3d58ed0e	0.052960448
6	0x3d25fc36	0.04052373
7	0x3d7ca4c5	0.061680574
8	0xbeb327a8	-0.34991193
9	0x3e18c228	0.14917815
10	0x3ae0fce4	0.0017165211
11	0xbbe9c333	-0.0071338653
12	0xbe9b72bc	-0.30360973
13	0xbe409979	-0.18808545
14	0xbe0c7475	-0.137163
15	0xbdd3f40d	-0.10349283
16	0x3da9e032	0.08294715
17	0x3dd98c66	0.10622482
18	0xbc8aa4a5	-0.016924212
19	0xbe33ed00	-0.17570877
20	0x3da3d513	0.07999625
21	0x3db40b5d	0.0879123
22	0xbcebbe1b	-0.028777173
23	0x3d89e717	0.0673353
24	0xbd5750d6	-0.052567326
25	0xbda861b7	-0.082217626
26	0x3e41615d	0.18884797
27	0xbd6c8435	-0.05774327
28	0xbcf5393a	-0.029934514
29	0xbbdb2cb5	-0.006688679
30	0xbdfe27c0	-0.124099255
31	0xbcc26dec	-0.023734055
32	0x3e1267e5	0.14297445
33	0xbe1968f8	-0.14981449
34	0xbe1ee5ab	-0.15517299
35	0xbe67a51b	-0.22621576
36	0x3c9e20ae	0.019302692
37	0x3df252b6	0.11832182
38	0xbe49bf68	-0.19701922
39	0x3ddffe32	0.10937156
40	0x3cec5d4e	0.028853085
41	0xbe641459	-0.22273387
42	0xbd2ffbf4	-0.04296489
43	0xbea70927	-0.3262417
44	0xbe634691	-0.22194888
45	0x3e441914	0.19150192
46	0xbec9b4fc	-0.39395893
47	0x3dce252b	0.10065683
48	0xbe484155	-0.19556172
49	0xbd4cdab3	-0.050013255
50	0x3d848484	0.06470588
51	0xbe38c3bd	-0.18043418
52	0x3d978629	0.07398636
53	0xbe0ffc93	-0.14061193
54	0x3dcb2578	0.09919256
55	0xbe261eab	-0.16222636
56	0xbe5c9a75	-0.21543296
57	0xbe4f90cd	-0.20270081
58	0xbd69a6b7	-0.057043757
59	0xbe099aff	-0.13438033
60	0xbd3fbb8e	-0.046809725
61	0xbd36674b	-0.0445321
62	0xbe2c9a8b	-0.16855828
63	0xbe3a6d8c	-0.18205851
64	0x3e578e30	0.21050334
65	0xbed96c04	-0.42465222
66	0xbe60ec24	-0.2196508
67	0xbddf8036	-0.10913126
68	0xbde2aee0	-0.11068511
69	0x3eabf632	0.3358627
70	0xbeab09e4	-0.33405983
71	0xbea83da3	-0.32859525
72	0x3d7d8f23	0.061904084
73	0xbc37dc54	-0.011221964
74	0xbe5c1851	-0.21493651
75	0x3e8ccefd	0.2750167
76	0x3d831e7a	0.06402297
77	0xbd454ae1	-0.048167113
78	0xbe3743ce	-0.17896959
79	0xbedd4f5c	-0.4322461
80	0x3e3ea3d4	0.18617183
81	0x3dc5e930	0.096636176
82	0x3df82bd7	0.12117737
83	0xbee54362	-0.44777972
84	0xbc7171a4	-0.014736567
85	0x3cdd3ac6	0.027005564
86	0xbd8bed2e	-0.06832348
87	0xbd7cf61a	-0.06175814
88	0x3dd68202	0.10474016
89	0xbefb5eb1	-0.4909568
90	0x3e191ad4	0.1495164
91	0x3e411755	0.18856557
92	0x3e58bf64	0.2116676
93	0xbe978524	-0.29593766
94	0xbe153301	-0.14570238
95	0xbd9bfff0	-0.076171756
96	0xbcfe5228	-0.031045035
97	0x3e3c3899	0.18380965
98	0xbdc1d7ac	-0.09464964
99	0xbea96f93	-0.33092937
100	0x3e688bce	0.22709581
101	0x3db1e57b	0.08686348
102	0x3e260977	0.16214548
103	0xbe7ad170	-0.24493957
104	0xbeb5e52f	-0.35526416
105	0x3dcfd068	0.10147172
106	0xbd50cefa	-0.05097864
107	0x3d658aab	0.056040447
108	0xbe3195c6	-0.1734229
109	0xbda2d0e3	-0.07949998
110	0xbb8915cc	-0.0041835066
111	0x3e84e546	0.25956172
112	0xbecb1fba	-0.39672643
113	0x3c04019b	0.008057023
114	0x3de28b2e	0.11061703
115	0xbf27eac2	-0.65592587
116	0x3c86e6e1	0.016467514
117	0xbe063758	-0.1310705
118	0x3cd5bc24	0.026090689
119	0x3e6a7a03	0.22898106
120	0x3d56ff80	0.052489758
121	0xbd45b911	-0.048272196
122	0xbd6ed976	-0.058312856
123	0x3e11b65c	0.14229721
124	0xbe2df330	-0.169873
125	0xbdbd254b	-0.09235629
126	0xbe3985c0	-0.18117428
127	0x3e2fd61f	0.17171524
128	0xbd885e08	-0.0665856
129	0xbe4b5d9f	-0.19859932
130	0xbdcfb9f8	-0.101428926
131	0xbdee749c	-0.11643335
132	0xbdd47917	-0.103746586
133	0x3e5ae6e9	0.21377148
134	0x3e0d1fb9	0.13781632
135	0x3b528821	0.0032124596
136	0xbda1d65d	-0.07902215
137	0xbd338a07	-0.043832805
138	0x3e244e93	0.16045599
139	0x3daf5b5c	0.08562347
140	0x3e2759f1	0.16342904
141	0xbc52ba84	-0.012861852
142	0x3dda5273	0.10660257
143	0x3e55fd75	0.20897467
144	0xbe4934ae	-0.19649002
145	0x3d8359c3	0.06413605
146	0x3e134738	0.14382637
147	0xbd0e7b1c	-0.034785375
148	0xbdcb4723	-0.099256776
149	0xbe042c73	-0.12907581
150	0xbe2fc01d	-0.17163129
151	0xbd1a87f5	-0.037727315
152	0xbd86aa43	-0.065754436
153	0x3e44ea7a	0.1923007
154	0x3e046c85	0.12932022
155	0xbf1c5581	-0.6106797
156	0x3da308ef	0.07960688
157	0xbf736a54	-0.9508412
158	0x3d04a8e7	0.03238764
159	0x3c9d879e	0.019229706
160	0xbe476f6a	-0.19476095
161	0xbda9226e	-0.0825852
162	0xbd953dc3	-0.07287171
163	0xbe179a63	-0.14804988
164	0x3d940be0	0.072288275
165	0xbd165cc5	-0.036709566
166	0xbd78d155	-0.06074651
167	0x3e5733df	0.21015881
168	0xbdd2d790	-0.102950215
169	0xbd26f28f	-0.040758666
170	0x3e056072	0.13025072
171	0xbdc470ce	-0.09591828
172	0x3df59107	0.119905524
173	0x3dbd0bbe	0.09230755
174	0xbe3db376	-0.1852549
175	0x3e039a97	0.1285194
176	0xbde81d96	-0.11333768
177	0xbe1ddb2c	-0.15415639
178	0x3e408550	0.18800855
179	0xbdc76d6c	-0.097376674
180	0xbcbb4aac	-0.022862755
181	0xbcc266ac	-0.023730598
182	0xbe7d7fcd	-0.24755783
183	0x3c48fff2	0.012268053
184	0x3d10598d	0.035241652
185	0x3e0306ae	0.12795517
186	0xbddcf728	-0.10789329
187	0xbdad952a	-0.084757164
188	0xbd55263d	-0.05203842
189	0xbca27ce3	-0.019834941
190	0x3e1c3678	0.15255153
191	0x3df8593a	0.121263936
192	0xbc1fded0	-0.0097577125
193	0xbdf5ac2e	-0.11995731
194	0xbea6630c	-0.32497442
195	0xbdc9b488	-0.09848887
196	0xbe11a046	-0.14221296
197	0x3d7468ae	0.059670143
198	0xbd72abb7	-0.05924579
199	0xbc656966	-0.01400218
200	0x3d286e18	0.04112062
201	0x3ce25f9e	0.027633484
202	0xbde99734	-0.11405793
203	0xbbda3d63	-0.00666015
204	0xbe03b555	-0.12862141
205	0x3dc910b5	0.0981764
206	0x3c4f39f5	0.012648095
207	0x3e5e8281	0.21729471
208	0xbd4be427	-0.04977813
209	0x3d4d4485	0.050114173
210	0xbd1b02b8	-0.03784439
211	0xbd22fb9c	-0.039790735
212	0x3e2ef405	0.17085274
213	0xbd38aa2a	-0.045084156
214	0x3da1ebf7	0.07906335
215	0x3e23a007	0.15979014
216	0xbe937c67	-0.2880585
217	0xbea8d269	-0.3297303
218	0x3d9c2b81	0.07625485
219	0xbf954040	-1.1660233
220	0xbcfcb934	-0.03085003
221	0x3d48cce6	0.04902353
222	0x3daf1f06	0.08550839
223	0xbd5f66dc	-0.054541454
224	0xbde6d76a	-0.11271556
225	0x3cc69407	0.024240507
226	0xbd8c540a	-0.06851967
227	0xbe12ab8b	-0.14323251
228	0xbeaa05cb	-0.33207545
229	0x3d5afeca	0.053465642
230	0x3e376835	0.17910846
231	0x3d872f27	0.066007905
232	0x3def370d	0.11680422
233	0xbd95e3c9	-0.07318837
234	0x3b49c57b	0.0030787874
235	0x3d6c4d8f	0.057691153
236	0xbc6ec791	-0.0145739475
237	0x3d34c779	0.044135544
238	0xbe0f4287	-0.13990222
239	0xbe70e0ee	-0.23523304
240	0x3dcbf34d	0.09958515
241	0x3e29a979	0.16568555
242	0xbd976335	-0.07391969
243	0xbdbc7263	-0.09201505
244	0x3c5cac2d	0.013468784
245	0xbc97eb80	-0.018544912
246	0x3ed54f9b	0.41662297
247	0xbe5fd0f2	-0.2185705
248	0x3e21cf1a	0.15801659
249	0xbe338a9c	-0.17533344
250	0xbd947d32	-0.072504416
251	0x3e9e6963	0.3093978
252	0x3e0842ba	0.13306704
253	0xbe618dcf	-0.22026752
254	0xbd0e88ea	-0.03479854
255	0xbc9261a5	-0.017868826

hidden_layers.0.bias f4 [256]
0	0x39cba011	0.00038838436
1	0x3d144f7f	0.036208626
2	0xbd26b0e9	-0.04069606
3	0xbda222f2	-0.079168215
4	0x3d944025	0.07238797
5	0x3d86ad27	0.06575995
6	0xbe409474	-0.1880663
7	0xbd5d600f	-0.054046687
8	0xbe58263e	-0.21108338
9	0xbe86092b	-0.2617887
10	0x3d91ce65	0.07119445
11	0x3e1c0a82	0.15238383
12	0xbde15d5a	-0.110041335
13	0xbdf9c4a0	-0.12195706
14	0xbe18a9d0	-0.14908528
15	0x3d6839f0	0.05669588
16	0x3d65b9f3	0.056085538
17	0xbd8d86ec	-0.069105
18	0xbdf39ab7	-0.11894744
19	0xbe2c410e	-0.16821691
20	0xbde75b06	-0.11296658
21	0x3d6f969f	0.058493253
22	0x3d516730	0.051123798
23	0xbd85152a	-0.06498177
24	0xbd92ba2c	-0.07164416
25	0x3c6dcd13	0.014514226
26	0x3e1aa3bb	0.1510152
27	0x3d941611	0.07230771
28	0x3cc6e724	0.024280138
29	0x3e27ed4e	0.16399118
30	0x3de64b43	0.11244824
31	0xbd9a751e	-0.075418696
32	0xbda35a18	-0.079761684
33	0x3de86154	0.11346689
34	0xbd172cd6	-0.036907993
35	0x3e0fb6e7	0.14034615
36	0xbbcfc4ac	-0.006340584
37	0x3d1fae0a	0.038984336
38	0xbe580d5e	-0.21098849
39	0x3e0ef7be	0.13961694
40	0xbd923499	-0.071389385
41	0xbdc675e8	-0.096904576
42	0x3dd76c1b	0.10518666
43	0x3c88cabc	0.016698234
44	0xbe2b97d2	-0.16757134
45	0xbdd1aedf	-0.10238432
46	0xbe3abf21	-0.18236972
47	0xbe296c8f	-0.16545318
48	0xbd55205f	-0.052032825
49	0xbd74988d	-0.059715796
50	0xbcc31a38	-0.023816213
51	0x3ddddd88	0.10833269
52	0xbdb89a3e	-0.09013794
53	0xbe27c9da	-0.16385594
54	0xbcc8ef48	-0.02452816
55	0xbd976199	-0.07391662
56	0x3db78d88	0.08962542
57	0xbc5ee4f2	-0.0136043895
58	0x3ce91f4d	0.028457308
59	0x3d514663	0.051092517
60	0x3e1f4f3f	0.15557574
61	0x3d629741	0.05532003
62	0x3dce72b5	0.100804724
63	0x3d300fc0	0.04298377
64	0x3dda743f	0.106667034
65	0xbd995d12	-0.07488455
66	0xbe3a12d5	-0.18171246
67	0xbe2a76ec	-0.16646928
68	0xbe588dfd	-0.21147914
69	0xbd00a51a	-0.031407453
70	0xbe3c997f	-0.18417929
71	0x3df45349	0.11929948
72	0xbe544ae5	-0.20731695
73	0x3c635d07	0.01387716
74	0xbcdee2d5	-0.027207771
75	0xbe55f7f8	-0.20895374
76	0x3dce599c	0.100756854
77	0xbc9d82dc	-0.019227438
78	0xbd77c244	-0.060488
79	0x3deab971	0.114611514
80	0xbe6bb7a5	-0.23019274
81	0x3cbbd106	0.022926819
82	0xbdd386bf	-0.10328435
83	0xbcf10fd1	-0.029426487
84	0x3d97427c	0.07385728
85	0xbc83ac35	-0.016073326
86	0xbd52f274	-0.051500753
87	0x3dd02aee	0.10164438
88	0x3e20e03f	0.15710543
89	0x3d083bf8	0.033260316
90	0x3e697d75	0.22801764
91	0xbd93d237	-0.0721783
92	0xbd261507	-0.040547397
93	0x3e353ca8	0.1769892
94	0xbcd3a611	-0.025836023
95	0x3ad37a85	0.0016134536
96	0x3d369e74	0.044584706
97	0xbe83bf0a	-0.2573169
98	0xbdbc12b7	-0.09183257
99	0x3d87c159	0.06628675
100	0xbde5d69e	-0.112225756
101	0xbe584649	-0.21120562
102	0xbdbe7fbd	-0.09301708
103	0xbd11a6d4	-0.03555949
104	0xbd8500f7	-0.06494325
105	0xbe31901e	-0.17340133
106	0x3da410e3	0.080110334
107	0xbe1f4b76	-0.1555613
108	0xbe35e7bd	-0.17764182
109	0x3e31fb4a	0.17381015
110	0x3cb7df76	0.022445422
111	0x3d2483f0	0.040164888
112	0x3ddeda88	0.10881525
113	0x39d9ccb0	0.0004154197
114	0x3d00535b	0.031329494
115	0xbe494ce5	-0.19658239
116	0xbe265eaa	-0.16247049
117	0x3d71c6f2	0.05902762
118	0xbe0f666e	-0.14003918
119	0x3da631e2	0.08114983
120	0xbd3d4a6d	-0.046213556
121	0x3b5604d6	0.003265669
122	0xbe056c90	-0.13029695
123	0xbd7d6458	-0.061863273
124	0xbe529ac4	-0.20566851
125	0xbdd3ff66	-0.10351448
126	0x3dfb44c5	0.12268976
127	0x3d785512	0.060628004
128	0x3e33af9a	0.17547455
129	0xbc044110	-0.008072153
130	0xbd41adf4	-0.047285035
131	0x3df2090b	0.11818131
132	0x3cf645b0	0.030062526
133	0x3ce8ad19	0.028402852
134	0xbda6a163	-0.08136251
135	0xbe0b9918	-0.1363262
136	0xbdc39c50	-0.095512986
137	0xbe5c69cd	-0.21524735
138	0xbdaedd77	-0.08538335
139	0xbe0ba831	-0.13638379
140	0xbccb6db2	-0.02483258
141	0xbd930c87	-0.07180124
142	0x3d102826	0.03519454
143	0xbd98e199	-0.07464904
144	0xbce29b18	-0.027661845
145	0xbd699b06	-0.057032607
146	0xbdd4d60a	-0.10392387
147	0x3e4c971e	0.19979522
148	0xbdda3c25	-0.10656003
149	0x3dc75243	0.09732487
150	0xbd317cb2	-0.04333181
151	0xbe2ba93b	-0.16763775
152	0xbe1bd1d8	-0.15216768
153	0xbe56f7e8	-0.20993006
154	0xbd68dd7d	-0.056851853
155	0x3cc957e1	0.024578037
156	0x3c631b7a	0.013861531
157	0xbe57a1f1	-0.2105787
158	0x3d307be2	0.043086894
159	0x3cdec18e	0.027191903
160	0x3db1cd73	0.086817645
161	0x3e3835aa	0.17989221
162	0x3d5b6f40	0.053572893
163	0xbdc160f7	-0.09442323
164	0xbc221eb7	-0.009895018
165	0xbe0c2fa4	-0.13690048
166	0xbdc762b1	-0.09735621
167	0xbe08b561	-0.1335044
168	0x3c7f722e	0.015591187
169	0xbe1b85a2	-0.15187696
170	0x3e06929e	0.13141868
171	0xbdbe5a38	-0.092945516
172	0x3ca96587	0.020678295
173	0x3dd9e5cc	0.106395334
174	0x3d6f94e2	0.058491595
175	0xbd73ceb5	-0.059523303
176	0x3e2cdd2f	0.1688125
177	0xbe485f93	-0.19567709
178	0x3dd3ff5a	0.10351439
179	0xbdd8246a	-0.105538204
180	0x3de943b8	0.113898695
181	0xbde3344b	-0.110939585
182	0xbe273576	-0.16328987
183	0xbced3e37	-0.02896033
184	0xbe14a8ca	-0.14517513
185	0x3d99c2f0	0.075078845
186	0x3e51209e	0.20422599
187	0x3d47795d	0.048699725
188	0xbcefbea5	-0.029265711
189	0x3e24d6bd	0.16097541
190	0xbdc8680b	-0.097854696
191	0x3d850ff7	0.06497186
192	0x3d7e2930	0.062051
193	0x3da92323	0.08258655
194	0x3d473a85	0.048639793
195	0x3d97815b	0.073977195
196	0x3c4d1053	0.012516099
197	0xbe11ac85	-0.14225967
198	0xbdc1b62e	-0.09458576
199	0xbe3a0608	-0.18166363
200	0x3e1a822d	0.1508872
201	0x3c6b9f98	0.014381312
202	0xbdb746a1	-0.08949018
203	0xbc6ff268	-0.0146451965
204	0xbd9eb3ad	-0.07749114
205	0xbe2934bc	-0.16524023
206	0x3dd4cf7f	0.10391139
207	0x3e0fa2de	0.14026973
208	0x3db1263b	0.0864987
209	0xbda6faa9	-0.081532784
210	0xbe2f380a	-0.17111221
211	0xbe4c8e01	-0.19976045
212	0xbd97a58b	-0.07404622
213	0xbe1d1fa3	-0.153441
214	0xbd249c50	-0.040188134
215	0xbde56819	-0.11201496
216	0xbe049ec4	-0.1295119
217	0x3d0d93f9	0.034564946
218	0xbb7824e3	-0.0037863783
219	0xbe0d0ee1	-0.13775207
220	0xbcc660ac	-0.024216019
221	0xbe3e23bb	-0.18568318
222	0xbe19fb42	-0.15037253
223	0xbbced7aa	-0.0063123303
224	0xbe8feaaf	-0.28108737
225	0xbd40704a	-0.046982087
226	0xbda8118d	-0.082064725
227	0xbda1144b	-0.07865199
228	0x3e00ef56	0.125913
229	0xbe78b628	-0.24288237
230	0xbd69a3d1	-0.057040993
231	0x3da7f10f	0.08200275
232	0xbd171d29	-0.036893044
233	0xbd3945fa	-0.04523275
234	0xbd2502b5	-0.040285785
235	0xbe558229	-0.20850433
236	0xbe068b6a	-0.1313912
237	0xbca07167	-0.019585324
238	0xbd329d2d	-0.043606926
239	0xbe1c4f5d	-0.1526465
240	0x3d177820	0.036979795
241	0x3e08ea49	0.13370623
242	0xbe22d017	-0.15899692
243	0xbc0e0d83	-0.008670214
244	0xbe5caf0a	-0.21551147
245	0xbda985a5	-0.08277444
246	0xbd0decb6	-0.034649573
247	0x3d6bfe94	0.05761583
248	0x3dd0796e	0.10179411
249	0x3d01afe4	0.031661883
250	0xbdbaa1da	-0.09112902
251	0xbe6f2041	-0.23352148
252	0xbe0a5ebc	-0.13512701
253	0x3dc59e96	0.096493885
254	0xbc968435	-0.018373588
255	0xbd623b77	-0.05523249

hidden_layers.1.weight f4 [128, 256]
0	0x3bc7eba8	0.0061010905
1	0x3c2a5376	0.010395875
2	0xbc8757ec	-0.016521417
3	0xbe02c1bc	-0.12769216
4	0xbe70a322	-0.2349973
5	0x3dc5cafb	0.09657856
6	0xbd9bab25	-0.076010026
7	0x3db046f1	0.08607281
8	0x3d7493b2	0.059711166
9	0xbd31f035	-0.04344197
10	0xbcf97b04	-0.030454166
11	0x3cbcfd7d	0.023070091
12	0x3caec192	0.021332536
13	0x3d883157	0.06650036
14	0x3cd41a1c	0.025891356
15	0xbcbfa0f3	-0.023392176
16	0x3da03b24	0.0782378
17	0x3dec5ddf	0.11541342
18	0xbd454dd6	-0.048169933
19	0xbe07b6fd	-0.13253398
20	0xbd4f2144	-0.050568834
21	0x3d91bd89	0.07116229
22	0xbde8c180	-0.11365032
23	0xbdeafb97	-0.11473768
24	0x3d660188	0.056153804
25	0xbe7a8889	-0.24466147
26	0x3e14aa19	0.14518012
27	0xbdef33d4	-0.11679807
28	0xbbe7f7f7	-0.0070791203
29	0xbd416dc9	-0.04722384
30	0xbc016976	-0.007898679
31	0x3d167422	0.036731847
32	0x3dfc1c4f	0.12310087
33	0xbe32bcd5	-0.17454846
34	0x3d1935ca	0.037404813
35	0x3e142d50	0.1447041
36	0xbe3aee75	-0.18255027
37	0xbc23d065	-0.009998416
38	0x3d25c569	0.040471468
39	0x3c735cf5	0.014853706
40	0xbd0de246	-0.03463962
41	0x3e0dbcd4	0.13841563
42	0x3cae140e	0.021249797
43	0x3cbfa2fd	0.023393149
44	0xbd699c35	-0.057033736
45	0x3c63eeb1	0.013911889
46	0xbd3287c0	-0.043586493
47	0x3db70f40	0.089384556
48	0x3cd086dd	0.025454933
49	0xbd4b1b16	-0.049586378
50	0x3d865691	0.0655948
51	0x3d8801ac	0.06640944
52	0x3dc63c63	0.096794866
53	0xbd9c51f1	-0.076328166
54	0xbebd0e8b	-0.36925158
55	0x3bbd0c10	0.00576926
56	0x3d814698	0.06312293
57	0xbd93f9c3	-0.07225373
58	0x3ca04a45	0.019566664
59	0x3dd11628	0.10209304
60	0x3ce6a4c6	0.028154742
61	0x3e1d837f	0.15382193
62	0x3decba86	0.11559014
63	0xbd055935	-0.032555778
64	0x3c89c1d7	0.016816063
65	0xbdceca41	-0.100971706
66	0x3dec45c4	0.11536744
67	0xbcffad9e	-0.031210717
68	0x3e093db4	0.13402444
69	0xbdf63bbe	-0.12023114
70	0x3ce1c6f3	0.027560687
71	0xbde3f1df	-0.111301176
72	0xbe19bbc1	-0.15013029
73	0x3da05fed	0.078307964
74	0xbe7bc453	-0.2458661
75	0xb8175463	-3.6079797e-05
76	0xbdb5ab81	-0.088706024
77	0x3d0bd97f	0.034142967
78	0xbd81d375	-0.0633916
79	0x3e081584	0.13289458
80	0xbd8631d5	-0.065524735
81	0xbe69427b	-0.22779267
82	0x3c55370d	0.013013613
83	0x3d524d58	0.051343292
84	0xbef67795	-0.4813811
85	0x3d4b0618	0.04956636
86	0xbd880ef2	-0.066434756
87	0x3dc3494b	0.09535464
88	0xbcfc49af	-0.030796854
89	0xbd688e9f	-0.05677664
90	0xbe8aa4a3	-0.27078733
91	0x3d23ed7f	0.040021416
92	0xbd06748b	-0.032825988
93	0xbd37cd44	-0.04487349
94	0x3de83f44	0.11340192
95	0xbdfedbad	-0.124442436
96	0x3b16937a	0.0022976086
97	0xbd6d741e	-0.057972066
98	0xbe1e78f3	-0.15475826
99	0xbe33a672	-0.17543963
100	0x3e24302a	0.16033998
101	0xbd87d1a4	-0.06631783
102	0xbd297927	-0.041375306
103	0x3d89ce3c	0.06728789
104	0x3a20e332	0.00061373704
105	0x3d42d351	0.04756481
106	0xbe5f3a19	-0.21799506
107	0x3d9ce530	0.076609015
108	0x3b1ed600	0.002423644
109	0xbdfe52c2	-0.124181286
110	0x3cafce8c	0.021460794
111	0x3e375893	0.17904882
112	0xbd7a79f5	-0.061151464
113	0x3de7c4ed	0.113168575
114	0x3db3ff39	0.08788914
115	0xbe92435b	-0.28567013
116	0xbd1698f9	-0.03676698
117	0xbd54bcf1	-0.051938
118	0x3df5206b	0.11969074
119	0x3d5c4717	0.053778734
120	0xbbf5e027	-0.0075035277
121	0xbda6a836	-0.081375524
122	0xbdd6b435	-0.104835905
123	0x3d0bd85f	0.034141894
124	0x3cb81f0e	0.022475746
125	0x3e133132	0.14374235
126	0xbe204fac	-0.15655392
127	0xbe037be1	-0.12840225
128	0x3d93241c	0.07184622
129	0xbe1de0eb	-0.1541783
130	0xbca58181	-0.020203354
131	0x3d7db79f	0.061942693
132	0xbdd1ae5f	-0.10238337
133	0xbdf8d238	-0.12149471
134	0xbe25cea3	-0.16192107
135	0x3ca1d46d	0.019754613
136	0x3cf4895d	0.029850656
137	0xbdd46734	-0.10371247
138	0x3e0aa0a6	0.13537845
139	0x3da1d5ec	0.079021305
140	0xbe25162a	-0.16121736
141	0x3e21d185	0.15802582
142	0x3c2b5866	0.010458088
143	0x3d800a80	0.06252003
144	0xbe41afb5	-0.18914683
145	0xbe3835ba	-0.17989245
146	0x3d976d6c	0.073939174
147	0x3d47d1af	0.048783954
148	0xbdfd898d	-0.12379751
149	0xbdf1c7fa	-0.118057206
150	0x3d869990	0.065722585
151	0xbd449937	-0.04799768
152	0x3dedea16	0.11616914
153	0xbd164569	-0.03668729
154	0x3d1d1f76	0.03836008
155	0x3cd1b9c8	0.025601283
156	0x3da7d0c5	0.081941165
157	0xbe346b12	-0.17618969
158	0x3d9de0fa	0.077089265
159	0x3d8de5ee	0.06928621
160	0x3dc4ea57	0.09615009
161	0x3d342f31	0.043990318
162	0x3c935291	0.017983707
163	0x3b9e7e98	0.0048368685
164	0xbd80612f	-0.06268536
165	0xbe07126b	-0.1319062
166	0xbd68eac4	-0.056864515
167	0xbe460b12	-0.1934016
168	0xbe0d2bac	-0.13786191
169	0xbdbb5449	-0.091469355
170	0xbdf9bb54	-0.12193933
171	0xbddc2544	-0.10749295
172	0x3d9c0fb2	0.07620181
173	0xbdfdb130	-0.123873115
174	0x3dcc45db	0.099742614
175	0xbd9d1f99	-0.076720424
176	0x3cc03793	0.023464
177	0xbcaa65a9	-0.020800428
178	0xbe0efdf7	-0.13964067
179	0xbd4f6c88	-0.050640613
180	0x3e155359	0.14582576
181	0x3cd57395	0.02605609
182	0xbe67fa5e	-0.22654101
183	0xbd68e9dd	-0.056863654
184	0x3da2d266	0.079502866
185	0xbda3725c	-0.07980797
186	0xbe1f36f4	-0.15548307
187	0xbe2cca63	-0.1687408
188	0xbe3e4eb4	-0.1858471
189	0xbd78305e	-0.060593
190	0x3d945de8	0.07244474
191	0x3d8c1b7d	0.068411805
192	0xbea0bf24	-0.3139583
193	0xbd917dd9	-0.07104082
194	0xbe4c7a80	-0.19968605
195	0x3b346d9c	0.0027531153
196	0xbe0c042c	-0.13673466
197	0x3dda0fc9	0.10647542
198	0x3ddfd657	0.10929554
199	0x3d29d47c	0.041462407
200	0xbd7e9e94	-0.06216295
201	0x3e281ebf	0.16417979
202	0xbc00ff82	-0.007873418
203	0xbe4bec03	-0.1991425
204	0xbe0ab924	-0.13547188
205	0xbe37aab3	-0.1793621
206	0x3d82c311	0.06384862
207	0x3d4130e9	0.047165785
208	0x3da6d19f	0.08145451
209	0xbd135906	-0.03597357
210	0x3e1dcd22	0.15410283
211	0xbeb28ffd	-0.3487548
212	0xbe4e2fb9	-0.20135392
213	0x3e0ec631	0.13942792
214	0xbc9bb8ed	-0.019009078
215	0xbe20b2c3	-0.15693192
216	0x3d3f94c4	0.046772733
217	0xbe0206ab	-0.12697856
218	0x3e182b46	0.14860258
219	0x3c4d9d6b	0.012549738
220	0x3e1873a0	0.14887857
221	0xbddea38f	-0.1087104
222	0x3da28735	0.07935945
223	0xbcf1d480	-0.029520273
224	0xbd4757ea	-0.048667826
225	0x3c435ff0	0.011924729
226	0xbdedd2ec	-0.11612496
227	0xbe389646	-0.18026075
228	0xbe5ff51f	-0.2187085
229	0x3d80c475	0.06287471
230	0xbd4c7c48	-0.04992321
231	0x3dd7f70d	0.10545168
232	0x3d8fff1e	0.070310816
233	0xbe26ea94	-0.16300422
234	0xbd2ac9cf	-0.041696366
235	0xbc5d5b44	-0.013510529
236	0xbe2ce08e	-0.16882536
237	0x3e2a227e	0.1661472
238	0x3e40c8b1	0.18826558
239	0xbdad6596	-0.084666416
240	0x3d838971	0.06422699
241	0xbd1f1edd	-0.038847793
242	0x3c0e9529	0.008702555
243	0xbd6bf452	-0.05760605
244	0x3ddcee6e	0.10787664
245	0xbd7a7eb1	-0.06115598
246	0x3e00fe30	0.12596965
247	0x3df9b058	0.12191838
248	0x3dca1d38	0.09868854
249	0x3d962479	0.07331175
250	0x3d4d326c	0.050096914
251	0xbdc9e5e3	-0.098583005
252	0x3bcf1d29	0.006320615
253	0xbe4a1287	-0.1973363
254	0xbd4a9ee6	-0.049467944
255	0xbd258ff2	-0.04042048

hidden_layers.1.bias f4 [128]
0	0xbce069c3	-0.027394181
1	0x3cd63bcf	0.026151566
2	0xbd952fb5	-0.0728449
3	0x3d3fdb46	0.046839975
4	0xbd596266	-0.053072356
5	0x3d8b8e23	0.0681422
6	0x3d869768	0.06571847
7	0xbd90dc9c	-0.07073328
8	0x3dae55ff	0.08512496
9	0xbd62dfb9	-0.05538914
10	0x3d8fa6d9	0.070142455
11	0xbd99389b	-0.074815
12	0x3db2291a	0.08699246
13	0xbc15d4e3	-0.009144994
14	0xbceffafc	-0.029294483
15	0x3d4d9ef1	0.050200406
16	0xbd851f05	-0.06500057
17	0xbda21e48	-0.07915932
18	0xbd81b943	-0.06334164
19	0xbd499362	-0.04921282
20	0x3c7188ab	0.014742057
21	0x3cf5ad74	0.029989935
22	0xbd0a1bc8	-0.0337179
23	0xbd926294	-0.071477085
24	0xbd765db4	-0.060147956
25	0xbd135da5	-0.03597798
26	0xbd8a9768	-0.0676716
27	0x3d8d71d1	0.069064744
28	0xbd560dbe	-0.0522592
29	0x3a691988	0.0008892049
30	0x3c6592a5	0.014012014
31	0xbd7e255f	-0.06204736
32	0xbd56e846	-0.052467607
33	0xbd19e4e8	-0.037571818
34	0x3dcf747f	0.10129642
35	0xbdbb5949	-0.09147889
36	0x3cb8b4cc	0.022547148
37	0x3d1462c2	0.036226995
38	0xbb8abdc9	-0.00423405
39	0x3c70f61e	0.014707116
40	0x3cee5f21	0.029098095
41	0xbbec88a0	-0.0072184354
42	0xbcd24cda	-0.025671411
43	0xbcaf8ec6	-0.021430384
44	0xbd803834	-0.0626072
45	0xbcfd7087	-0.030937446
46	0x3dda2172	0.106509104
47	0xbe23d01d	-0.15997358
48	0xbca5e417	-0.020250363
49	0x3d96317c	0.07333657
50	0xbde84d8a	-0.113429144
51	0x3d2be98b	0.04197077
52	0x3c07409f	0.008255153
53	0x3cfc6ba7	0.030813051
54	0x3c3a79ad	0.011381549
55	0x3d182389	0.037143264
56	0x3c84ca62	0.016209785
57	0xbdfac6c2	-0.12244941
58	0x3cdc25b7	0.026873453
59	0xbcabe31e	-0.020982321
60	0xbbcc01d7	-0.0062258053
61	0xbd32aac1	-0.043619875
62	0x3d7b50b0	0.061356246
63	0xbd6d08bd	-0.05786966
64	0xbd0b5901	-0.034020428
65	0x3d404512	0.04694087
66	0x3c9765ec	0.018481217
67	0xbdc20304	-0.094732314
68	0xbcf67ea0	-0.030089676
69	0xbcbb1bac	-0.022840343
70	0x3dddc9b8	0.108294904
71	0xbe0064cc	-0.12538451
72	0x3dcd245e	0.10016702
73	0x3ceec6ad	0.02914747
74	0xbe004356	-0.12525687
75	0x3cb60a92	0.022221837
76	0xbc802144	-0.015640862
77	0xbd26bfcf	-0.040710267
78	0xbc91e906	-0.01781131
79	0x3ce2c6a9	0.02768262
80	0xbc8b23f0	-0.01698491
81	0xbcdf2c09	-0.027242677
82	0xbd53f491	-0.05174691
83	0xbdb3eefd	-0.08785818
84	0x3dbe49d7	0.092914276
85	0x3d2002ea	0.03906528
86	0x3db74378	0.089484155
87	0x3d8b478d	0.068007566
88	0x3e46b1a0	0.19403696
89	0x3c8b7a0e	0.017025974
90	0x3e0a1a61	0.13486625
91	0x3dbd3819	0.092392154
92	0x3d7d143b	0.06178687
93	0xbd0cd47d	-0.034382332
94	0x3bf263b9	0.007397142
95	0x3d8ae9eb	0.067828976
96	0x3ceb38a8	0.02871354
97	0x3c71063a	0.014710957
98	0x3abc8c1a	0.0014385015
99	0xbd170531	-0.036870185
100	0x3c7acb0e	0.015307201
101	0x3b0bd8bc	0.00213389
102	0x3d064544	0.0327809
103	0x3d751eef	0.059843954
104	0x3da93d7d	0.08263681
105	0xbd5bc065	-0.05365028
106	0x3e40dc40	0.18834019
107	0x3c8c5952	0.017132435
108	0xbccbbb6d	-0.024869645
109	0x3db40a87	0.087910704
110	0x3dad698c	0.08467397
111	0x3e023e03	0.12718968
112	0x3d930185	0.07178024
113	0xbb9d42f4	-0.004799241
114	0xbb49fdf4	-0.0030821534
115	0xbd3a74ed	-0.045521665
116	0xbdc37182	-0.09543134
117	0x3c1c523e	0.009541092
118	0x3da96ca7	0.08272677
119	0xbd59037c	-0.05298184
120	0x3d60c966	0.05487957
121	0x3d3cc6a5	0.04608788
122	0x3cc49dc1	0.024001004
123	0xbcdcb8dc	-0.026943617
124	0x3db3e5ff	0.08784103
125	0x3d029be9	0.03188697
126	0xbd36ebe0	-0.04465854
127	0x3db0a793	0.08625712

hidden_layers.2.weight f4 [64, 128]
0	0xbc36cfd7	-0.011157951
1	0xbd2822ae	-0.041048698
2	0xba2ad285	-0.0006516355
3	0x3e660ad1	0.22465064
4	0xbd14512b	-0.03621022
5	0x3c9617b8	0.018321857
6	0x3c8d3882	0.01723886
7	0x3c2c8405	0.010529523
8	0x3dc86816	0.09785478
9	0x3d90e6f3	0.070753
10	0xbd94c52d	-0.07264171
11	0x3d3f3cc5	0.046688814
12	0x3d449568	0.047994047
13	0x3cbb1813	0.022838628
14	0x3d5722e1	0.052523497
15	0x3c4c4374	0.012467254
16	0x3d3ed659	0.046591137
17	0x3d550adc	0.05201231
18	0x3c50270a	0.01270462
19	0xbe9e82d6	-0.30959195
20	0xbd672cb4	-0.056439117
21	0xbe7239d8	-0.23654878
22	0x3dd1ad81	0.10238171
23	0xbd6b7fd4	-0.057494953
24	0xbd7ab8ce	-0.0612114
25	0x3d4f6a24	0.050638333
26	0xbbc12e7a	-0.005895433
27	0xbd75e41d	-0.060032
28	0xbb879594	-0.004137704
29	0xbdafdc87	-0.08586984
30	0xbd91a104	-0.071107894
31	0xbdbd63de	-0.09247564
32	0x3d35a53c	0.044347033
33	0xbdc3cc82	-0.09560491
34	0x3daf9097	0.085725
35	0x3cf357f1	0.02970502
36	0x3abe4976	0.0014517743
37	0xbdbe0639	-0.09278531
38	0xbcc5f5ca	-0.024165053
39	0x3de9ec7c	0.11422059
40	0xbe80da28	-0.2516644
41	0x3cfaa6d1	0.030597122
42	0x3e1f40cf	0.15552066
43	0xbdb6b572	-0.08921327
44	0x3b4e21d4	0.0031453269
45	0x3e319882	0.17343333
46	0x3dd7c57b	0.10535713
47	0xbe01029f	-0.12598656
48	0xbe2e2105	-0.17004783
49	0xbdbd74e9	-0.092508145
50	0xbd3152df	-0.043291923
51	0x3d68a4e5	0.05679788
52	0x3d6ab7e2	0.05730427
53	0x3d97c7a1	0.07411123
54	0xbd0fd486	-0.035114788
55	0xbe370b3a	-0.17875376
56	0xbe236dd7	-0.1595987
57	0x3d377e9c	0.04479848
58	0x3d8a2083	0.06744482
59	0x3cfe7665	0.031062314
60	0xbd9c8b9b	-0.07643815
61	0xbe1d1fcb	-0.1534416
62	0xbe88cf10	-0.26720476
63	0xbc94cc31	-0.018163772
64	0xbc8c165b	-0.017100504
65	0xbe6b4707	-0.22976314
66	0xbdd0fda1	-0.10204626
67	0xbe04435d	-0.12916322
68	0x3bdac8c2	0.006676764
69	0x3c49a50b	0.012307416
70	0x3ce8412d	0.02835139
71	0xbe903d2f	-0.2817168
72	0x3e4f6354	0.20252734
73	0x3b5cff4a	0.00337215
74	0xbda02bac	-0.0782083
75	0xbe1ae2c3	-0.15125565
76	0x3d4d1573	0.050069284
77	0xbd41d126	-0.0473186
78	0xbc0f54e1	-0.008748264
79	0xbe062ece	-0.13103792
80	0x3c57f35d	0.013180581
81	0x3d040915	0.032235224
82	0x3d9c8fc2	0.07644607
83	0xbc464dfc	-0.012103554
84	0x3c2b09eb	0.010439376
85	0xbcf19c77	-0.029493554
86	0x3e08f8d3	0.13376169
87	0xbdbd943e	-0.092567906
88	0x3dc1c46a	0.09461291
89	0xbe44e56a	-0.1922814
90	0x3e148dc3	0.14507203
91	0xbcf42548	-0.029802933
92	0xbe41ec90	-0.18937898
93	0x39fbb554	0.0004800955
94	0x3e0e1004	0.13873297
95	0xbd969712	-0.07353033
96	0xbdcf9b7c	-0.10137078
97	0xbd6d63d6	-0.05795654
98	0xbd037a09	-0.032098804
99	0xbd5db742	-0.054129846
100	0x3da76752	0.08174004
101	0x3d4099ae	0.04702156
102	0xbd6aa313	-0.057284426
103	0xbd7835be	-0.060598128
104	0x3e060967	0.13089524
105	0xbda2843c	-0.07935378
106	0x3e072d3b	0.13200848
107	0xbd823697	-0.063580684
108	0xbdd3c005	-0.10339359
109	0x3c0c1d4c	0.008551907
110	0xbd4a5176	-0.049394093
111	0xbe5da79f	-0.21645974
112	0xbe2149ae	-0.15750763
113	0xbe8ae422	-0.27127177
114	0x3d50d56b	0.05098478
115	0xbe6f9c88	-0.23399556
116	0x3d37f93e	0.04491543
117	0x3dd62e37	0.104580335
118	0x3c847a41	0.016171576
119	0xbd7059d5	-0.05867942
120	0xbe52416a	-0.20532766
121	0xbeb29029	-0.3487561
122	0xbdfda9c5	-0.123858966
123	0xbda85fb6	-0.082213804
124	0x3da27b43	0.079336666
125	0x3dad136b	0.08450969
126	0xbdbbf751	-0.09178031
127	0xbe1b9be1	-0.15196182
128	0x3da8a637	0.08234828
129	0xbd000747	-0.03125694
130	0xbd30406f	-0.0430302
131	0xbe1597f4	-0.14608747
132	0xbd8e79d3	-0.0695683
133	0xbe43ed1b	-0.19133417
134	0xbe0cbbad	-0.13743468
135	0x3d163e25	0.03668036
136	0x3db413d0	0.087928414
137	0xbc884d90	-0.016638547
138	0x3b98f39f	0.004667714
139	0xbc884165	-0.016632745
140	0x3c9ba1ca	0.018998045
141	0x3b29dbfd	0.0025918477
142	0x3ca9db44	0.020734437
143	0xbc1ad91f	-0.00945118
144	0x3db7b2c2	0.08969642
145	0xbe531f12	-0.20617321
146	0xbd87b5b5	-0.06626455
147	0xbe1ce380	-0.1532116
148	0xbd1cdf40	-0.038298845
149	0x3e0f0cca	0.13969722
150	0xbde1e764	-0.110304624
151	0xbd90aeb6	-0.070645735
152	0xbd4c17b4	-0.049827293
153	0x3b7c041c	0.0038454598
154	0x3e0d1ee2	0.13781312
155	0xbc857e5f	-0.01629561
156	0x3c9a31aa	0.01882251
157	0x3d804081	0.06262303
158	0x3e122fc9	0.14276041
159	0xbc37c7f1	-0.011217103
160	0x3d9b17be	0.07572888
161	0xbda9e734	-0.082960516
162	0xbe40fb2f	-0.18845819
163	0xbcc0586a	-0.02347966
164	0xbd8e8834	-0.069595724
165	0xbd03a61f	-0.032140847
166	0x3d796b70	0.060893476
167	0x3bf3a609	0.0074355644
168	0x3e7775ef	0.24166082
169	0x3cfedc13	0.031110799
170	0x3d304908	0.043038398
171	0x3d5c65d4	0.05380805
172	0x3ce385ec	0.02777382
173	0x3e1efff2	0.15527323
174	0xbe2acbab	-0.16679256
175	0x3e12e645	0.14345653
176	0x3d9efc51	0.07762969
177	0x3dbb9c68	0.091606915
178	0xbce816e9	-0.028331237
179	0xbe05770b	-0.13033693
180	0xbcbf43c9	-0.023347752
181	0x3d8baad4	0.06819692
182	0xbe26012c	-0.16211385
183	0xbdb70e23	-0.08938243
184	0x3e17e99f	0.14835213
185	0x3d923977	0.07139867
186	0x3d383f66	0.044982336
187	0xbddee11a	-0.108827785
188	0xbd894353	-0.06702294
189	0x3d96b988	0.07359606
190	0xbe150837	-0.14553915
191	0xbe525ece	-0.20543978
192	0xbd94b8c7	-0.07261806
193	0xbd5bcd3e	-0.05366253
194	0x3d81c48a	0.06336315
195	0x3d8b6aae	0.06807457
196	0x3ce56ca7	0.028005911
197	0xbd952084	-0.072815925
198	0x3e1878d6	0.14889845
199	0xbc8efe6b	-0.0174553
200	0xbe41692d	-0.18887778
201	0xbdaba6be	-0.08381413
202	0x3e308e95	0.1724189
203	0x3ccc078d	0.024905944
204	0x3d96fab4	0.073720366
205	0xbd90c009	-0.07067878
206	0x3e75c534	0.24001008
207	0xbcfe3ca1	-0.03103477
208	0xbd5ba149	-0.05362061
209	0xbc6b8371	-0.0143746
210	0xbd9bbc3c	-0.07604262
211	0x3d833f61	0.06408573
212	0xbd93346c	-0.07187733
213	0x3e04b26f	0.12958692
214	0xbdfdd7af	-0.12394654
215	0xbca4d9e2	-0.020123426
216	0xbd7a4c9e	-0.061108224
217	0x3d9af042	0.07565357
218	0xbe0049db	-0.12528174
219	0xbd9a400d	-0.07531748
220	0x3e1c70bd	0.15277381
221	0xbe00e1e4	-0.1258617
222	0x3d33cd30	0.043896854
223	0x3e7ff4ea	0.24995771
224	0x3d2fef41	0.04295278
225	0x3c60a437	0.013711027
226	0x3d3be4ea	0.045872606
227	0xbb47fb32	-0.0030514714
228	0xbd7d7406	-0.061878227
229	0xbceea297	-0.029130263
230	0xbe5d271c	-0.2159695
231	0x3d17be32	0.03704662
232	0xbe6fe5c8	-0.23427498
233	0x3d97a534	0.07404557
234	0x3d56b93b	0.052422743
235	0x3d603d73	0.054746103
236	0xbdd3cee4	-0.10342196
237	0xbd34b3cb	-0.044116776
238	0x3d20a00b	0.03921513
239	0x3d3f7305	0.04674055
240	0xbc69953b	-0.014256771
241	0x3a82e01e	0.0009985005
242	0x3cdf1468	0.02723141
243	0xbb46839a	-0.0030290843
244	0x3c933ee7	0.01797433
245	0xbd13cb12	-0.036082335
246	0xbde8b50b	-0.11362656
247	0xbd804899	-0.06263847
248	0xbd8f14a2	-0.06986357
249	0xbde71db2	-0.11284961
250	0x3d73bc7a	0.059505917
251	0x3cef083b	0.02917873
252	0xbc131841	-0.008977951
253	0xbdb3f17d	-0.087862946
254	0xbd183b2f	-0.037165817
255	0xbe8965f2	-0.2683559

hidden_layers.2.bias f4 [64]
0	0x3e137a2f	0.14402078
1	0x3ddec5ba	0.10877557
2	0x3df42b2e	0.11922298
3	0xbd39671c	-0.04526435
4	0x3ea101aa	0.31446582
5	0x3c9116f6	0.017711144
6	0xbde4f8db	-0.11180278
7	0x3c23fb88	0.0100087
8	0x3cbd992e	0.02314433
9	0x3e6a5060	0.22882223
10	0x3d3d2484	0.046177402
11	0xbc4e30b5	-0.012584855
12	0x3e8d71c6	0.27625865
13	0xbd45135f	-0.048114177
14	0x3dc044d1	0.09388126
15	0x3de58b00	0.11208153
16	0x3cbdb408	0.023157135
17	0x3cc099a6	0.023510765
18	0xbd8cddbf	-0.06878232
19	0xbc826fec	-0.01592251
20	0xbcb44c91	-0.022009166
21	0x3da895cd	0.08231697
22	0x3a9cf3cf	0.0011974516
23	0xbdb1a9dc	-0.08674976
24	0x3cf56b00	0.029958248
25	0x3dfd0c9f	0.12355923
26	0x3e9c3eee	0.30516762
27	0x3e846c36	0.25863808
28	0x3b5e53bc	0.0033924421
29	0x3c56d799	0.013112926
30	0xbc30d5d7	-0.010793171
31	0x3e83ab93	0.25716838
32	0x3e351d93	0.17687063
33	0x3ccf6414	0.025316276
34	0x3e919896	0.28436726
35	0xbda50fc3	-0.08059647
36	0xbcff9a53	-0.031201517
37	0x3e887d54	0.26658118
38	0xbda2f3c9	-0.079566546
39	0x3e9e707b	0.3094519
40	0x3e4d2dd9	0.2003702
41	0x3e45e354	0.19325
42	0xbdd47600	-0.10374069
43	0x3eabcb82	0.33553702
44	0xbde12229	-0.10992844
45	0xbdbc02c3	-0.09180214
46	0xbdae601e	-0.08514427
47	0x3c80d6b1	0.015727373
48	0xbd872aeb	-0.06599983
49	0xbd309d76	-0.043118916
50	0xbdb96382	-0.09052183
51	0x3da1a632	0.07893027
52	0x3d7414ab	0.059590023
53	0xbd933e1d	-0.071895815
54	0x3dba44d5	0.0909516
55	0xbdb9465b	-0.09046622
56	0x3e9b34f4	0.30313838
57	0x3d33f398	0.04393348
58	0x3d809ba2	0.062796846
59	0xbac73b33	-0.0015200138
60	0x3dd0944b	0.10184535
61	0x3e491754	0.19637805
62	0x3e33d8e2	0.17563203
63	0x3dbc2f6f	0.09188735

hidden_layers.3.weight f4 [32, 64]
0	0xbdf8139f	-0.121131174
1	0xbde4422b	-0.11145433
2	0x3e162e05	0.14665993
3	0xbc846fbd	-0.016166562
4	0x3d19b382	0.037524708
5	0x3dc00793	0.09376445
6	0xbdb11f8e	-0.08648597
7	0x3d933b90	0.07189095
8	0xbc590b6f	-0.013247355
9	0xbcc34e34	-0.023841001
10	0x3e4bd962	0.19907144
11	0x3d68e743	0.056861173
12	0xbd087d6e	-0.033322744
13	0xbd6d3f81	-0.05792189
14	0x3dc79b31	0.09746397
15	0xbaf298d3	-0.001850868
16	0xbd613219	-0.054979417
17	0xbd797c78	-0.06090972
18	0x3cdaddd6	0.026717108
19	0x3d7e0583	0.062016975
20	0x3d4b1138	0.049576968
21	0x3e110a54	0.14164096
22	0x3d752f44	0.05985953
23	0xbc7c3d0a	-0.015395412
24	0xbd743059	-0.05961642
25	0x3d701a88	0.058619052
26	0xbc38d197	-0.011280439
27	0x3ceb09c2	0.028691176
28	0x3b4d4a6d	0.0031324879
29	0xbd26b728	-0.040702015
30	0x3e68525f	0.22687672
31	0xbda08f6b	-0.07839855
32	0xbdbd09a6	-0.09230356
33	0x3d312dab	0.043256443
34	0xbdb4ab1c	-0.08821699
35	0xbd75e183	-0.060029518
36	0x3d924525	0.071420945
37	0xbb73c783	-0.0037197776
38	0x3d03fe27	0.0322248
39	0x3df43e2f	0.11925923
40	0x3df9db25	0.122000016
41	0xbdb95abd	-0.0905051
42	0x3c0c1547	0.008549995
43	0x3daecef4	0.08535567
44	0xbd9cc5e8	-0.07654935
45	0x3e4ead71	0.2018335
46	0xbcc46c5b	-0.02397745
47	0xbe2255c4	-0.1585303
48	0x3deab1d2	0.11459698
49	0xbe1f2a0f	-0.15543388
50	0x3dc78b9f	0.097434275
51	0xbd33d670	-0.043905675
52	0xbde8ba2c	-0.113636345
53	0x3e216033	0.15759353
54	0x3da134a1	0.07871366
55	0xbda6bf8a	-0.08142002
56	0x3e3171d9	0.17328586
57	0xbe5559d9	-0.20835055
58	0x3e4a4d63	0.19756083
59	0x3e126644	0.14296824
60	0x3dc57c99	0.09642906
61	0x3e0b71bd	0.13617606
62	0x3d6e14c2	0.058125265
63	0x3d77b8e6	0.060479067
64	0xbdd164b2	-0.10224284
65	0xbca7a99b	-0.020466616
66	0xbde36c10	-0.11104596
67	0xbd6934b0	-0.056935012
68	0xbe05e300	-0.13074875
69	0x3d18c00d	0.03729253
70	0x3d9c5136	0.07632677
71	0x3cfea56d	0.03108474
72	0xbdbfcce6	-0.09365253
73	0xbdef6b61	-0.11690403
74	0xbd1027a9	-0.035194073
75	0xbcdc348e	-0.026880529
76	0xbd8e662c	-0.069530815
77	0x3df60559	0.12012739
78	0xbccbb2ff	-0.024865625
79	0xbda63251	-0.08115066
80	0x3cf6aa82	0.030110601
81	0x3dbe7128	0.092989266
82	0xbcc3d710	-0.02390626
83	0x3df3700b	0.11886605
84	0x3b836b46	0.0040105907
85	0x3d5bca4b	0.05365972
86	0xbdcfd23a	-0.101475194
87	0x3d4ecab8	0.050486296
88	0xbce32258	-0.027726337
89	0xbd043025	-0.032272477
90	0x3d892139	0.0669579
91	0xbcd18c7d	-0.025579685
92	0x3dbd1e62	0.09234311
93	0xbc00ae8a	-0.007854113
94	0xbd9c9558	-0.076456726
95	0x3aa30dc5	0.0012440017
96	0xbdf82335	-0.1211609
97	0xbd8705a4	-0.06592873
98	0x3d867d65	0.06566886
99	0x3dcc3766	0.09971504
100	0xbdb914f8	-0.090372026
101	0xbdce4bd2	-0.10073055
102	0xbdb70840	-0.089371204
103	0xbde558b9	-0.11198563
104	0x3d5e7336	0.054309092
105	0x3d86867a	0.06568618
106	0xbdc06bd3	-0.09395566
107	0xbc981415	-0.018564263
108	0xbdb9429e	-0.09045909
109	0x3d22d664	0.03975524
110	0xbd31be42	-0.043394335
111	0x3c01ac0b	0.007914553
112	0x3d940eb2	0.072293654
113	0x3dd1b26e	0.10239111
114	0xbce131c4	-0.02748955
115	0x3d352a40	0.044229746
116	0x3cde1fa1	0.027114691
117	0x3ad47f00	0.0016212165
118	0xbd1205b6	-0.035649978
119	0xbd7bbf91	-0.06146199
120	0x3dd47f44	0.103758365
121	0x3c6ff5d1	0.01464601
122	0xbda5e11f	-0.08099579
123	0xbddf26e1	-0.108960874
124	0xbd99087a	-0.0747232
125	0xbca4bc51	-0.020109328
126	0xbc5c1270	-0.01343213
127	0xbd625e7e	-0.055265896
128	0x3d82f168	0.06393701
129	0x3c4d1819	0.012517952
130	0x3ce27edf	0.027648387
131	0xbde6ba70	-0.11266029
132	0xbdb352c1	-0.087560184
133	0x3db84fcf	0.08999597
134	0x3c8131d0	0.015770823
135	0x3a7d0558	0.00096519804
136	0xbd4cc97c	-0.049996838
137	0xbc9c84eb	-0.019106349
138	0x3c6f623f	0.014610826
139	0x3b991080	0.0046711564
140	0xbad85215	-0.0016503955
141	0x3d46ec88	0.048565418
142	0xbd898fea	-0.067169026
143	0xbcdf1ded	-0.02723595
144	0x3c893200	0.016747475
145	0xbdeb1560	-0.11478686
146	0xbcf200b0	-0.029541343
147	0x3dd7b69c	0.10532877
148	0xbdcde07e	-0.10052584
149	0xbd2e34f7	-0.04253098
150	0x3d170794	0.03687246
151	0xbdb67fda	-0.089111045
152	0xbe099ed8	-0.134395
153	0xbce592cb	-0.028024098
154	0x3dc66bb2	0.0968851
155	0x3d9ac67c	0.07557389
156	0xbd0da354	-0.03457959
157	0xbdc6fc04	-0.09716037
158	0xbd658e67	-0.05604401
159	0xbada5eae	-0.0016660297
160	0xbc4e2c53	-0.01258381
161	0xbde580c3	-0.112062
162	0xbdde3d92	-0.10851587
163	0x3d86bf16	0.065794155
164	0xbda248a2	-0.0792401
165	0x3c8b2f65	0.016990373
166	0x3d8b40a6	0.0679944
167	0xbd10647a	-0.035252072
168	0x3d5844a1	0.052799825
169	0xbe128fe2	-0.143127
170	0xbc9b40e0	-0.018951833
171	0xbcff76fd	-0.031184668
172	0xbdae9b2a	-0.08525689
173	0x3d985a70	0.074391246
174	0xbcbcf8ec	-0.023067914
175	0x3da78bd2	0.081809655
176	0xbdb3282e	-0.08747898
177	0xbd9e049e	-0.077157244
178	0x3d034aec	0.032053873
179	0x3c76f220	0.015072376
180	0xbd40165d	-0.046896327
181	0xbde31509	-0.110879965
182	0xbd58687f	-0.05283403
183	0xbcb0ce28	-0.021582678
184	0x3db26546	0.087107226
185	0x3d318ff8	0.04335019
186	0xbd6a09a1	-0.05713809
187	0x3da65e08	0.08123404
188	0xbdb87a51	-0.09007705
189	0xbd53c1d3	-0.051698517
190	0xbdb37403	-0.08762362
191	0xbd4e35c5	-0.050344247
192	0xbe1f8785	-0.1557904
193	0x3e329106	0.17438135
194	0x3dc608de	0.0966966
195	0xbe403998	-0.1877197
196	0x3e45b74a	0.193082
197	0xbb1339c1	-0.0022464844
198	0xbd9038d0	-0.07042086
199	0x3b51fbb3	0.0032040894
200	0x3d558680	0.052130222
201	0x3e03539c	0.12824863
202	0x3cc397c7	0.023876084
203	0xbe3838ee	-0.17990467
204	0x3e01ec3a	0.1268777
205	0xbcfe60d0	-0.031052023
206	0x3d87d550	0.06632483
207	0x3e19e7ca	0.15029827
208	0xbd8d0b42	-0.06886913
209	0x3d89c6ea	0.06727393
210	0xbdecdd94	-0.115657
211	0x3db13764	0.08653143
212	0x3e0db54b	0.13838689
213	0x3e641a47	0.22275649
214	0x3e44b66d	0.19210215
215	0x3d35d530	0.044392765
216	0xbd501d7b	-0.050809365
217	0x3b79676f	0.0038056036
218	0x3e2b3c98	0.16722333
219	0x3d7122b4	0.058870986
220	0x3d2bf6d6	0.041983448
221	0x3d3412a0	0.043963075
222	0xbe6d6fe6	-0.23187217
223	0x3e1eadaf	0.15495943
224	0x3e8320a2	0.25610834
225	0x3ce363ff	0.027757643
226	0x3e1d780a	0.15377823
227	0x3ce4dade	0.027936395
228	0xbd83afa8	-0.06429988
229	0x3e067a09	0.1313249
230	0xbd9d766e	-0.07688604
231	0xbd36b467	-0.04460564
232	0xbd89491f	-0.067034
233	0x3d933193	0.0718719
234	0x3d530d32	0.051526256
235	0x3d666bbe	0.056255095
236	0xbd023915	-0.03179272
237	0xbd3aac4c	-0.04557447
238	0xbd3d0bae	-0.046153717
239	0xbe2e5f8c	-0.17028636
240	0x3e020300	0.12696457
241	0xbdd7e549	-0.105417795
242	0x3d3aeb38	0.04563448
243	0x3d410bb3	0.047130298
244	0x3e3c54b9	0.18391694
245	0xbe966d14	-0.29380095
246	0xbceb9ae6	-0.028760385
247	0x3e10f702	0.14156726
248	0x3d5db1cb	0.054124635
249	0x3e90f151	0.2830911
250	0xbd55a80f	-0.052162226
251	0xbdef1bf0	-0.116752505
252	0x3d84e627	0.064892106
253	0x3e0c0d36	0.13676915
254	0x3e5f0c6b	0.21782081
255	0x3e0a3713	0.13497572

hidden_layers.3.bias f4 [32]
0	0x3dc811da	0.0976903
1	0xbd71e5bd	-0.059056986
2	0xbdc5e016	-0.096618816
3	0x3e9f9a5f	0.31172463
4	0xbdf06cd0	-0.11739504
5	0x3eb0c51e	0.34525388
6	0xbc7da377	-0.015480868
7	0xbda9f56e	-0.08298765
8	0xbd7c9b15	-0.061671335
9	0x3e5515b0	0.20809054
10	0xbe134f83	-0.143858
11	0xbe4e7586	-0.20162019
12	0xbddc7b70	-0.10765731
13	0xbe666e6b	-0.22503059
14	0x3e8aad07	0.27085134
15	0x3dbcde2a	0.09222062
16	0x3df7fa57	0.121082954
17	0x3d2a0dee	0.04151719
18	0xbdda1f5e	-0.10650514
19	0x3e8835f2	0.26603657
20	0x3d95f5f0	0.073222995
21	0x3d54c14f	0.051942166
22	0xbdd967b1	-0.10615481
23	0x3de5ac72	0.11214532
24	0x3d998fd8	0.07498139
25	0xbd8965d1	-0.06708873
26	0xbe211fe3	-0.1573482
27	0xbe54510e	-0.20734045
28	0x3d37bbdb	0.044856887
29	0xbd6a66f3	-0.057227086
30	0xbd59e592	-0.05319745
31	0x3d2b30d1	0.0417946

output.weight f4 [4, 32]
0	0xbd75f8aa	-0.060051598
1	0x3da916d4	0.08256307
2	0x3c8bf1ef	0.017083136
3	0x3e27f335	0.1640137
4	0x3d74b708	0.059744865
5	0x3e64fcba	0.22362033
6	0xbd8848e9	-0.066545315
7	0x3e1a24be	0.15053079
8	0xbe0c0540	-0.13673878
9	0x3d9c9644	0.076458484
10	0x3de3d4e4	0.1112459
11	0xbdef67e9	-0.11689741
12	0x3dad4acc	0.08461532
13	0xbddeaef1	-0.10873211
14	0x3e2b4182	0.16724208
15	0x3cd5c474	0.026094653
16	0xbd3078ee	-0.043084078
17	0x3e2118a8	0.15732062
18	0xbcf2b390	-0.029626638
19	0x3de6d6da	0.112714484
20	0x3e306695	0.17226632
21	0x3dc0397b	0.093859635
22	0xbde7d197	-0.11319273
23	0x3da0152b	0.078165375
24	0x3d690e0d	0.056898165
25	0xbe53858d	-0.20656414
26	0xbdb155de	-0.08658956
27	0xbe10f01e	-0.14154097
28	0xbe3f8b56	-0.18705496
29	0x3cd2372c	0.025661074
30	0xbc7d087e	-0.015443919
31	0x3e2c1d13	0.16807966
32	0x3db69750	0.08915579
33	0x3d9ea6f1	0.07746685
34	0x3d9d8934	0.07692185
35	0x3d9dab3e	0.076986775
36	0xbdb2e4dd	-0.087350585
37	0x3e1b761f	0.15181778
38	0xbe0fe45f	-0.1405196
39	0x3dfccfd6	0.12344329
40	0xbd83a8d6	-0.06428687
41	0x3e78c72c	0.24294728
42	0x3dc9e83a	0.09858747
43	0x3d7b0f13	0.061293673
44	0xbcb74887	-0.02237345
45	0x3cb43cb2	0.022001598
46	0x3dce6ebd	0.100797154
47	0x3d947b02	0.072500244
48	0xbd852cd4	-0.06502691
49	0x3e03e0c4	0.1287871
50	0x3d9cfb2c	0.07665095
51	0x3e279077	0.16363703
52	0x3e13186b	0.14364783
53	0xbdc390b9	-0.09549088
54	0x3dd74177	0.10510533
55	0x3e4cdc1c	0.2000584
56	0xbe249f1a	-0.16076317
57	0xbe30d1f5	-0.17267592
58	0x3d99029a	0.07471199
59	0xbdafa015	-0.08575455
60	0xbdde45cc	-0.108531564
61	0x3dad7a92	0.08470644
62	0x3e1e9315	0.15485795
63	0xbca43a5f	-0.020047365
64	0x3b2eb9ea	0.0026661106
65	0x3dea2f79	0.11434836
66	0xbdf4d733	-0.119551085
67	0x3d7a6e69	0.06114045
68	0x3d3d5364	0.046222106
69	0x3e3e4a5d	0.18583055
70	0x3dd7c7a6	0.10536127
71	0xbc933de7	-0.017973853
72	0xbe20f407	-0.15718089
73	0xbd0e95aa	-0.0348107
74	0xbd27d5fc	-0.040975556
75	0x3e2470b3	0.16058616
76	0xbd2849bb	-0.04108594
77	0xbdd07889	-0.1017924
78	0x3e35e5ec	0.1776349
79	0xbe7facdb	-0.24968283
80	0xbda958f2	-0.08268918
81	0x3e21b39a	0.15791169
82	0x3d1b5f3b	0.037932616
83	0x3df9d840	0.121994495
84	0x3d570cbc	0.05250238
85	0x3db7b8fe	0.08970831
86	0xbd7ae0ed	-0.061249662
87	0x3e6f8bd7	0.23393188
88	0xbd43b0fd	-0.04777621
89	0x3c54dda6	0.012992298
90	0x3d8f7393	0.07004466
91	0x3da1885c	0.078873366
92	0xbdf216c3	-0.11820748
93	0xbdf8615f	-0.12127947
94	0x3c8011b8	0.015633449
95	0xbdf5177d	-0.11967371
96	0x3e69144b	0.22761647
97	0xbd621ce1	-0.055203322
98	0xbe2c0ab9	-0.16800965
99	0x3df49ab8	0.11943573
100	0x3dd7a552	0.10529579
101	0x3e3a5e5b	0.18200056
102	0xbe0cfd5f	-0.13768528
103	0xbe116e30	-0.1420219
104	0x3e0ca728	0.1373564
105	0x3caadcb7	0.020857198
106	0x3d03426a	0.03204576
107	0xbe0ffb1e	-0.14060637
108	0xbc32debf	-0.010917365
109	0x3e319361	0.17341377
110	0x3e58e640	0.21181583
111	0xbe27f41c	-0.16401714
112	0x3e029254	0.12751132
113	0x3d340e7d	0.04395913
114	0x3dc2765b	0.09495231
115	0x3e3df7d1	0.18551566
116	0x3d0e7e78	0.03478858
117	0xbd8d8fd8	-0.06912202
118	0xbe1e66ea	-0.15468946
119	0xbd695f22	-0.05697549
120	0xbdd85b7c	-0.10564324
121	0xbe22e573	-0.1590784
122	0x3e0a6c43	0.13517861
123	0xbdce8512	-0.10083975
124	0xbdfefec9	-0.1245094
125	0xbe116109	-0.14197172
126	0xbc1c2f60	-0.009532779
127	0x3d00179b	0.031272512

output.bias f4 [4]
0	0x3e144af6	0.1448172
1	0x3dea3f57	0.11437862
2	0x3e23be22	0.15990499
3	0x3d6e9f5d	0.05825745
