double-dqn-checkpoint.pth (torch_old, 214008 bytes, 10 tensors)

hidden_layers.0.weight f4 [256, 37]
0	0xbe2d8b6f	-0.16947721
1	0x3d4fc6f2	0.05072684
2	0xbdcdeea3	-0.10055282
3	0x3d943c66	0.072380826
4	0xbdd398b6	-0.10331862
5	0xbd44f7e9	-0.048087988
6	0xbe1aee4d	-0.15129967
7	0x3e183aff	0.14866255
8	0xbe77ef88	-0.24212468
9	0x3d9d5165	0.076815404
10	0xbe3ff42f	-0.18745492
11	0x3d8d4648	0.06898171
12	0xbe0ebef5	-0.13940032
13	0xbcf201ba	-0.029541839
14	0xbcd24e64	-0.025672145
15	0xbceaee28	-0.028678015
16	0x3d653689	0.055960212
17	0x3c87939f	0.016549883
18	0xbddc5cab	-0.107598625
19	0x3d688198	0.056764215
20	0x3dec3943	0.11534359
21	0x3dbd0938	0.09230274
22	0xbe7448e4	-0.2385593
23	0x3e8bf306	0.2733385
24	0xbe845654	-0.25847113
25	0xbdf92068	-0.12164384
26	0x3e4da284	0.20081526
27	0xbd833661	-0.06406856
28	0xbed32b5d	-0.4124402
29	0xbd463b0a	-0.048396148
30	0xbde3db9a	-0.1112587
31	0x3e269022	0.1626592
32	0xbea92427	-0.33035395
33	0x3e1db181	0.15399744
34	0xbea22033	-0.3166519
35	0xbde24ac9	-0.110494204
36	0xbd3f1b69	-0.046657
37	0x3e48917d	0.1958675
38	0xbe1789c0	-0.14798641
39	0x3dc60429	0.09668762
40	0xbdae450c	-0.085092634
41	0xbef9abd7	-0.48763916
42	0xbc84cf67	-0.016212178
43	0xbec21ae9	-0.37911156
44	0xbe513273	-0.20429401
45	0xbd204256	-0.039125763
46	0xbecce978	-0.40021873
47	0x3e389336	0.18024907
48	0xbe58a77e	-0.21157643
49	0xbdb7a804	-0.08967593
50	0x3da715a9	0.08158428
51	0x3d94a3ee	0.072578296
52	0x3dfebd5d	0.12438462
53	0xbd3b5e59	-0.045744274
54	0x3d74c71e	0.059760205
55	0xbec35b04	-0.38155377
56	0x3d342174	0.043977216
57	0xbe1728c6	-0.14761648
58	0xbf0775a1	-0.5291386
59	0xbcfe7201	-0.03106022
60	0x3e102c1d	0.14079328
61	0xbe9816e0	-0.29704952
62	0xbe0e94a5	-0.13923891
63	0xbd81b236	-0.06332819
64	0x3e118439	0.14210595
65	0xbde2345b	-0.11045142
66	0xbe1f866e	-0.15578625
67	0x3bd6076f	0.006531648
68	0xbd02f9d3	-0.031976532
69	0x3ddf8454	0.109139115
70	0xbe17a8f5	-0.14810546
71	0xbebb830d	-0.3662342
72	0xbd92efc7	-0.0717464
73	0x3d1b5c86	0.037930034
74	0x3b99e502	0.0046964893
75	0x3e2eb15d	0.17059846
76	0x3e19b088	0.15008748
77	0xbdbbaac2	-0.09163429
78	0x3da4ef7a	0.08053489
79	0xbf2a50ae	-0.6652936
80	0x3d1a8273	0.037722062
81	0x3eb63218	0.35585093
82	0x3e436c5f	0.19084309
83	0xbf2d29d2	-0.6764194
84	0x3d928146	0.07153563
85	0xbb31b2d2	-0.0027114642
86	0xbd248d2f	-0.040173706
87	0xbd000472	-0.03125424
88	0x3dfb4096	0.12268178
89	0x3e5fdd29	0.2186171
90	0x3d39e8d9	0.045388076
91	0x3d2bd86c	0.041954443
92	0xbe0ad12b	-0.13556354
93	0xbd1061f5	-0.03524967
94	0xbd56ce32	-0.052442737
95	0xbd3f73cc	-0.046741292
96	0x3d9ab1e6	0.07553463
97	0xbd77f031	-0.0605318
98	0xbd87567a	-0.06608291
99	0xbe8392b8	-0.25697875
100	0x3e41786a	0.1889359
101	0x3e813c2c	0.2524122
102	0xbe233967	-0.15939866
103	0xbeb5eb0e	-0.35530895
104	0xbe88dafb	-0.2672957
105	0x3df1fabf	0.11815404
106	0xbdbc46c8	-0.09193188
107	0x3b6b6012	0.0035915417
108	0x3c524c8b	0.012835632
109	0xbd5a352c	-0.053273365
110	0x3bd8715e	0.0066053113
111	0xbca6684d	-0.020313406
112	0xbd3b9b5f	-0.04580247
113	0x3e7de126	0.24792919
114	0x3ccfa749	0.025348322
115	0xbe9de0dc	-0.30835617
116	0xbebbfc2e	-0.36715835
117	0xbe1b5dcb	-0.15172498
118	0x3e8bce5b	0.27305874
119	0xbe420b76	-0.18949685
120	0x3d893ab1	0.067006476
121	0xbd7fe3c0	-0.06247306
122	0x3c60c199	0.013718032
123	0x3dc518a2	0.09623839
124	0xbe8745d8	-0.26420474
125	0xbd546361	-0.051852588
126	0xbe81c42a	-0.25344974
127	0xbe4c8f13	-0.19976453
128	0x3e1e062f	0.15432046
129	0xbeb58ff1	-0.3546138
130	0xbe3827e6	-0.1798397
131	0xbc28af52	-0.010295706
132	0xbda63695	-0.081158794
133	0x3dd8d287	0.1058703
134	0xbe6c0bc2	-0.2305136
135	0x3d9facd7	0.077966385
136	0x3ccfc928	0.025364473
137	0xbe40db84	-0.18833739
138	0xbc31c3a6	-0.010849869
139	0x3e6c5d4a	0.23082462
140	0x3a10ebc0	0.00055282936
141	0xbce963f5	-0.028490046
142	0x3d3a4515	0.045476038
143	0x3dac07bc	0.08399913
144	0xbd981450	-0.07425749
145	0xbe6fc778	-0.23415935
146	0x3db76dd5	0.08956496
147	0x36ed3e00	7.070368e-06
148	0x3b37e212	0.0028058332
149	0xbe5d7bfd	-0.21629329
150	0xbe40cfef	-0.1882932
151	0xbea20cd4	-0.31650412
152	0xbd670902	-0.056405075
153	0x3e2bbfce	0.16772386
154	0xbd067de2	-0.032834895
155	0xbed40925	-0.41413227
156	0xbcaf1dad	-0.021376455
157	0xbf689739	-0.9085575
158	0x3d381cad	0.044949222
159	0xbe23efed	-0.16009493
160	0xbe6ac010	-0.22924829
161	0x3cbe2519	0.023211049
162	0xbe626a4f	-0.22110866
163	0xbd7ad7cf	-0.061240967
164	0xbdd1eb26	-0.10249929
165	0xbd940e3e	-0.07229279
166	0xbe9a3826	-0.30120963
167	0x3cb8ca34	0.022557355
168	0xbe149303	-0.14509206
169	0xbd18600b	-0.03720097
170	0x3de570a2	0.11203124
171	0xbd51528d	-0.051104117
172	0x3d5f328d	0.05449157
173	0x3d940c2d	0.07228885
174	0xbe825ab3	-0.25459823
175	0x3e0467ea	0.12930265
176	0xbb9c988e	-0.004778928
177	0xbf02044d	-0.5078781
178	0x3e4c9d85	0.19981964
179	0xbe74e0c0	-0.2391386
180	0xbd73aea8	-0.059492737
181	0xbe4c0b07	-0.19926082
182	0xbd057026	-0.032577656
183	0xbd067200	-0.032823563
184	0x3c8636f2	0.016383622
185	0x3d6fa422	0.05850614
186	0xbcbcc7dc	-0.02304452
187	0xbcfa5b70	-0.030561179
188	0xbdb3875c	-0.08766052
189	0x3de3e9dd	0.1112859
190	0x3e9cc75d	0.30620852
191	0x3e262484	0.16224867
192	0xbea703f2	-0.32620198
193	0xbe310160	-0.17285681
194	0xbf0f80d5	-0.5605596
195	0xbc9ed3ea	-0.019388158
196	0xbdf22a32	-0.11824454
197	0x3d1d625e	0.03842389
198	0xbdcc3327	-0.09970694
199	0xb68edd80	-4.257716e-06
200	0x3ceb716c	0.028740607
201	0x3e14c9d8	0.14530122
202	0xbdfbdac2	-0.12297584
203	0xbddb1790	-0.106978536
204	0xbd822550	-0.06354773
205	0x3e599209	0.21247114
206	0xbe2394f4	-0.1597479
207	0x3e05e29d	0.13074727
208	0x3e0ebc6f	0.13939069
209	0xbd0dfb94	-0.03466375
210	0x3da39c6c	0.079888195
211	0xbd9b6f90	-0.07589638
212	0x3cffcd9f	0.031225977
213	0xbdb1556e	-0.086588725
214	0x3d2df112	0.04246623
215	0x3ddf9fa1	0.10919119
216	0xbd5c2452	-0.053745575
217	0xbd393916	-0.045220457
218	0xbc020ef9	-0.00793814
219	0xbe1ef273	-0.15522175
220	0xbd18bcf6	-0.037289582
221	0x3dcd43b7	0.10022681
222	0x3d8bf344	0.068335086
223	0x3d8a949c	0.06766626
224	0xbd3e4682	-0.04645396
225	0xbe576c4b	-0.21037404
226	0xbe209998	-0.15683591
227	0xbdccafd8	-0.09994477
228	0xbdb91a7d	-0.09038255
229	0xbd7f89a1	-0.062387113
230	0xbcfcb69f	-0.0308488
231	0x3b5bff72	0.0033569005
232	0x3d6f86d9	0.05847821
233	0x3e83e0e4	0.25757515
234	0xbb6a70c8	-0.003577279
235	0xbe3e1779	-0.18563642
236	0x3dd0a95a	0.10188551
237	0xbe43a3c2	-0.19105437
238	0xbd23a39c	-0.039950952
239	0x3d2cd127	0.04219165
240	0xbdaa5fc8	-0.0831905
241	0x3dcf67cd	0.1012722
242	0xbea83a17	-0.3285682
243	0x3d1dcc6b	0.038525026
244	0x3e4bad3d	0.19890304
245	0xbe79d079	-0.24395932
246	0x3e8f22d4	0.2795626
247	0xbe69688d	-0.22793789
248	0xbbb1c5ed	-0.005425206
249	0xbda541d3	-0.080691956
250	0x3d8bb563	0.06821706
251	0xbdb343e2	-0.08753182
252	0xbe781966	-0.24228439
253	0x3da8f171	0.08249176
254	0xbe280ce1	-0.16411163
255	0x3ed2d388	0.4117701

hidden_layers.0.bias f4 [256]
0	0xbbf99346	-0.0076164333
1	0x3d33d952	0.043908425
2	0x3d6b37d2	0.05742628
3	0xbd97e562	-0.07416798
4	0x3d6be29c	0.05758916
5	0x3d88aa84	0.06673148
6	0xbe446d07	-0.19182216
7	0xbe044c04	-0.12919623
8	0xbe7c172a	-0.24618211
9	0xbe254fac	-0.16143674
10	0x3db90e88	0.09035975
11	0x3e385c0d	0.18003865
12	0xbe21d91b	-0.15805475
13	0xbd9dad12	-0.07699026
14	0xbe27010b	-0.16308992
15	0x3d81eed0	0.06344378
16	0x3e04aecf	0.12957309
17	0x3c1ad293	0.009449619
18	0xbe0f5c32	-0.14000013
19	0xbe6710fd	-0.22565074
20	0xbd03d97a	-0.032189824
21	0x3d86154c	0.06547031
22	0xbc43b12a	-0.011944095
23	0xbdf4923f	-0.11941957
24	0xbd13b2b0	-0.03605908
25	0x3da1afc7	0.07894855
26	0xbad99039	-0.0016598768
27	0x3dd9ccf4	0.10634795
28	0x3cf283ad	0.029603804
29	0x3dbe39fd	0.09288404
30	0x3d986995	0.07442013
31	0xbd8f7c4e	-0.07006131
32	0xbd8640d0	-0.06555331
33	0x3d9311b6	0.071811125
34	0xbdafd3d9	-0.085853286
35	0x3d9e3262	0.077244535
36	0xbcb13406	-0.021631252
37	0xbc9bd041	-0.019020202
38	0xbdbcdb59	-0.09221525
39	0x3d9ee33e	0.07758187
40	0xbaeb64af	-0.0017959083
41	0xb9e0f485	-0.0004290679
42	0x3d4ee678	0.05051276
43	0xbad20f63	-0.0016026314
44	0xbe03894d	-0.12845345
45	0xbd9bab01	-0.07600976
46	0xbe6ebd10	-0.23314309
47	0xbe01b535	-0.12666781
48	0xbcaf3370	-0.021386832
49	0x3d8f0b0f	0.06984531
50	0xbdb7e3a8	-0.08978969
51	0x3dd77d32	0.10521926
52	0xbde412d5	-0.111364044
53	0xbd600853	-0.05469544
54	0xbcabe44c	-0.020982884
55	0xbd334881	-0.043770317
56	0x3ce7824b	0.02826037
57	0xbd5ca790	-0.053870738
58	0x3df97fe3	0.121825956
59	0x3db54784	0.08851531
60	0x3e429f4b	0.19006078
61	0xbae6c899	-0.001760739
62	0x3e01b70b	0.12667482
63	0xbd754ac6	-0.059885763
64	0x3d17422c	0.03692834
65	0xbdeb70b4	-0.11496106
66	0xbe3021f0	-0.17200446
67	0xbe1fb394	-0.15595847
68	0xbe260fde	-0.1621699
69	0xbdebce82	-0.115139976
70	0xbe1b5325	-0.15168436
71	0x3dcb98b3	0.099412344
72	0xbe61cd09	-0.22050871
73	0x3d9e3c42	0.07726337
74	0xbcff2c17	-0.031148953
75	0xbda9fd3b	-0.08300253
76	0x3d782e0e	0.060590796
77	0xbc05fcf1	-0.008177982
78	0xbdc07c57	-0.09398716
79	0x3d5f0573	0.054448556
80	0xbdc0792d	-0.093981124
81	0x3cead6ba	0.028666843
82	0x3c98a708	0.018634334
83	0xbcbaa907	-0.022785677
84	0xbb96229f	-0.004581764
85	0xbde9d8ab	-0.11418279
86	0xbd8ab68d	-0.067731
87	0x3e1bbd64	0.15208966
88	0x3d644b22	0.055735715
89	0x3d493673	0.049124192
90	0x3e2c830e	0.16846868
91	0xbe2390d4	-0.15973216
92	0xbc26f53b	-0.010190303
93	0x3df41d95	0.11919705
94	0xbdc3bab6	-0.09557097
95	0x3e1f1b56	0.15537772
96	0x3de5f255	0.11227862
97	0xbe30b8dc	-0.17258018
98	0x3c61b1e4	0.013775323
99	0x3de985dd	0.114024855
100	0xbe0c6d96	-0.13713679
101	0xbe84bf9b	-0.25927433
102	0xbe07b66b	-0.1325318
103	0xbc299262	-0.010349842
104	0xbdf6c6dd	-0.12049649
105	0xbdf24175	-0.11828891
106	0x3d68f668	0.056875616
107	0xbe4421c7	-0.1915351
108	0xbe1e72b0	-0.15473437
109	0x3d21dc31	0.03951663
110	0x3d55e93b	0.05222438
111	0x3c8a04fd	0.016848082
112	0x3deb5fb8	0.11492866
113	0xbc887512	-0.016657386
114	0x3db63ec5	0.08898691
115	0xbe2ac3fd	-0.16676326
116	0xbe467343	-0.19379906
117	0xbd1715e4	-0.03688611
118	0xbda60910	-0.08107197
119	0x3d180c95	0.037121374
120	0xbc9621b3	-0.018326616
121	0x38a3b53f	7.8062054e-05
122	0xbddce38b	-0.10785588
123	0xbc1ab960	-0.009443611
124	0xbe51c894	-0.2048667
125	0xbe695151	-0.22784926
126	0xbc256f82	-0.010097386
127	0x3df7ab73	0.12093248
128	0x3e0abbaa	0.1354815
129	0x3c816d72	0.015799258
130	0xbe3cdd02	-0.18443683
131	0x3d5f19ee	0.054468088
132	0x3cd08714	0.025455035
133	0xbd4ab987	-0.04949334
134	0xbcab14b3	-0.020883894
135	0xbdebb6a7	-0.115094475
136	0xbd0fbfe5	-0.035095114
137	0xbe7b3e16	-0.24535403
138	0x3c292fc6	0.0103263315
139	0xbe594eea	-0.2122151
140	0xbc938505	-0.018007765
141	0x3dbe73d9	0.0929944
142	0xbd507116	-0.050889097
143	0xbd88f667	-0.066876225
144	0xbdbe7f05	-0.09301571
145	0xbde19b00	-0.11015892
146	0xbdf48599	-0.11939544
147	0x3e1f2ab3	0.15543632
148	0xbd9bf551	-0.0761515
149	0x3e0edf7b	0.13952439
150	0xbe1abe1d	-0.15111585
151	0xbd66a369	-0.056308184
152	0xbe5b8e4f	-0.21441005
153	0xbe01b7d0	-0.12667775
154	0xbc1b0018	-0.009460472
155	0x3d860167	0.06543236
156	0xbc78a79c	-0.01517668
157	0xbe0ba909	-0.136387
158	0x3d95907e	0.0730295
159	0x3d9a29a6	0.07527475
160	0x3d2f7323	0.042834412
161	0x3e474d2c	0.19463032
162	0x3d74fc23	0.05981077
163	0xbc92d5a8	-0.017924145
164	0xbd0ee327	-0.034884598
165	0xbd6d5c23	-0.057949197
166	0xbdb130e3	-0.086519025
167	0xbd9c49ae	-0.07631241
168	0x3cbbb8ec	0.022915326
169	0xbe50e897	-0.20401226
170	0x3dc185ed	0.094493724
171	0xbe3ef806	-0.18649301
172	0x3daee524	0.08539799
173	0x3dfbdbe2	0.12297799
174	0xbc1bb8c5	-0.009504502
175	0xbd9f35b6	-0.077739164
176	0x3e6f478e	0.2336714
177	0xbe3718e9	-0.17880596
178	0x3e2295b5	0.15877421
179	0xbe13e686	-0.14443406
180	0x3e46b2af	0.194041
181	0x3cbc34d1	0.022974404
182	0xbe137e55	-0.1440366
183	0xbe322ea7	-0.17400609
184	0xbde1f939	-0.110338636
185	0x3c3bb567	0.011456824
186	0x3dc0869e	0.09400676
187	0x3d89bd70	0.067255855
188	0x3d6238b1	0.055229846
189	0x3d95eaf6	0.07320206
190	0xbe62f6be	-0.22164437
191	0x3c470309	0.01214672
192	0xbbadd172	-0.005304509
193	0x3d6a733c	0.057238802
194	0xbd445b27	-0.047938492
195	0xbc2e26c7	-0.010629362
196	0x3d15c51e	0.03656494
197	0xbdcb5cc3	-0.09929802
198	0xbdc5cc15	-0.09658066
199	0x3c1a5fe2	0.009422274
200	0x3da3f72e	0.0800613
201	0xbab8452e	-0.0014058703
202	0xbd5754c7	-0.052571084
203	0x3c2cdef8	0.010551207
204	0xbd836634	-0.06415978
205	0xbdc942a5	-0.098271646
206	0x3dd02bef	0.1016463
207	0x3e03dab2	0.12876394
208	0x3de2abcc	0.11067924
209	0x3c9c74b9	0.019098626
210	0xbe2dea21	-0.16983844
211	0xbe3cdc88	-0.18443501
212	0xbcfc6484	-0.030809648
213	0xbdf7e810	-0.12104809
214	0x3b93dca8	0.0045123883
215	0xbe1ec857	-0.15506111
216	0xbe0bba84	-0.13645369
217	0x3d4bbdb9	0.04974148
218	0x3da57935	0.08079759
219	0xbd7932a3	-0.060839307
220	0xbd2cf93a	-0.04222987
221	0xbdb42c9c	-0.08797571
222	0xbd8b0a90	-0.06789124
223	0xbbcbd244	-0.006220134
224	0xbe40b9b6	-0.18820843
225	0xbe06c713	-0.13161878
226	0xbd8f709b	-0.070039
227	0xbc0a026b	-0.008423428
228	0x3e1efc2a	0.1552588
229	0xbe582d8c	-0.21111125
230	0x3cb391c3	0.02192009
231	0xbcc8e183	-0.024521595
232	0xbd6eeaea	-0.0583295
233	0xbde2ef18	-0.1108076
234	0xbd165a0b	-0.036706965
235	0xbe3c446c	-0.18385476
236	0xbe2e6402	-0.17030337
237	0x3d3b6909	0.045754466
238	0x3b9e6e52	0.0048349285
239	0xbe598d21	-0.21245243
240	0x3ddd788b	0.10814007
241	0x3def962c	0.11698565
242	0xbe3a34b1	-0.18184163
243	0x3b61af66	0.003443682
244	0xbe824132	-0.25440365
245	0xbdc8dc8f	-0.09807693
246	0x3d0797da	0.0331038
247	0x3e2589d0	0.16165853
248	0x3da60dc2	0.08108093
249	0x3aed99a4	0.0018127454
250	0x3c0b0d02	0.008486988
251	0xbe4b390d	-0.19845982
252	0xbba11b2b	-0.0049165688
253	0x3dd84894	0.10560718
254	0xbd1a7d27	-0.03771701
255	0xbddfed61	-0.10933948

hidden_layers.1.weight f4 [128, 256]
0	0x3e6855b0	0.22688937
1	0x3c5df9ac	0.013548296
2	0x3df3bd80	0.11901379
3	0xbe3d4fb8	-0.18487442
4	0x3d8680c7	0.06567531
5	0x3d067e28	0.032835156
6	0xbbe4a091	-0.006977149
7	0x3dbb2219	0.09137363
8	0x3d9f7aff	0.077871315
9	0xbc8a0ea1	-0.016852679
10	0xbd12f1af	-0.03587502
11	0x3c055702	0.00813842
12	0xbc95cae7	-0.018285228
13	0x3d63cdad	0.05561607
14	0x3d39828b	0.04529051
15	0xbbb96044	-0.0056572277
16	0xbdee0902	-0.11622812
17	0x3dcf1c64	0.10112837
18	0xbe8934ee	-0.26798195
19	0xbe120580	-0.1425991
20	0x3d264ddf	0.040601607
21	0xbd368f7f	-0.044570442
22	0xbd64108c	-0.055679843
23	0x3d9fa1b8	0.07794517
24	0x3dbe8608	0.09302908
25	0x3e20b3fb	0.15693657
26	0x3de862c4	0.11346963
27	0xbd167564	-0.036733046
28	0x3d91a340	0.071112156
29	0xbdd8c3d6	-0.10584228
30	0xbda0933c	-0.07840583
31	0xbb295bdf	-0.0025842113
32	0xbe4394a9	-0.19099678
33	0x3dd1e1e0	0.1024816
34	0x3caf8f3b	0.021430602
35	0xbd22245d	-0.03958546
36	0xbcc15376	-0.023599368
37	0x3daa7a34	0.0832409
38	0x3e3cb04b	0.18426625
39	0x3d11824a	0.035524644
40	0x3d54a174	0.051911786
41	0x3dbb1d2f	0.09136426
42	0x3c3241dc	0.01087996
43	0xbd3b2733	-0.04569168
44	0xbe1f686a	-0.15567175
45	0xbe96db11	-0.2946401
46	0xbd9d5a7f	-0.076832764
47	0x3aed3b37	0.0018099312
48	0x3d18413b	0.037171584
49	0x3dd4aac0	0.103841305
50	0xbd8de8d8	-0.06929177
51	0x3d2578b8	0.04039833
52	0x3de8e9e8	0.11372739
53	0xbe47d4eb	-0.19514816
54	0xbd552072	-0.052032895
55	0xbdefe514	-0.11713615
56	0xbe619cb6	-0.22032437
57	0xbdb6afc0	-0.089202404
58	0xbd5b460c	-0.0535336
59	0xbdfac3b1	-0.122443564
60	0x3d836bf2	0.06417073
61	0x3df22f2b	0.11825403
62	0x3ca0b001	0.019615175
63	0xbe8f2a50	-0.2796197
64	0xbc9b0a6c	-0.018925868
65	0x3e24ce13	0.16094236
66	0xbcf0067a	-0.029299963
67	0x3b3c0c26	0.0028693764
68	0xbe8588f0	-0.26081038
69	0xbe6a7b9e	-0.22898719
70	0xbd393339	-0.045214865
71	0xbe366ac2	-0.17814162
72	0xbe2082c6	-0.15674886
73	0xbd79d1a3	-0.06099094
74	0xbdd9d7e4	-0.10636881
75	0x3db0c3d9	0.08631105
76	0xbe4f593a	-0.20248881
77	0xbe4b18b8	-0.19833648
78	0xbdc6f211	-0.09714139
79	0x3da58380	0.08081722
80	0x3ca8f9d5	0.020626942
81	0xbd6d1a7e	-0.057886593
82	0x3c084881	0.0083180675
83	0x3dc8be71	0.09801949
84	0xbecc4bba	-0.39901525
85	0x3dd0593b	0.10173269
86	0xbe023f9f	-0.12719582
87	0xbc0810ef	-0.0083048185
88	0x3dcfc345	0.101446666
89	0xbd67a93e	-0.056557886
90	0xbd924ef6	-0.07143967
91	0x3d0e3ff0	0.034728944
92	0xbe4b6874	-0.19864064
93	0x3d82be03	0.06383898
94	0x3d8a482c	0.06752047
95	0x3e0bdfcb	0.13659589
96	0x3e4d6787	0.20059024
97	0x3d076bfd	0.03306197
98	0x3e433a47	0.190652
99	0xbdd1f7ec	-0.102523655
100	0x3d8f3fc1	0.06994582
101	0xbdc10d7d	-0.09426401
102	0xbe4ac2da	-0.19800892
103	0xbdc0e350	-0.094183564
104	0xbcbf116e	-0.02332374
105	0x3d9af4ef	0.075662486
106	0xbe7e3eff	-0.24828719
107	0x3db91a59	0.090382285
108	0x3db12555	0.08649699
109	0xbe0ce319	-0.13758506
110	0xbe3eafae	-0.18621704
111	0x3c4d1eea	0.0125195775
112	0xbdbca14a	-0.09210451
113	0x3c91d546	0.017801892
114	0xbe50f178	-0.20404613
115	0xbdb25eca	-0.08709486
116	0xbdcd6366	-0.10028724
117	0x3db322e9	0.08746893
118	0x3e3af602	0.18257907
119	0x3c0bc52f	0.008530899
120	0xbd8a8f39	-0.06765599
121	0xbeb1468a	-0.3462413
122	0xbe2087a4	-0.15676743
123	0x3da84e03	0.082180046
124	0xbddce0ee	-0.107850894
125	0x3adbd35b	0.0016771363
126	0x3e7a5bb8	0.2444905
127	0xbd58b986	-0.052911304
128	0x3d5be1cd	0.053682137
129	0x3da25be9	0.07927687
130	0xbd9b78d0	-0.075914025
131	0xbcd9179a	-0.026500512
132	0x3e526a79	0.20548429
133	0xbdc63d76	-0.096796915
134	0x3c30d064	0.010791872
135	0xbc48ae88	-0.012248643
136	0xbbd4612b	-0.00648131
137	0xbdc53614	-0.09629455
138	0x3d246c2e	0.04014223
139	0xbc6c43e7	-0.014420486
140	0xbe8aadc2	-0.27085692
141	0x3c42c73b	0.011888321
142	0x3e145377	0.14484964
143	0x3bae299c	0.005315019
144	0xbe39906b	-0.18121497
145	0x3e22e583	0.15907864
146	0x3e65dcaf	0.22447465
147	0x3d2198c4	0.03945233
148	0x3d879564	0.06620291
149	0xbc274604	-0.010209564
150	0x3e78811e	0.24268004
151	0x3d664f1e	0.056227796
152	0x3e7f4b63	0.24931102
153	0x3c31674b	0.01082785
154	0x3e40294d	0.18765755
155	0xbe383507	-0.17988978
156	0x3d643b29	0.055720482
157	0xbe84a686	-0.25908297
158	0x3dc25fbe	0.094909176
159	0xbd414d88	-0.04719308
160	0x3d2af449	0.041736875
161	0x3ddce45d	0.10785744
162	0x3dc092aa	0.09402974
163	0xbe05bd2c	-0.13060445
164	0xbe2ee31b	-0.17078821
165	0xbcbfbd95	-0.02340583
166	0xbce799ab	-0.028271517
167	0x3d04cd61	0.032422427
168	0xbd229559	-0.03969321
169	0x3e28b9e9	0.16477169
170	0xbc729baa	-0.014807621
171	0xbe54e36e	-0.20789883
172	0x3cc0c74b	0.02353253
173	0xbe643eb5	-0.22289546
174	0xbe009187	-0.12555514
175	0xbd8e8862	-0.06959607
176	0x3d52b4cc	0.051441953
177	0x3e54ff21	0.20800449
178	0xbcc45f3f	-0.023971198
179	0x3d190ab3	0.03736372
180	0x3da6f119	0.081514545
181	0xbc6b9ee6	-0.014381146
182	0xbde3305f	-0.110932104
183	0xbdb22773	-0.086989306
184	0x3dc7a72a	0.09748681
185	0x3d1cba53	0.03826363
186	0xbd442e7c	-0.047895893
187	0xbdd71ccd	-0.1050354
188	0xbe37a5db	-0.17934363
189	0x3dc547f8	0.096328676
190	0xbd96c5d8	-0.073619545
191	0x3d950d53	0.07277932
192	0xba705d90	-0.00091692153
193	0x3da9f800	0.08299255
194	0xbda78176	-0.081789896
195	0x3e203fa3	0.15649275
196	0xbd93e46c	-0.072213024
197	0x3c3614c5	0.01111335
198	0xbe0737bd	-0.13204856
199	0x3de0072d	0.10938869
200	0xbc85da67	-0.016339494
201	0x3b7e05e5	0.0038760838
202	0x3caa98ea	0.020824868
203	0xbe6692a9	-0.22516884
204	0xbddc71c2	-0.10763885
205	0x3e2cf5b9	0.16890611
206	0xbdda48eb	-0.10658439
207	0x3e0b7cc8	0.13621819
208	0x3ccc361a	0.024928141
209	0xbddad2d1	-0.10684741
210	0x3e14c49a	0.14528123
211	0xbea916ae	-0.33025116
212	0x3d9b52b5	0.075841345
213	0xbd3e3f41	-0.046447042
214	0xbdd028f5	-0.10164062
215	0xbe3e4b71	-0.18583466
216	0xbe5204aa	-0.20509592
217	0x3d8b0887	0.06788736
218	0xbe1cbe7d	-0.1530704
219	0xbe94328a	-0.28944808
220	0x3de8e350	0.113714814
221	0x3de34f49	0.11099107
222	0xbde4151b	-0.11136838
223	0xbd1efd69	-0.03881589
224	0xbdd73c0c	-0.105095
225	0xbc1735e1	-0.009229154
226	0x394f5cb2	0.0001977559
227	0x3d69ebd5	0.057109673
228	0xbe0139c1	-0.12619688
229	0x3d924a00	0.07143021
230	0x3d8e81b2	0.06958331
231	0xbc3694b0	-0.011143848
232	0x3d8e324c	0.06943187
233	0x3e314b84	0.17313963
234	0xbdcd654d	-0.10029087
235	0xbd09ffe0	-0.033691287
236	0xbd88582f	-0.06657445
237	0x3ddde5e1	0.108348615
238	0x3e1db64a	0.15401569
239	0xbdebf13c	-0.11520621
240	0x3de91087	0.113801055
241	0xbc9d8724	-0.01922948
242	0xbce1af92	-0.027549539
243	0x3dc50758	0.09620541
244	0x3d8e53ec	0.069496006
245	0xbe6786d7	-0.22610031
246	0x3cfcc175	0.030853966
247	0x3e200b8b	0.15629403
248	0xbdbba4eb	-0.09162315
249	0xbe8b5cb9	-0.2721918
250	0xbdae9cfe	-0.08526038
251	0xbe90a6eb	-0.28252348
252	0x3d99c63c	0.07508513
253	0xbd2fcdd1	-0.04292089
254	0x3e04f853	0.12985353
255	0xbd9f7943	-0.07786801

hidden_layers.1.bias f4 [128]
0	0xbdea0f91	-0.1142875
1	0x3d00b90b	0.03142647
2	0xbdc00b3a	-0.09377141
3	0x3cf4d0e4	0.029884763
4	0xbd8ff5aa	-0.070292786
5	0xbd0c2825	-0.034217972
6	0x3c2596a0	0.010106713
7	0xbc4c1628	-0.012456454
8	0x3d3f515b	0.046708446
9	0xbd5709e0	-0.052499652
10	0x3dc456bb	0.09586855
11	0xbd878d8d	-0.066187955
12	0xbd1dc9c4	-0.038522497
13	0x3d9ab74b	0.075544916
14	0xbce84e2a	-0.028357584
15	0x3ce392ee	0.027780022
16	0xbd7ceb99	-0.06174812
17	0xbdb97ad9	-0.090566345
18	0xbdb1d69b	-0.08683511
19	0xbdd5255b	-0.104075156
20	0x3a882731	0.0010387657
21	0xbc947192	-0.01812056
22	0xbdd4e5fa	-0.10395427
23	0xbdb1c550	-0.086802125
24	0xbca07aa8	-0.019589737
25	0xbcd7c1c3	-0.02633751
26	0xbce89a49	-0.028393881
27	0xbc3e9b71	-0.01163374
28	0xbd8c84bd	-0.06861255
29	0xba3922fc	-0.0007062403
30	0xbd8d8a85	-0.06911186
31	0xbdbea1dd	-0.09308217
32	0xbc3dfe84	-0.011596326
33	0xbd62b05d	-0.055343974
34	0xbcff87d4	-0.031192698
35	0xbd95923b	-0.07303282
36	0xbce17dbd	-0.027525777
37	0xbcc3b2ff	-0.023889063
38	0x3d3485e0	0.044072986
39	0xbcaead5e	-0.021322902
40	0xbca3195f	-0.019909559
41	0x3d946863	0.07246473
42	0xbce59046	-0.028022896
43	0xbbda8199	-0.0066682813
44	0xbd54c8b0	-0.051949203
45	0xbdcc4ba1	-0.099753626
46	0x3c78597c	0.0151580535
47	0xbda71294	-0.0815784
48	0x3b26ef19	0.0025472103
49	0x3b8e2203	0.0043375506
50	0xbd9b07c8	-0.075698435
51	0x3cbe38ec	0.023220502
52	0xbbf3c003	-0.007438661
53	0x3d32ecf6	0.043683015
54	0x3d44d1bf	0.048051592
55	0x3da282ce	0.07935105
56	0x3c5840d1	0.013199047
57	0xbdaca7ca	-0.08430441
58	0xbccecdb3	-0.02524457
59	0x3c8680c7	0.016418828
60	0xbae00565	-0.0017091451
61	0xbdde9dda	-0.108699515
62	0x3d72cc18	0.05927667
63	0xbd9f43ec	-0.07776627
64	0x3d1bb66f	0.03801578
65	0xba01770a	-0.00049386977
66	0x3cb2928e	0.021798398
67	0xbdcbe45b	-0.09955665
68	0xbd553b01	-0.052058224
69	0xbcce356c	-0.025171958
70	0x3db9612f	0.090517394
71	0xbdf10432	-0.11768378
72	0xbd855881	-0.065110214
73	0x3d0cf94b	0.03441743
74	0x3ce7b8a0	0.028286278
75	0x3e3251de	0.17414042
76	0xbd511698	-0.051046938
77	0xbd7363db	-0.0594214
78	0xbd839cf1	-0.064264186
79	0xbd9b5ad4	-0.075856835
80	0x3bad705f	0.0052929367
81	0xbddc5716	-0.10758798
82	0xbd96f1af	-0.07370316
83	0xbdc422e3	-0.095769666
84	0x3d30a468	0.04312554
85	0x3d4de856	0.0502704
86	0x3cc653f4	0.024209954
87	0xbdaf8771	-0.08570755
88	0x3d9561f2	0.07294072
89	0x3d56a150	0.052399933
90	0x3d99a7b4	0.0750269
91	0x3dbe0712	0.09278692
92	0x3db7b930	0.089708686
93	0xbcd577f9	-0.026058184
94	0x3d72c8d2	0.05927355
95	0x3d091fc0	0.033477545
96	0x3cb1a560	0.021685302
97	0xbd5e5312	-0.05427844
98	0x3c803bbf	0.01565349
99	0xbd92a6ab	-0.07160696
100	0x3d74d547	0.05977371
101	0xbbd8f82e	-0.006621382
102	0xbb147ac5	-0.0022656184
103	0x3c3ef948	0.011656113
104	0x3d7b9360	0.061419845
105	0x3d6620cd	0.056183625
106	0x3d4a423b	0.04937957
107	0x3e34ec1b	0.17668192
108	0x3d3324b2	0.043736167
109	0xbbf209d2	-0.0073864246
110	0x3df71374	0.12064257
111	0x3c713ada	0.014723504
112	0x3cced6b8	0.02524887
113	0x3d2ca355	0.042147953
114	0xbc9c8e1d	-0.019110734
115	0xbd5654a7	-0.052326825
116	0xbdcaa32b	-0.09894403
117	0xbde063fd	-0.10956571
118	0x3db11883	0.08647253
119	0xbd8d9029	-0.06912262
120	0xbbab07eb	-0.0052194498
121	0xbd04ea6e	-0.032450132
122	0xbcbe8b55	-0.023259798
123	0xbd4e8c4b	-0.050426763
124	0xbc7dc16b	-0.015488009
125	0x3dc8c4ab	0.098031364
126	0xbd09873f	-0.033576246
127	0x3dfc026e	0.12305151

hidden_layers.2.weight f4 [64, 128]
0	0x3d026ff1	0.031845037
1	0xbda2bfda	-0.07946749
2	0xbd24ec60	-0.040264487
3	0x3d92d258	0.07169026
4	0xbd1a55f5	-0.03767963
5	0xbd87371e	-0.0660231
6	0x3a788dd0	0.0009481581
7	0x3cf6acda	0.030111719
8	0xbdcad77d	-0.099043824
9	0xbd694fee	-0.056960993
10	0xbddce6f8	-0.10786241
11	0x3d208e26	0.039198063
12	0xbce0441f	-0.027376233
13	0x3e078c14	0.1323703
14	0x3d9b4e13	0.07583251
15	0xbd05d4e8	-0.032673746
16	0x3c32cf33	0.010913658
17	0xbd20ce49	-0.03925923
18	0x3cd4239b	0.025895884
19	0xbd959bb2	-0.07305087
20	0xbd901802	-0.07035829
21	0x3b558940	0.0032583028
22	0x3b3af3aa	0.0028526583
23	0xbd6a2c57	-0.057171192
24	0xbdb7a9aa	-0.08967908
25	0x3d05a80c	0.032630965
26	0x3cdf9f5e	0.027297672
27	0xbcca9d3b	-0.024733176
28	0x3d322356	0.04349073
29	0xbd3a943c	-0.045551524
30	0x3c99ee00	0.018790245
31	0xbdc78677	-0.09742444
32	0xbcec044e	-0.028810646
33	0xbdb9871b	-0.090589724
34	0x3d5537c2	0.052055128
35	0x3d988123	0.07446506
36	0xbb83d7e3	-0.0040235384
37	0xbdbfc583	-0.09363844
38	0xbd76f180	-0.060288906
39	0x3b500d7b	0.0031746316
40	0xbd517b6f	-0.051143106
41	0xbc6d2bc7	-0.014475769
42	0x3d62118c	0.055192515
43	0xbd816ef7	-0.06319993
44	0xbcd9d467	-0.02659054
45	0x3ccf4486	0.02530123
46	0x3d07134f	0.0329774
47	0xbd89a9a0	-0.067218065
48	0x3c9b0083	0.018921142
49	0xbddc9097	-0.10769766
50	0xbc1d0528	-0.009583749
51	0xbd912fd3	-0.070892
52	0x3d5b24ec	0.05350201
53	0x3da10c96	0.07863729
54	0xbdb1fe62	-0.08691098
55	0xbd8b8dfe	-0.06814192
56	0xbdd2829d	-0.10278819
57	0x3d875c99	0.066094585
58	0x3d5a1d50	0.05325061
59	0x3d29fd43	0.041501295
60	0xbda44108	-0.08020216
61	0xbda5fb31	-0.081045516
62	0xbd4f74a7	-0.050648358
63	0x3cc384ae	0.023866978
64	0xbdad682d	-0.084671356
65	0x3b826714	0.003979573
66	0xbd9722cf	-0.07379686
67	0x3c650d36	0.0139802005
68	0x3c27f33b	0.010250862
69	0xbd06e10d	-0.03292947
70	0x3b1b7e73	0.0023726493
71	0xbde6375e	-0.11241029
72	0x3d7e946f	0.062153276
73	0x3b7cf154	0.0038595991
74	0xbc25c9ae	-0.010118885
75	0xbd98e4bb	-0.07465502
76	0x3b225067	0.0024767162
77	0xbd46015f	-0.04834115
78	0xbc98e985	-0.018666038
79	0xbc8b1de8	-0.016982034
80	0xbc55f289	-0.013058313
81	0x3bcd1693	0.0062587946
82	0x3d01559e	0.03157579
83	0xbcc0292e	-0.023457136
84	0x3da1cb1a	0.07900067
85	0x3d9888b5	0.0744795
86	0x3d21bc59	0.039486263
87	0xbd470832	-0.0485918
88	0x3d76d008	0.060256988
89	0xbd5ee8ea	-0.054421343
90	0xbad285d1	-0.0016061609
91	0x3b777ce6	0.0037763654
92	0xbd911047	-0.07083183
93	0xbd8b3670	-0.067974925
94	0xbd46a23c	-0.048494563
95	0x3d712206	0.058870338
96	0xbda6400c	-0.08117685
97	0x3cc3a532	0.023882482
98	0x3b9f537d	0.0048622475
99	0xbd8077c5	-0.06272844
100	0x3d0f5cfe	0.035000794
101	0x3c9a787a	0.018856276
102	0xbd05c631	-0.032659713
103	0xbdc10f7e	-0.09426783
104	0xbb9623ba	-0.0045818957
105	0x3cd906a5	0.026492426
106	0x3ca7b724	0.02047307
107	0xbd360d73	-0.04444642
108	0xbc17686f	-0.0092412075
109	0xbc4bbce6	-0.012435174
110	0xbd717a6f	-0.058954652
111	0xbd7389eb	-0.0594577
112	0xbd6745de	-0.056463115
113	0xbcdf0ac6	-0.027226817
114	0x3d546886	0.051857494
115	0xbe0294a0	-0.12752008
116	0x3d2f9fb1	0.042876903
117	0x3a87d436	0.0010362926
118	0xbd017113	-0.031601977
119	0xbd8d9884	-0.06913856
120	0x3d2cc831	0.042183105
121	0x3c92c8df	0.017918048
122	0xbcd44596	-0.025912087
123	0xbdb53a6e	-0.08849035
124	0x3bd5dda1	0.0065266644
125	0xbbec67b5	-0.0072145113
126	0xbdf4bbcc	-0.11949882
127	0xbdd35444	-0.10318807
128	0x3e015696	0.12630686
129	0x3dd817bc	0.10551402
130	0xbd0ce026	-0.034393452
131	0x3b656d5c	0.003500781
132	0xbd8eda4b	-0.0697523
133	0xbcc3f8e2	-0.023922388
134	0x3d5ff62e	0.054678135
135	0xbe1f9cf9	-0.15587224
136	0xbd736027	-0.05941787
137	0x3c739b33	0.014868545
138	0x3cfcc4dd	0.03085559
139	0xbc858578	-0.016298994
140	0xbb7f09d8	-0.003891578
141	0x3ce0b7a1	0.027431311
142	0x3e087aed	0.13328142
143	0x3d7b3b11	0.061335627
144	0x3d76bd7b	0.060239296
145	0xbdc800c1	-0.09765769
146	0xbdb509fd	-0.08839796
147	0xbe02e1a5	-0.12781389
148	0x3d390611	0.0451718
149	0x3d5d8559	0.05408225
150	0x3eb29a2d	0.34883252
151	0xbd9cf1cc	-0.076633066
152	0x3d527a77	0.051386323
153	0x3c31c486	0.0108500775
154	0xbb6a9ee7	-0.003580028
155	0x3bbbdced	0.0057331235
156	0x3d80ab84	0.06282714
157	0x3dfa9104	0.12234691
158	0x3e2a5e90	0.16637635
159	0xbd2f3a50	-0.04278022
160	0x3c1f4630	0.009721324
161	0xbd734f88	-0.05940202
162	0x3caa6c49	0.020803588
163	0xbd0446bd	-0.032294024
164	0xbcafb698	-0.021449372
165	0x3dcbf1b8	0.099582136
166	0x3d40b797	0.047050085
167	0xbd8544da	-0.06507273
168	0x3df31b23	0.1187041
169	0x3da15ed6	0.07879417
170	0x3bfad29d	0.0076545016
171	0x3d601675	0.054708917
172	0xba8e2fed	-0.0010848023
173	0xbcd550f3	-0.026039576
174	0xbd01df81	-0.03170729
175	0x3d706425	0.058689255
176	0xbdbc8a0e	-0.09206019
177	0x3e381705	0.17977531
178	0xbc8d8395	-0.017274657
179	0xbd46fbf9	-0.048580144
180	0xbd4396ab	-0.04775111
181	0x398818e7	0.00025958495
182	0xbcfa56c0	-0.030558944
183	0x3de5892a	0.112078026
184	0xbb94c30c	-0.004539853
185	0x3c9f5be3	0.019452995
186	0x3c358f12	0.011081474
187	0xbcb8feca	-0.02258243
188	0xbd6df491	-0.058094565
189	0x3bf08ec4	0.0073412377
190	0xbda1080f	-0.07862865
191	0xbda9f1c4	-0.08298066
192	0xbe3d1fb9	-0.18469132
193	0xbd85a918	-0.06526393
194	0x3d8a011d	0.067384936
195	0x3d3a7f66	0.045531653
196	0x3c2bf33f	0.010495006
197	0xbd7d3c5e	-0.06182515
198	0x3d91e14b	0.07123049
199	0x3c354ad6	0.011065206
200	0xbc8db59e	-0.017298516
201	0xbda22751	-0.07917655
202	0xbe8c0535	-0.27347723
203	0x3d50ec57	0.05100664
204	0x3d43476a	0.047675528
205	0xbd5b0467	-0.053470995
206	0xbc4fdfae	-0.012687607
207	0xbe038708	-0.12844479
208	0xbd20df54	-0.039275482
209	0x3cf66bed	0.03008076
210	0xbded6fea	-0.115936115
211	0x3db012e8	0.08597356
212	0x3e2f1796	0.17098841
213	0x3e101a20	0.14072466
214	0xba04adcc	-0.0005061298
215	0xbd0c1b70	-0.034205854
216	0x3d9a30b5	0.075288214
217	0xbe77d17f	-0.2420101
218	0xbdc2cf45	-0.0951219
219	0x3d84021f	0.06445717
220	0x3d517ca7	0.05114427
221	0xbd9459df	-0.07243704
222	0xbdfafc00	-0.122550964
223	0x3e22825b	0.15870039
224	0xbdc73187	-0.097262435
225	0x3d81ada7	0.0633195
226	0x3dd74bf3	0.10512533
227	0x3d37efc1	0.04490638
228	0xbc1af281	-0.0094572315
229	0xbd69a5f6	-0.05704304
230	0x3e905618	0.28190684
231	0xbd8504d7	-0.06495064
232	0xbc8b29a7	-0.016987635
233	0x3e757119	0.23968925
234	0xbc82eae9	-0.015981155
235	0x3e1d2cac	0.15349072
236	0x3da19c1b	0.07891103
237	0x3d9291bc	0.07156703
238	0x3e5bd74a	0.21468845
239	0xba8ebe19	-0.0010890394
240	0x3e24ce75	0.16094382
241	0x3c62a914	0.013834257
242	0x3d8ba26a	0.068180874
243	0x3c8a95d1	0.016917141
244	0x3d54f625	0.051992554
245	0xbd030025	-0.03198256
246	0x3d1e03ea	0.03857795
247	0xbd3dedf6	-0.046369515
248	0xbd791238	-0.06080839
249	0xbca2e998	-0.019886777
250	0xbdd2c3dd	-0.10291264
251	0x3d5a7197	0.053330984
252	0xbce62999	-0.028096007
253	0x3d7a027c	0.061037526
254	0xbdc87fb6	-0.09789984
255	0xbe5dc6c6	-0.21657857

hidden_layers.2.bias f4 [64]
0	0xbd70d288	-0.05879453
1	0x3e43c141	0.1911669
2	0x3e6f635e	0.2337775
3	0xbe08e7bc	-0.1336965
4	0x3ebeeb2d	0.372888
5	0x3e9b90b6	0.30383843
6	0xbde7655b	-0.11298629
7	0xbdd70272	-0.10498513
8	0x3dc062ce	0.093938455
9	0x3d55f2de	0.05223357
10	0x3dc1a397	0.094550304
11	0xbd89b338	-0.067236364
12	0x3e67eeaf	0.22649644
13	0xbc63ffd8	-0.013915978
14	0xbd3e0456	-0.046390854
15	0x3db54f6d	0.0885304
16	0x3e09557a	0.13411513
17	0x3e30e3a9	0.17274345
18	0xbdcba235	-0.09943048
19	0xbd8441e6	-0.06457882
20	0xbd4594a0	-0.048237443
21	0x3d3fd017	0.04682931
22	0x3d9cbfd8	0.07653779
23	0xbda6f337	-0.08151858
24	0x3eac8aa1	0.33699515
25	0xbd674c9b	-0.05646954
26	0x3e9cc0cc	0.30615842
27	0x3e95e4de	0.29276174
28	0x3dab08a0	0.083512545
29	0xbe6fe02a	-0.23425356
30	0x3d57c6cb	0.052679818
31	0x3e97dbbc	0.29659832
32	0x3e4a0b51	0.1973088
33	0xbdec7a09	-0.11546714
34	0x3ea70a04	0.3262483
35	0x3c4cbdc6	0.012496417
36	0x3e586034	0.21130449
37	0x3d542be1	0.05179966
38	0xbe103aaf	-0.14084886
39	0x3e6dae3b	0.23210995
40	0x3e1ca807	0.15298472
41	0x3ddf295e	0.10896562
42	0xbdec332e	-0.11533199
43	0x3ea4aeb5	0.3216454
44	0xbb6dad91	-0.0036266784
45	0xbc835708	-0.01603271
46	0x3dda8741	0.10670329
47	0x3d573ed1	0.05255014
48	0xbdb6cfd2	-0.08926357
49	0xbdaae2d3	-0.083440445
50	0xbdc66426	-0.096870705
51	0xbd9f76d2	-0.07786335
52	0x3dbfef59	0.09371824
53	0xbe3c4a20	-0.18387651
54	0x3e91e28c	0.28493154
55	0xbda2a51a	-0.07941647
56	0xbcf778b7	-0.030208929
57	0x3e6d0f89	0.23150457
58	0x3df65d60	0.120295286
59	0xbd623f15	-0.05523594
60	0x3d9990ce	0.074983224
61	0x3e3ed7c0	0.1863699
62	0x3e233876	0.15939507
63	0x3c7f93ed	0.015599233

hidden_layers.3.weight f4 [32, 64]
0	0xbd8c4c36	-0.068504736
1	0xbddbc4a6	-0.10730867
2	0x3dfba1dc	0.122867316
3	0xbde89b53	-0.11357751
4	0x3c8e021a	0.017334986
5	0x3e3384fd	0.175312
6	0xbe6a7a0d	-0.22898121
7	0x3b46ee5c	0.0030354476
8	0x3ca63468	0.020288661
9	0x3dbd1726	0.09232931
10	0x3e6904bf	0.22755717
11	0xbd4fb568	-0.05071011
12	0x3d5b726a	0.05357591
13	0x3e05ecf6	0.13078675
14	0xbe2254e3	-0.15852694
15	0x3dc6dd9e	0.09710239
16	0xbdd5721c	-0.10422155
17	0xbe130c24	-0.143601
18	0xbc8e97f1	-0.017406436
19	0xbe9659fc	-0.29365528
20	0x3d4799a3	0.048730504
21	0x3db64b16	0.0890104
22	0xbdd0394f	-0.10167181
23	0x3e80561b	0.25065693
24	0xbdb2125f	-0.0869491
25	0x3ca41596	0.020029824
26	0x3dcb72f8	0.09934038
27	0xbca43784	-0.020046003
28	0xbe3ab783	-0.18234067
29	0xbe3e5969	-0.18588795
30	0x3ded5a0b	0.1158944
31	0x3b444ee4	0.002995425
32	0xbdd198d0	-0.10234225
33	0x3db4bc60	0.08824992
34	0x3cf64ed5	0.030066887
35	0xbdcdbc60	-0.10045695
36	0x3e411d7b	0.18858902
37	0x3ced58ba	0.028972972
38	0x3da2fea0	0.07958722
39	0x3e1fe920	0.15616274
40	0x3dcefef5	0.10107223
41	0xbe5f9456	-0.2183393
42	0x3b38388f	0.0028109883
43	0x3ddc2c6f	0.107506625
44	0xbe2af7d5	-0.16696103
45	0x3dae07d5	0.084975876
46	0xbdfd1ec1	-0.123593815
47	0xbe162a07	-0.1466447
48	0x3dde5237	0.10855525
49	0xbe23231b	-0.1593136
50	0x3def8d5e	0.116968855
51	0xbd8d7f27	-0.06909018
52	0xbd59458b	-0.053044837
53	0xbbc060bf	-0.005870908
54	0x3cfde158	0.030991241
55	0xbe008249	-0.125497
56	0xbdab1502	-0.08353616
57	0x3e980665	0.2969238
58	0x3e485954	0.19565326
59	0xbd3e1c1e	-0.046413533
60	0x3e6e4a8e	0.23270628
61	0xbcbb5fec	-0.022872888
62	0x3e2adc2e	0.16685554
63	0x3e52e692	0.20595768
64	0x3afc44bd	0.001924656
65	0xbd89eacf	-0.06734239
66	0x3da645fe	0.08118819
67	0x3cf74497	0.030184073
68	0xbdbc4fc5	-0.09194902
69	0x3db94d6c	0.0904797
70	0x3d421b01	0.047389034
71	0xbcdd434a	-0.027009625
72	0x3d9b3be0	0.075797796
73	0xbe555dec	-0.2083661
74	0x3d829397	0.06375807
75	0xbd11bc55	-0.035579998
76	0xbd1d6a39	-0.03843138
77	0xbc677a67	-0.014128304
78	0x3d3731d2	0.044725247
79	0xbe7da46f	-0.24769758
80	0x3e4ee832	0.20205763
81	0x3e8a4021	0.2700205
82	0xbcc3d710	-0.02390626
83	0x3d9c1ca5	0.07622651
84	0x3bcfcd2b	0.0063415966
85	0x3dd60760	0.104506254
86	0x3d26d20f	0.04072767
87	0x3e223838	0.15841758
88	0xbcf1257f	-0.029436825
89	0xbd14afec	-0.036300585
90	0x3e1f3c3e	0.15550324
91	0x3c44f0d4	0.0120203085
92	0x3f060930	0.5235777
93	0xbe1c3c9c	-0.15257496
94	0x3d0a9244	0.033830896
95	0x3deb2d09	0.11483199
96	0xbe3737a2	-0.17892316
97	0xbdb4e46d	-0.08832631
98	0x3dbf072a	0.09327538
99	0x3e957e11	0.29197744
100	0x3cdf5774	0.02726338
101	0x3e161eb9	0.14660157
102	0x3cd9b49f	0.026575385
103	0x3cfa7158	0.030571625
104	0x3e190989	0.14945044
105	0xbb8c3e46	-0.0042798845
106	0xbdd2de9b	-0.10296365
107	0x3b410124	0.0029450143
108	0xbec38636	-0.38188332
109	0x3d37234c	0.044711396
110	0xbb92186f	-0.004458479
111	0x3d64301f	0.055709954
112	0xbd220583	-0.039556038
113	0x3ddabca0	0.106805086
114	0x3d1de05e	0.03854405
115	0x39e80743	0.000442559
116	0x3e6040f5	0.21899779
117	0xbe83effb	-0.25769028
118	0x3cac87c4	0.021060832
119	0xbdea462f	-0.11439168
120	0x3e8438e0	0.25824642
121	0x3e972ae5	0.29524913
122	0x3c82dec3	0.015975362
123	0xbe136b8c	-0.14396495
124	0x3d0b663c	0.034033045
125	0x3e891d56	0.26780194
126	0x3d3184c7	0.043339517
127	0x3ce502ca	0.027955431
128	0x3df4a914	0.119463116
129	0xbbba260b	-0.0056808046
130	0x3c9b36d6	0.018947046
131	0xbdcc15af	-0.09965073
132	0xbd4d747f	-0.050159927
133	0x3d894fd5	0.0670468
134	0x3cda8376	0.026674014
135	0x3d14f13d	0.036362875
136	0xbd6bb1c4	-0.057542577
137	0xbc376978	-0.011194579
138	0x3cb716da	0.022349764
139	0x3b991080	0.0046711564
140	0xba1bbcd7	-0.000594092
141	0x3d21bbe9	0.039485846
142	0xbd1a4795	-0.037665922
143	0x3d6ec1b8	0.058290213
144	0x3b9a05a2	0.0047003785
145	0xbd428e54	-0.047499016
146	0xbcf200b0	-0.029541343
147	0x3e04d1f4	0.12970716
148	0xbdd896aa	-0.10575612
149	0x3c5d1155	0.013492902
150	0xbd47fc05	-0.04882433
151	0xbdab3d6a	-0.08361323
152	0xbe301e23	-0.17198996
153	0xbd0f9eee	-0.035063677
154	0x3dc3dad8	0.095632255
155	0x3dc761a1	0.09735418
156	0xbc8e9c1f	-0.017408429
157	0xbdc89196	-0.09793393
158	0xbd7db770	-0.061942518
159	0x3ba411a3	0.0050069853
160	0xbd03c41b	-0.032169443
161	0xbdb26e81	-0.08712483
162	0xbdf50fa6	-0.11965875
163	0x3b9723d5	0.004612426
164	0xbe0fbf56	-0.14037833
165	0x3db7bc1a	0.089714244
166	0x3dc48c2a	0.09597047
167	0xbd23724f	-0.039903935
168	0x3d17c6b8	0.037054747
169	0xbe0dc3be	-0.13844201
170	0xbcbd92b1	-0.023141237
171	0xbcff0a96	-0.031132977
172	0xbe10dc0b	-0.1414644
173	0x3d9fb770	0.0779866
174	0xbc98e29e	-0.018662747
175	0x3d801363	0.06253698
176	0xbde6a219	-0.112613864
177	0xbde7479a	-0.11292954
178	0x3d801a3c	0.06255004
179	0x3c76f220	0.015072376
180	0xbd59b608	-0.053152114
181	0xbd9ab44d	-0.07553921
182	0xbd8eb137	-0.06967395
183	0xbb858ba8	-0.004075486
184	0x3d422635	0.04739972
185	0x3dbf87ec	0.09352097
186	0xbd76824f	-0.060182866
187	0x3d6b53bf	0.057452913
188	0xbd9eb8b3	-0.07750072
189	0xbc60bb5f	-0.013716548
190	0xbd9fe0a0	-0.07806516
191	0xbcc81f33	-0.02442894
192	0xbbaeadba	-0.0053307684
193	0x3e5390e5	0.20660742
194	0x3d94a00e	0.072570905
195	0xbe113310	-0.14179635
196	0x3e83363e	0.2562732
197	0x3d4d7a3c	0.0501654
198	0xbdd2a9ea	-0.10286315
199	0xbdebf379	-0.11521048
200	0x3e8dfd34	0.2773224
201	0x3d858e79	0.06521315
202	0x3e44f5b4	0.19234353
203	0xbd8d77e1	-0.06907631
204	0x3dd253cc	0.10269889
205	0xbe037d2c	-0.12840718
206	0xbc4d0e9c	-0.01251569
207	0xbe3dec74	-0.18547231
208	0xbe9cc5a6	-0.30619544
209	0x3cb58bfb	0.022161474
210	0xbdcf54db	-0.10123607
211	0x3e6a7919	0.22897758
212	0x3dd9463b	0.106090985
213	0xbd591958	-0.053002685
214	0x3e96b5ac	0.2943548
215	0x3e834a9a	0.25642854
216	0x3d262914	0.04056652
217	0xbd24157c	-0.04005955
218	0x3e2b90c7	0.16754447
219	0x3d8f5605	0.06998829
220	0x3dd2457b	0.102671586
221	0xbdbbfc5d	-0.09178994
222	0xbe3ad301	-0.18244554
223	0x3dcc88b0	0.099870086
224	0x3e598431	0.21241833
225	0xbd976846	-0.073929355
226	0x3e3cc519	0.18434562
227	0x3e811203	0.25209054
228	0xbcbf5fba	-0.023361076
229	0x3c39acb3	0.011332679
230	0xbeb72c73	-0.357761
231	0xbcfacbd8	-0.030614778
232	0xbe408f4e	-0.18804666
233	0xbe80e159	-0.25171927
234	0x3d89f932	0.06736983
235	0x3d20b7ca	0.039237775
236	0x3db20be2	0.08693673
237	0x3db3c4bb	0.08777758
238	0xbc61b56f	-0.013776167
239	0xbe8f9d96	-0.28049916
240	0x3e385372	0.18000582
241	0xbd7e91f0	-0.062150896
242	0x3dab5b45	0.08367018
243	0xba218017	-0.00061607495
244	0xbd80fcfa	-0.062982515
245	0xbdfd92fe	-0.12381552
246	0x3e068120	0.13135195
247	0x3df98417	0.12183397
248	0x3e3b26df	0.18276547
249	0x3e88c66b	0.2671388
250	0xbcda41f5	-0.026642779
251	0x3c826052	0.01591507
252	0x3e8b6b35	0.2723023
253	0x3ea2ffab	0.31835684
254	0x3e25f0bd	0.16205116
255	0x3eadcf53	0.33947238

hidden_layers.3.bias f4 [32]
0	0x3e757c06	0.23973092
1	0x3e0cc427	0.13746701
2	0xbdc76bcd	-0.09737358
3	0x3e9cc9c4	0.30622685
4	0xbdeedbd4	-0.11663023
5	0x3ec3b752	0.382258
6	0xbcea2e7c	-0.028586619
7	0xbdaa0a0e	-0.08302699
8	0xbe1b7a94	-0.15183479
9	0x3e5f67dd	0.21816964
10	0xbe15ed8f	-0.14641403
11	0xbe0bd69e	-0.13656089
12	0xbe107811	-0.14108302
13	0xbd6136de	-0.054983966
14	0x3e85a2bd	0.26100722
15	0x3e00067d	0.12502475
16	0x3d282ded	0.041059423
17	0xbdd6510f	-0.104646794
18	0xbe8d79fe	-0.27632135
19	0x3e8b7724	0.27239335
20	0x3b382ea8	0.0028103981
21	0x3df6e7fd	0.12055967
22	0xbd1b67c0	-0.03794074
23	0x3e1cd499	0.15315475
24	0x3d98cb18	0.07460612
25	0xbdb383a1	-0.087653406
26	0xbe03ab72	-0.1285837
27	0x3b3226d7	0.0027183795
28	0x3d56bfa6	0.052428864
29	0xbe08b568	-0.13350451
30	0xbd671efe	-0.05642604
31	0xbd35f4f9	-0.044423077

output.weight f4 [4, 32]
0	0xbc563b78	-0.013075702
1	0x3e72998e	0.23691389
2	0xbc77a3da	-0.015114749
3	0x3e3856ca	0.18001857
4	0x3dde1fb8	0.108458936
5	0x3e8380ce	0.25684208
6	0xbd8314e9	-0.06400473
7	0x3e331e59	0.17492045
8	0xbd4e24d7	-0.050328102
9	0x3d9a1351	0.075232156
10	0x3ddafadb	0.10692378
11	0xbdca38b3	-0.09874096
12	0x3e1bacc6	0.15202627
13	0xbe5b4d66	-0.21416244
14	0x3dde6871	0.10859764
15	0x3e3400ab	0.1757838
16	0x3d7b5db0	0.061368644
17	0x3cd04a98	0.025426194
18	0xbe071aac	-0.13193768
19	0x3dcb1798	0.099166095
20	0x3cfaabb4	0.030599453
21	0xbb908fb9	-0.0044116643
22	0xbd9098a4	-0.07060364
23	0x3dfecac8	0.12441021
24	0x3d91c668	0.07117921
25	0xbe121b2e	-0.1426818
26	0xbd98551c	-0.07438108
27	0xbe69e442	-0.2284098
28	0xbe9e265b	-0.30888638
29	0x3c73d314	0.014881868
30	0xbd406ffd	-0.0469818
31	0x3d6f60ce	0.05844193
32	0x3db2c0f8	0.08728212
33	0x3e49b82c	0.19699162
34	0x3b59c77d	0.0033230477
35	0x3dcfe16d	0.101504184
36	0xbdd24fba	-0.10269113
37	0x3e205ed4	0.15661174
38	0xbde754d2	-0.11295475
39	0x3e282779	0.16421308
40	0xbd875984	-0.066088706
41	0x3e90954d	0.28238907
42	0x3de0bb54	0.1097323
43	0x3d1d240e	0.038364463
44	0xbda215ab	-0.07914289
45	0x3ce33288	0.027734056
46	0x3dbebaef	0.093129985
47	0xbd0ea22f	-0.03482264
48	0xbdfde7c2	-0.1239772
49	0xbdb5aa7a	-0.088704064
50	0x3d55d77a	0.052207448
51	0x3e19840b	0.14991777
52	0x3d48b481	0.049000267
53	0xbd18efe7	-0.037338164
54	0x3e19e333	0.15028076
55	0x3e0cfb7c	0.13767809
56	0xbdf9c868	-0.121964276
57	0xbde10412	-0.109871045
58	0x3db6a671	0.08918465
59	0xbdca2751	-0.0987078
60	0xbcc55d67	-0.02409239
61	0x3ba9911a	0.005174768
62	0x3e31b89f	0.17355584
63	0xbe398a70	-0.18119216
64	0x3e02b39f	0.12763833
65	0x3e203cdd	0.15648217
66	0xbe26310c	-0.16229647
67	0x3cf64045	0.030059943
68	0x3d64df88	0.05587724
69	0x3e37600c	0.17907733
70	0x3d4ef460	0.050526023
71	0x3d0bd264	0.03413619
72	0xbe194f06	-0.14971551
73	0xbd4c743a	-0.04991553
74	0x3cbf8643	0.02337945
75	0x3e0e46e1	0.13894226
76	0xbd855c23	-0.06511714
77	0xbdfb71d7	-0.122775726
78	0x3e3e2594	0.18569022
79	0x3ca7f794	0.020503797
80	0xbdacff93	-0.084471844
81	0x3d724d7f	0.059155937
82	0x3e21e36c	0.15809411
83	0x3e198e74	0.14995748
84	0xbd91e86a	-0.071244076
85	0x3e49ca77	0.1970614
86	0x3d5d1f93	0.05398519
87	0x3e8a2698	0.2698257
88	0x3de180a6	0.11010866
89	0x3daaba21	0.083362825
90	0x3dde3d7d	0.10851572
91	0x3d998916	0.0749685
92	0xbd4e7405	-0.050403614
93	0xbd974e1a	-0.073879436
94	0xbd8114a5	-0.06302766
95	0xbe09f62e	-0.13472816
96	0x3e8b8d81	0.27256396
97	0xbc3a8287	-0.011383659
98	0xbdea9ddf	-0.11455893
99	0x3e1720df	0.14758633
100	0x3de7bd52	0.11315407
101	0x3e3cce95	0.1843818
102	0xbdddbecc	-0.10827407
103	0xbe145cf7	-0.14488588
104	0x3e1ba289	0.15198721
105	0x3d47b648	0.04875782
106	0x3cfb05b8	0.030642375
107	0xbdf10d94	-0.11770168
108	0xbe2864a3	-0.1644464
109	0x3cf73009	0.030174272
110	0x3e70d153	0.23517351
111	0xbe95afe6	-0.29235762
112	0x3dd3c29a	0.10339852
113	0xbcc82135	-0.024429897
114	0x3df84b32	0.12123717
115	0x3e3a896e	0.18216488
116	0xbca4d54a	-0.020121235
117	0xbe873aaf	-0.2641196
118	0xbe78510c	-0.24249667
119	0xbd36387a	-0.044487454
120	0xbe810139	-0.25196245
121	0xbdd448bd	-0.10365436
122	0x3e0cb88c	0.13742274
123	0x3dba7029	0.09103424
124	0xbea73b5d	-0.32662478
125	0xbd7aeb17	-0.061259355
126	0x3d79a5e0	0.060949206
127	0x3cacf7a7	0.021114184

output.bias f4 [4]
0	0x3e349380	0.17634392
1	0x3e0e3751	0.13888289
2	0x3e85f00e	0.2615971
3	0x3be13c1b	0.00687362
