double-dqn-checkpoint.pth (torch_old, 62698 bytes, 8 tensors)

hidden_layers.0.weight f4 [128, 37]
0	0x3db87a07	0.0900765
1	0x3d8d629f	0.06903576
2	0xbe362476	-0.17787346
3	0xbd593bd7	-0.053035583
4	0xbdf84b93	-0.1212379
5	0x3e0ccdd4	0.13750392
6	0xbd38f8d8	-0.04515919
7	0x3e5432a1	0.20722438
8	0x3e128041	0.14306737
9	0x3e1a59f8	0.15073383
10	0xbddd2fc5	-0.10800127
11	0x3b5f565c	0.0034078574
12	0xbd410877	-0.047127213
13	0xbe2a67b9	-0.1664113
14	0xbd844ec2	-0.06460334
15	0x3d0fc813	0.035102915
16	0x3d44f654	0.04808648
17	0x3dec7200	0.11545181
18	0x3be34825	0.0069360905
19	0x3db60baf	0.08888947
20	0x3eb462d1	0.3523164
21	0xbe7742dd	-0.241466
22	0xbea07ec8	-0.31346726
23	0x3cd05fa7	0.025436236
24	0xbf786031	-0.97021776
25	0xbdf1a765	-0.11799506
26	0x3cf9d170	0.030495375
27	0x3dc6be01	0.09704209
28	0xbdc4ee8a	-0.0961581
29	0x3e1a5399	0.15070952
30	0x3da88173	0.082278155
31	0xbaeaea26	-0.0017922565
32	0xbe5f0af7	-0.21781527
33	0xbe0335d0	-0.12813497
34	0xbf1dc9bc	-0.6163595
35	0xbdbea240	-0.093082905
36	0xbb008ea7	-0.0019616277
37	0x3e2d7de6	0.16942558
38	0x3d9cc161	0.076540716
39	0x3e19446e	0.1496751
40	0x3d2b4e49	0.041822705
41	0xbe49d436	-0.19709858
42	0x3e7db88a	0.24777427
43	0xbea0da8e	-0.31416744
44	0xbe33defe	-0.17565534
45	0xbecbc0b6	-0.39795464
46	0xbf59c535	-0.8506654
47	0x3e33f6fd	0.17574687
48	0xbd518ab5	-0.051157672
49	0xbc8379e1	-0.016049327
50	0x3e17846f	0.14796613
51	0x3dd06be6	0.1017683
52	0x3e18e40b	0.14930741
53	0x3c0ea432	0.008706139
54	0x3e110f48	0.14165986
55	0xbe27f08c	-0.16400355
56	0xbd4fef31	-0.05076522
57	0xbd5291e7	-0.051408675
58	0xbdfc8aa0	-0.12331128
59	0xbc58ec29	-0.013239899
60	0x3d4ca0f8	0.0499582
61	0xbd9371fc	-0.07199475
62	0xbc9c87d5	-0.019107739
63	0x3deddf4f	0.11614858
64	0x3e45b724	0.19308144
65	0xbe1d9343	-0.15388207
66	0xbdee2709	-0.11628539
67	0x3e2766ec	0.16347855
68	0x3e43d627	0.19124661
69	0x3de0be86	0.109738395
70	0xbe24a6a2	-0.1607919
71	0xbe53ef99	-0.20696868
72	0x3c1cadf1	0.009562955
73	0x3d637f10	0.055541098
74	0x3e9722fa	0.29518872
75	0xbdc9d91b	-0.09855863
76	0x3e12c947	0.14334594
77	0xbc562a25	-0.0130715715
78	0xbc03d8f4	-0.008047331
79	0xbe8cba7a	-0.2748602
80	0xbf0905a5	-0.5352424
81	0x3ee569d9	0.44807318
82	0xbc9d60f6	-0.019211274
83	0xbe40d4e5	-0.18831213
84	0x3e241b6f	0.1602609
85	0x388ef3bc	6.816487e-05
86	0x3b5cb3e7	0.0033676566
87	0xbe2036fc	-0.15645975
88	0x3d2d490c	0.04230599
89	0xbd7c8afe	-0.06165599
90	0x3dbcfe10	0.09228146
91	0xbc2abc3a	-0.010420853
92	0x3e8101b3	0.2519661
93	0x3e8c04ae	0.2734732
94	0xbe2c014f	-0.16797374
95	0xbe17cd6f	-0.1482446
96	0x3db31a7a	0.087452844
97	0x3e354168	0.17700732
98	0xbe2847b1	-0.16433598
99	0xbe62646c	-0.2210862
100	0xbcaecf7d	-0.021339172
101	0x3e7bfe13	0.2460864
102	0x3cf647d5	0.030063549
103	0xbe42f5e3	-0.19039111
104	0xbe9b7e95	-0.30370012
105	0xbde5a96b	-0.112139545
106	0xbbda0fd6	-0.00665472
107	0x3ca5363e	0.020167466
108	0x3d128627	0.03577247
109	0xbcf881b9	-0.030335294
110	0x3d819ddb	0.06328937
111	0x3e265a05	0.16245277
112	0x3db0921b	0.086216174
113	0x3df3ba07	0.11900716
114	0xbce8e97f	-0.028431652
115	0xbdac81d4	-0.084232
116	0x3dc64cd9	0.09682626
117	0xbb3e663b	-0.0029052633
118	0xbd13b546	-0.036061548
119	0x3d2f5bdd	0.042812217
120	0x3f055578	0.5208354
121	0xbda6dc9e	-0.08147548
122	0xbdac271f	-0.08405899
123	0x3e18d7f2	0.14926127
124	0xbe019d9b	-0.12657778
125	0xbbe08e62	-0.006852911
126	0xbb854ba3	-0.0040678545
127	0x3ce75c01	0.028242113
128	0xbdf89afb	-0.12138935
129	0xbd617fa6	-0.055053376
130	0xbe65e6d4	-0.22451335
131	0x3e0155b7	0.12630354
132	0xbd7d3776	-0.06182047
133	0xbda0a23c	-0.07843444
134	0x3e2f7c3a	0.17137232
135	0xbd8e4193	-0.06946101
136	0xbceb3675	-0.02871249
137	0xbe1f1148	-0.15533936
138	0x3dd97d09	0.10619552
139	0x3e730d39	0.23735513
140	0x3dd2a918	0.10286158
141	0x3e4ac3f2	0.1980131
142	0x3c07c9d8	0.008287869
143	0x3c5399f9	0.012915128
144	0xbdda5234	-0.1066021
145	0xbebfd097	-0.3746383
146	0x3e35eb75	0.17765601
147	0x3cbb416d	0.022858346
148	0x3cae17ff	0.021251677
149	0xbe1a1bd1	-0.15049674
150	0xbe4c8cf3	-0.19975643
151	0xbd866d27	-0.06563788
152	0x3c1bb471	0.00950347
153	0x3d2abb82	0.041682728
154	0xbd4657f8	-0.048423737
155	0xbd95a9a8	-0.0730775
156	0x3d64c9a1	0.05585635
157	0x3dc38837	0.09547465
158	0x3b9f071a	0.0048531415
159	0xbe108b5b	-0.1411566
160	0xbd8178a4	-0.063218385
161	0x3d8fb4ff	0.07016944
162	0xbdb51307	-0.0884152
163	0xbdcef613	-0.10105529
164	0xbca67248	-0.020318165
165	0xbb8b480b	-0.0042505316
166	0xbe011f33	-0.12609558
167	0x3d405a6e	0.04696124
168	0x3ce8405f	0.028351007
169	0xbec5eb03	-0.38655862
170	0xbdeb620f	-0.114933126
171	0x3e2a60a8	0.16638434
172	0x3f19ff92	0.60155594
173	0x3c3d871a	0.011567855
174	0xbda00f99	-0.07815475
175	0x3da6096c	0.08107266
176	0x3cc80bd7	0.024419708
177	0x3d0f0f26	0.034926556
178	0x3e6092b4	0.21930963
179	0xbec2eb4e	-0.38070148
180	0xbcd0f306	-0.025506508
181	0x3da97388	0.08273989
182	0x3f6c0ef1	0.922103
183	0x3cdeb6e8	0.027186826
184	0x3cae3f35	0.021270374
185	0x3e0227db	0.12710516
186	0x3d2352c6	0.03987386
187	0x3d6bc6f8	0.0575628
188	0xbe3ccfbc	-0.1843862
189	0x3dd54a7b	0.10414597
190	0x3edcd659	0.43132284
191	0xbd7bc042	-0.06146265
192	0xbee46e56	-0.4461543
193	0xbeb8ad34	-0.36069643
194	0xbf86ca14	-1.0530419
195	0xbcbe53cf	-0.023233322
196	0xbe09db07	-0.13462459
197	0x3d9eb5cc	0.07749519
198	0xbc92e9a8	-0.017933682
199	0xbe03281f	-0.12808274
200	0x3dd0d446	0.10196738
201	0x3e0bc9ab	0.13651149
202	0xbdb0c571	-0.08631409
203	0xbe89bb5a	-0.2690075
204	0xbe2778cc	-0.16354674
205	0x3e5930da	0.21210042
206	0x3d9a5f39	0.075376935
207	0x3dd9fabd	0.10643528
208	0x3e07f726	0.13277873
209	0xbde7b6a3	-0.11314132
210	0x3e33174c	0.17489356
211	0x3d652f3b	0.055953246
212	0x3c037c89	0.008025297
213	0xbe9cf095	-0.306523
214	0xbe8efb0c	-0.2792591
215	0x3e56eeef	0.20989583
216	0xbda55898	-0.080735385
217	0xbe0029d8	-0.12515962
218	0xbd77b7cb	-0.060478013
219	0xbe4ff43d	-0.20308013
220	0xbcea97b2	-0.028636787
221	0x3da946f7	0.082654886
222	0xbd3d28f9	-0.046181653
223	0xbdb1be5a	-0.08678885
224	0x3d82942b	0.06375917
225	0xbe930990	-0.28718233
226	0xbe0ed0dd	-0.13946863
227	0xbe221386	-0.1582776
228	0xbe60086f	-0.21878217
229	0x3dfbd897	0.122971706
230	0xbd14b5b5	-0.0363061
231	0x3dc9e6a8	0.09858447
232	0x3e411061	0.18853904
233	0xbd742aa2	-0.05961097
234	0xbe278acd	-0.16361542
235	0xbdcbd6a7	-0.09953051
236	0xbd1c015f	-0.038087245
237	0xbeaf27cf	-0.3421006
238	0xbe09ff1e	-0.13476226
239	0x3e2966eb	0.16543166
240	0xbdb7252d	-0.089426376
241	0x3e192025	0.14953668
242	0xbe484942	-0.19559196
243	0xbe0ab2be	-0.13544747
244	0x3e2c0b1e	0.16801116
245	0xbe93e2e8	-0.28884053
246	0x3e29ba4e	0.16574976
247	0xbe7a03c8	-0.24415505
248	0xbd10dd97	-0.035367575
249	0xbc80fbdb	-0.015745094
250	0xbe8130a7	-0.2523243
251	0x3c9b4089	0.018951671
252	0x3cde681c	0.027149253
253	0xbe76cb5c	-0.24101013
254	0xbce38130	-0.027771562
255	0xbdbfa904	-0.09358409

hidden_layers.0.bias f4 [128]
0	0x3cbe3adc	0.023221426
1	0x3dece078	0.115662515
2	0xbc9d105f	-0.019172845
3	0xbc1f57eb	-0.009725551
4	0xbc5cca58	-0.013475977
5	0x3ca5207a	0.020157088
6	0xbc62c65a	-0.013841236
7	0x3da3d7b7	0.08000129
8	0xbe816944	-0.25275624
9	0x3e05b33b	0.13056652
10	0xbdba62d2	-0.0910088
11	0xbdbd6f4a	-0.09249742
12	0xbcac5a9e	-0.021039303
13	0xbd853ec5	-0.06506113
14	0xbe01be16	-0.12670168
15	0xbda8f96b	-0.08250698
16	0x3defec23	0.117149614
17	0xbd9e2b36	-0.077230856
18	0xbdb5f7a0	-0.08885121
19	0xbd317dee	-0.043332987
20	0xbd2879b4	-0.04113169
21	0x3dd8e7e8	0.105911076
22	0x3e270175	0.1630915
23	0xbd2310a3	-0.039810788
24	0x3e0e9e32	0.13927534
25	0xbbb9f73a	-0.0056752237
26	0x3e2bae97	0.1676582
27	0xbd38ec53	-0.04514725
28	0xbddb1d7d	-0.10698984
29	0xbe4ba3bb	-0.19886677
30	0x3e10db62	0.14146188
31	0x3d804f74	0.062651545
32	0xbe1f16a6	-0.15535983
33	0x3deb2a74	0.11482707
34	0xbd7790fd	-0.060441006
35	0xbe82d1ff	-0.2555084
36	0x3cf8dbc6	0.030378234
37	0x3e27f9c4	0.16403872
38	0xbd64326d	-0.055712152
39	0x3d661f49	0.05618218
40	0x3e043d47	0.12914
41	0x3de088df	0.10963606
42	0x3de6e6a1	0.11274458
43	0x3d98b5fd	0.074565865
44	0x3debcc85	0.115136184
45	0xbc8f0388	-0.017457739
46	0x3c7ec242	0.015549244
47	0xbda6976b	-0.081343494
48	0xbe2daed2	-0.1696122
49	0x3e0e5c1f	0.13902329
50	0x3e1ab517	0.15108143
51	0xbdf51220	-0.11966348
52	0x3d959442	0.073036686
53	0x3e3b0dc4	0.1826697
54	0xbd495cbf	-0.049160715
55	0xbb73c7b4	-0.003719789
56	0xbe067089	-0.13128866
57	0xbdf13c69	-0.117791004
58	0x3d1084b5	0.03528281
59	0xbd0a0cbc	-0.03370355
60	0xbe1233aa	-0.14277521
61	0x3c53fac4	0.012938205
62	0x3e0c10ff	0.13678358
63	0xbd5bbcc5	-0.05364682
64	0x3e72d411	0.2371371
65	0x3d809ff4	0.06280509
66	0xbd0ae2ec	-0.033907816
67	0xbd51a58d	-0.051183272
68	0xbe64581c	-0.22299236
69	0xbd37adf1	-0.044843618
70	0xbdd2769a	-0.10276528
71	0xbd959b9c	-0.07305071
72	0x3b027dc8	0.0019911397
73	0xbe186f39	-0.14886178
74	0xbdb61498	-0.08890647
75	0xbd9ace88	-0.07558924
76	0x3e06382c	0.13107365
77	0xbe50cf2d	-0.20391531
78	0x3d9e5213	0.07730498
79	0x3e242d31	0.16032864
80	0xbda58d36	-0.080835745
81	0x3d6879b0	0.056756675
82	0x3e01bc9a	0.12669602
83	0xbd84f76a	-0.06492503
84	0xbe1290d3	-0.14313059
85	0x3de6c01a	0.11267109
86	0xbcaa7fb7	-0.020812852
87	0x3ca1a502	0.019732002
88	0x3d55a1b6	0.052156173
89	0xbb826a1f	-0.003979936
90	0x3d7d0793	0.0617748
91	0xbd403c5a	-0.046932556
92	0xbdc2ce2f	-0.09511983
93	0xbda0454b	-0.078257166
94	0xbc0c60fc	-0.008568045
95	0x3df7086b	0.120621525
96	0x3cff1488	0.03113772
97	0xbe000838	-0.12503135
98	0xbe14cdc4	-0.14531618
99	0x3e0f668e	0.14003965
100	0xba1b7ada	-0.0005931087
101	0xbe39f0fb	-0.18158333
102	0x3dbf7c5e	0.09349893
103	0x3e003918	0.1252178
104	0xbe310dc8	-0.17290413
105	0xbe1f3bfa	-0.15550223
106	0xbd8c9373	-0.06864061
107	0x3d0968e3	0.033547293
108	0xbe0fb4c7	-0.14033805
109	0xbd737599	-0.05943832
110	0x3dab7265	0.083714284
111	0xbc80818a	-0.015686769
112	0xbdc19c0f	-0.09453594
113	0xbe2591a4	-0.16168839
114	0x3ce3d2c5	0.027810464
115	0x3def1328	0.11673576
116	0x3dbd69e2	0.09248711
117	0x3dfb7c85	0.122796096
118	0x3df746e8	0.12074071
119	0xbd25bc48	-0.040462762
120	0x3cb83197	0.022484584
121	0x3d8bda8f	0.06828796
122	0xbdb450e0	-0.08804488
123	0xbe606c8f	-0.21916412
124	0xbc90b17d	-0.017662758
125	0xbd901eaf	-0.070371024
126	0x3db96699	0.09052772
127	0xbe013fac	-0.12621945

hidden_layers.1.weight f4 [64, 128]
0	0xbe841e46	-0.25804347
1	0xbc3d8da3	-0.011569413
2	0x3d35c29a	0.04437504
3	0x3d7235c0	0.05913329
4	0x3d4535ac	0.04814689
5	0x3d9daffc	0.07699582
6	0x3e5208ca	0.20511165
7	0x3e41c224	0.18921715
8	0x3dd1c06d	0.102417804
9	0x3e1339b0	0.14377475
10	0x3d8da84f	0.06916868
11	0x3dd0da3c	0.10197875
12	0xbe25e6d4	-0.16201335
13	0xbea5470c	-0.32280767
14	0x3d0c898b	0.03431086
15	0xbe014df0	-0.12627387
16	0xbd483fe9	-0.048889074
17	0xbe125ea3	-0.14293914
18	0xbc4cbfea	-0.012496928
19	0xbe4a0709	-0.19729246
20	0x3d902c34	0.07039681
21	0xbc58b751	-0.0132273
22	0x3bc2be3f	0.0059430893
23	0xbd3328fd	-0.04374026
24	0x3b67fedd	0.0035399713
25	0xbdaf95d2	-0.08573498
26	0xbc980afb	-0.018559923
27	0xbe1f3672	-0.15548113
28	0xbe0bd294	-0.13654548
29	0xbe10b357	-0.14130913
30	0xbd17ac89	-0.037029777
31	0x3d6c0743	0.057624113
32	0xbcc7c304	-0.024384983
33	0xbd8b26d2	-0.06794514
34	0xbddaf417	-0.10691088
35	0xbdca3b16	-0.09874551
36	0xbd0d2af8	-0.034464806
37	0x3d249042	0.040176637
38	0xbddbb829	-0.10728485
39	0x3ae16144	0.0017195125
40	0xbd5626d6	-0.05228313
41	0x3af4cc19	0.0018676548
42	0xbe1663e4	-0.14686543
43	0x3d86117f	0.06546306
44	0xbdf920c7	-0.12164455
45	0x3bfd30e4	0.0077267755
46	0xbdbb0254	-0.091313034
47	0xbdcadbec	-0.09905228
48	0x3b87e61f	0.0041473056
49	0xbe1564b3	-0.14589195
50	0xbd973356	-0.073828384
51	0xbd0277c1	-0.031852487
52	0xbce80fb3	-0.028327798
53	0xbdef1b97	-0.11675184
54	0xbd692d10	-0.05692774
55	0x3d5cc6b4	0.053900436
56	0x3d2b7764	0.041861907
57	0xbdd3c65e	-0.1034057
58	0x3ddfcfce	0.109283075
59	0xbbcfd0ca	-0.0063420283
60	0x3cec473e	0.028842565
61	0x3c91d61b	0.017802289
62	0x3dac338f	0.084082715
63	0xbdb40c40	-0.08791399
64	0x3dc6c985	0.097064056
65	0x3e13562a	0.14388338
66	0xbcc89ef0	-0.02448985
67	0xbd3417a6	-0.043967865
68	0xbd856ec6	-0.06515269
69	0x3d64d639	0.05586836
70	0x3d556ea5	0.052107472
71	0x3c614505	0.013749366
72	0x3d8cabdf	0.06868719
73	0xbc81a3b5	-0.015825132
74	0xbdee4255	-0.116337456
75	0xbde5513e	-0.11197136
76	0xbd5e66e1	-0.05429733
77	0xbd9d3ee1	-0.07678009
78	0x3db0eb3c	0.086386174
79	0xbd4944cf	-0.049137887
80	0x3cfbd2b0	0.030740112
81	0xbca595b5	-0.020212987
82	0x3e0ce356	0.13758597
83	0xba8aa458	-0.0010577543
84	0xbe121e50	-0.14269376
85	0xbde0d472	-0.10978021
86	0x3ce8b86d	0.028408254
87	0x3d8c48a3	0.06849792
88	0x3c9108d3	0.017704403
89	0xbb851a1b	-0.00406195
90	0xbe4f9c5c	-0.2027449
91	0xbd15deb2	-0.036589332
92	0xbd5084a7	-0.050907757
93	0xbe73e6b8	-0.23818481
94	0x3cbf2fa0	0.023338139
95	0x3bf62b87	0.007512513
96	0x3d25be88	0.040464908
97	0xbc4e0c7f	-0.0125762215
98	0xbdad32fe	-0.084569916
99	0xbd263d4a	-0.040585794
100	0x3c661f3f	0.014045536
101	0xbd9d7012	-0.07687391
102	0xbcd4aeea	-0.025962312
103	0x3df18f78	0.117949426
104	0xbe9c7b51	-0.30562833
105	0x3c2c235f	0.01050648
106	0xbd9048d2	-0.07045139
107	0xbcb26ceb	-0.021780452
108	0x3d9dfc1c	0.07714102
109	0xbe0835f9	-0.13301839
110	0x3d977146	0.07394652
111	0xbdc94590	-0.09827721
112	0x3b84eb28	0.004056353
113	0x3e0f2a6c	0.13981026
114	0xbe69ddbf	-0.22838496
115	0x3e23568b	0.15950982
116	0x3d8f6dff	0.07003402
117	0x3e86639c	0.2624787
118	0xbdaaf4e1	-0.08347488
119	0xbcea0c14	-0.028570212
120	0x3e1ee5e1	0.1551738
121	0xbdebc6dc	-0.11512539
122	0x3d9e00cf	0.07714998
123	0xbd4f55d6	-0.05061897
124	0xbd8f6704	-0.070020705
125	0xbd274420	-0.040836453
126	0x3e1f643c	0.1556558
127	0x3d1011b3	0.03517313
128	0x3dc99e52	0.0984465
129	0xbcf427a0	-0.02980405
130	0xbd1660f6	-0.036713563
131	0xbd7e90a5	-0.062149663
132	0xbdcd33fe	-0.10019682
133	0xbd53964b	-0.051657002
134	0xbc6beded	-0.014399988
135	0xbdacdf97	-0.08441084
136	0x3d463ee7	0.048399832
137	0xbda33021	-0.07968164
138	0xbd867a75	-0.065663256
139	0xbc670dd9	-0.014102423
140	0xbde82fbb	-0.11337229
141	0x3b856017	0.0040702927
142	0xbd929b15	-0.07158486
143	0xbddc4672	-0.10755624
144	0xbcfdfb3b	-0.031003585
145	0x3d33ceeb	0.043898504
146	0xb92e867c	-0.00016644032
147	0x3d58892e	0.0528652
148	0xbcb940e9	-0.02261396
149	0xbd7a0592	-0.06104047
150	0x3d3ead97	0.046552267
151	0xbd95375a	-0.07285948
152	0xbdff4afe	-0.124654755
153	0x3cfb8b48	0.030706063
154	0x3b4139d5	0.0029483933
155	0xbd91ca23	-0.07118633
156	0xbbdd9d3a	-0.0067631276
157	0x3d3ae624	0.045629635
158	0x3948342b	0.0001909292
159	0xbd3d5405	-0.046222705
160	0xbd7b5822	-0.061363347
161	0xbdd9caf6	-0.10634415
162	0x3d408edc	0.04701124
163	0xbd8f0ba8	-0.06984645
164	0x3d6fe75f	0.058570262
165	0xbccdbefd	-0.025115484
166	0x3c9bd379	0.019021736
167	0xbdb29138	-0.087191045
168	0xbdacbc9c	-0.08434412
169	0x3ce36ebc	0.027762763
170	0xbd8998a8	-0.0671857
171	0xbd685b1f	-0.056727525
172	0xbc316ab7	-0.010828665
173	0xbdbd1f53	-0.0923449
174	0xbd6db4f7	-0.05803391
175	0x3d392022	0.04519666
176	0xbd9eaa09	-0.077472754
177	0xbdb3eaf2	-0.08785047
178	0x3d409890	0.047020495
179	0xbbdf440a	-0.006813531
180	0x3d19c300	0.037539482
181	0xbe1190ca	-0.14215389
182	0x3cd0d996	0.025494378
183	0xbd21bc00	-0.03948593
184	0xbdc261b6	-0.09491293
185	0xbcedf948	-0.02904953
186	0xbdb9f781	-0.09080411
187	0x3cd266ce	0.025683787
188	0xbd8bf001	-0.068328865
189	0xbdc96644	-0.09833959
190	0x3d149379	0.036273453
191	0x3d014436	0.03155919
192	0x3d638e3b	0.055555563
193	0x3d83d4b6	0.06437056
194	0x3d8bd6cd	0.068280794
195	0x3db54dd8	0.08852738
196	0x3d6933bc	0.056934103
197	0x3d21d105	0.039505977
198	0x3cdda5c1	0.027056577
199	0xbd52a88c	-0.05143027
200	0xbce40ff9	-0.027839648
201	0xbd014e82	-0.03156901
202	0x3c799a93	0.015234607
203	0xbd083b6f	-0.033259805
204	0xbc8d8f8e	-0.017280366
205	0xbdb7f856	-0.08982913
206	0xbd6dcfb3	-0.058059406
207	0x3d26186b	0.04055063
208	0xbbd79530	-0.006579064
209	0xbca12072	-0.019668791
210	0xbdb41b4d	-0.0879427
211	0xbd6a3246	-0.05717685
212	0xbc0cd2a4	-0.0085951425
213	0xbcf22d9e	-0.029562768
214	0x3c0593db	0.008152927
215	0xbd8ce1b2	-0.068789855
216	0x3d642cdf	0.055706855
217	0xbd067f14	-0.032836035
218	0x3cd79c2a	0.026319582
219	0xbd647bb9	-0.055782054
220	0xbc2ab38f	-0.010418787
221	0xbdc18c9c	-0.09450647
222	0xbe040ca4	-0.12895447
223	0xbde8d2f6	-0.113683626
224	0x3d0254dc	0.03181921
225	0x3c899583	0.016794926
226	0x3c4a52a8	0.012348808
227	0xbd024387	-0.03180268
228	0x3d2430a3	0.040085446
229	0x3d601d10	0.054715216
230	0xbd11e8b6	-0.03562232
231	0x3d212097	0.03933772
232	0xbc56cab6	-0.0131098535
233	0xbc02fdd4	-0.007995088
234	0xbc356d18	-0.011073373
235	0x3cc1ca17	0.023655934
236	0xbd05bdea	-0.03265182
237	0xbd8f49cf	-0.069965
238	0xbc9dfb6e	-0.01928493
239	0xbd00774d	-0.031363774
240	0xbd0acf65	-0.033889193
241	0x3d42df9f	0.047576543
242	0xbcfb85c2	-0.03070343
243	0xbd3b1dc5	-0.045682687
244	0xbd6ebd50	-0.05828601
245	0x3d869919	0.0657217
246	0x3d174657	0.036932316
247	0xbdc796f9	-0.097455926
248	0xbb0a82d0	-0.00211351
249	0xbd17b19f	-0.037034627
250	0x3abe94a3	0.0014540147
251	0xbde5913f	-0.11209344
252	0xbd6bd168	-0.057572752
253	0x3b001055	0.0019540985
254	0x3d29919c	0.04139863
255	0xbc7582e2	-0.014984818

hidden_layers.1.bias f4 [64]
0	0xbd3fccde	-0.046826236
1	0xbdc2c439	-0.09510083
2	0x3d3d3429	0.046192322
3	0xbd7e19f7	-0.06203648
4	0x3e071499	0.13191451
5	0xbdf301ad	-0.11865554
6	0xbd8bb7d6	-0.06822173
7	0x3d9cb3cc	0.07651481
8	0xbd8af667	-0.06785279
9	0xbe2b9b3f	-0.1675844
10	0x3d33936c	0.043841764
11	0xbdef11f6	-0.11673348
12	0x3dd79551	0.10526527
13	0xbdbee103	-0.09320261
14	0xbdda7c67	-0.10668259
15	0x3d7632c9	0.060107026
16	0x3e290dbb	0.16509144
17	0xbd2081f5	-0.039186437
18	0xbe0db67b	-0.13839142
19	0xbdb6a367	-0.08917885
20	0x3dc475b5	0.09592763
21	0x3cecb029	0.028892593
22	0xbd377ad9	-0.04479489
23	0x3dd1fe84	0.10253623
24	0xbd0957c4	-0.033530965
25	0x3e22da52	0.15903595
26	0x3cf01eee	0.029311623
27	0xbcfde365	-0.03099222
28	0xbdbb65b9	-0.091502614
29	0x3ddb5a88	0.10710627
30	0x3de664a7	0.11249667
31	0x3e31381e	0.17306563
32	0xbe0bb142	-0.13641837
33	0x3d889c9c	0.06670496
34	0x3ccdea70	0.025136203
35	0xbda8361c	-0.082134455
36	0x3ceb6308	0.028733745
37	0x3d11722c	0.035509273
38	0x3d02a239	0.03189299
39	0x3d8ea274	0.06964579
40	0xbd1458b8	-0.03621742
41	0x3e90d8cc	0.28290403
42	0xbce9797a	-0.028500307
43	0xbd82eafb	-0.06392475
44	0x3e1646b0	0.14675403
45	0x3da69198	0.081332386
46	0xbdbe6fdb	-0.092986785
47	0xbe04e33e	-0.12977311
48	0xbd9ece4c	-0.07754192
49	0x3dc9fe87	0.09863
50	0xbd27c4cd	-0.04095917
51	0x3de3292b	0.110918365
52	0xbda79441	-0.08182574
53	0x3c14ee3a	0.009090001
54	0x3d26ead3	0.04075129
55	0x3c815131	0.015785785
56	0xbb4a1927	-0.0030837746
57	0x3d0b2552	0.03397114
58	0x3df9422e	0.12170826
59	0x3d084485	0.03326847
60	0x3d3caafa	0.046061493
61	0xbdf10e32	-0.11770286
62	0xbdc18061	-0.094483145
63	0xbdcc9ce6	-0.099908635

hidden_layers.2.weight f4 [32, 64]
0	0x3d28551b	0.041096788
1	0x3d8a7bf3	0.06761923
2	0x3de64221	0.11243082
3	0x3d8837a4	0.066512376
4	0xbdd2726f	-0.10275733
5	0xbe061d3c	-0.1309709
6	0x3dcd3ca4	0.10021332
7	0xbd84680e	-0.06465159
8	0xbc3b01f6	-0.011414042
9	0xbe24a249	-0.16077532
10	0x3d486634	0.048925593
11	0x3e121715	0.14266618
12	0xbdf03bc3	-0.11730149
13	0x3dd25289	0.102696486
14	0x3dc05d7c	0.09392831
15	0xbc3c8111	-0.011505381
16	0xbe02db93	-0.12779073
17	0xbdc177f5	-0.09446708
18	0x3cb08d52	0.021551762
19	0x3b7d51d8	0.003865352
20	0xbe0f1ecd	-0.13976593
21	0x3e164d1e	0.14677855
22	0x3d85ce66	0.06533508
23	0xbd77bcf1	-0.060482923
24	0xbe00241c	-0.12513775
25	0xbe2d2e2f	-0.16912149
26	0x3d8fbd23	0.07018497
27	0x3c5888ce	0.0132162105
28	0xbdc30c68	-0.09523851
29	0xbdb194c4	-0.08670953
30	0xbdf43e5e	-0.11925958
31	0x3d6d15ba	0.05788205
32	0x3d23a624	0.039953366
33	0x3c6e78d4	0.014555175
34	0x3dd11c0a	0.10210426
35	0xbd62610e	-0.05526834
36	0xbd7e2bed	-0.06205361
37	0x3cfc5e06	0.030806553
38	0xbe1267f7	-0.14297472
39	0x3de09878	0.10966581
40	0x3d89158e	0.06693564
41	0x3cad1261	0.021126928
42	0xbdf3df29	-0.11907799
43	0x3dbb22d5	0.09137503
44	0xbe13689b	-0.14395373
45	0xbce86ad9	-0.028371261
46	0x3ce8f521	0.0284372
47	0xbd36fe1f	-0.044675943
48	0x3dbc4892	0.09193529
49	0xbc5fcf2b	-0.013660233
50	0xbe0268df	-0.12735318
51	0xbdc851ff	-0.097812645
52	0xbe2aa0d5	-0.16662915
53	0x3c0c346f	0.008557423
54	0xbc2c30a8	-0.010509647
55	0xbb46eb37	-0.0030352601
56	0xbde7592c	-0.11296305
57	0x3d4f4881	0.050606254
58	0x3d35b84e	0.04436522
59	0x3e0ebc0b	0.1393892
60	0xbd75dabd	-0.06002306
61	0x3d85c4bd	0.065316655
62	0xbcd5dfc6	-0.02610768
63	0xbc71d38e	-0.014759911
64	0x3c5f7dcd	0.013640833
65	0x3d92ee57	0.07174366
66	0x3b162136	0.002290798
67	0xbd3d4ee0	-0.0462178
68	0x3d05004c	0.032470986
69	0x3b1bdf7a	0.0023784325
70	0xbd42f412	-0.047596045
71	0xbcb979c4	-0.02264107
72	0x3d87922d	0.06619678
73	0x3d9ddc73	0.07708063
74	0xbd1e2467	-0.038608935
75	0x3db69ae0	0.08916259
76	0x3de71981	0.11284161
77	0x3d8a2cc7	0.06746822
78	0x3d5c6d61	0.05381525
79	0xbde97058	-0.11398381
80	0xbdbc4d72	-0.09194459
81	0xbd743c42	-0.05962778
82	0x3df93982	0.12169172
83	0x3c6433f5	0.013928403
84	0xbded35a8	-0.115825
85	0xbdf1d408	-0.1180802
86	0xbdedb46d	-0.11606679
87	0xbdc4638e	-0.09589301
88	0xbda94c17	-0.08266466
89	0xbd92e281	-0.071721084
90	0x3da250d5	0.07925574
91	0xbd6a9e71	-0.057280008
92	0x3dde292d	0.108476974
93	0xbd1458fe	-0.036217682
94	0xbddf6e7d	-0.10909746
95	0xbd622056	-0.05520662
96	0xbd832bba	-0.064048246
97	0xbdc1017e	-0.09424113
98	0xbdffdbd3	-0.124931
99	0xbad653c4	-0.0016351868
100	0xbddb6850	-0.107132554
101	0xbd36ac74	-0.044598058
102	0xbd1ef83d	-0.038810957
103	0xbda11d21	-0.07866884
104	0xbc3db257	-0.011578164
105	0xbdd2a66c	-0.10285649
106	0xbd46a234	-0.048494533
107	0x3dd225af	0.10261094
108	0x3ddb0405	0.10694126
109	0x3b3904ca	0.0028231614
110	0x3cb0f5f8	0.021601662
111	0x3dd3243b	0.10309645
112	0x3de8d23b	0.11368223
113	0xbd8c2a3c	-0.06843993
114	0x3c5d0274	0.013489354
115	0xbd374a07	-0.044748332
116	0xbdbc1bbf	-0.0918498
117	0x3dd24a31	0.10268057
118	0x3dba86c1	0.091077335
119	0xba97c98d	-0.0011580453
120	0x3dc2ce08	0.095119536
121	0x3cd998c2	0.026562098
122	0x3d96cc52	0.0736319
123	0x3d36bd61	0.0446142
124	0x3cf52638	0.02992545
125	0x3d23ecc3	0.040020715
126	0x3d14ca95	0.03632601
127	0x3dd4bbe0	0.10387397
128	0xbde0d90f	-0.10978901
129	0xbd9d6a5b	-0.07686301
130	0xbd3b3e0a	-0.045713462
131	0x3e0511a2	0.12995008
132	0x3d8da5a6	0.069163606
133	0x3d180ae2	0.037119754
134	0xbd540cec	-0.051770136
135	0x3d097e38	0.033567637
136	0x3c26b9d2	0.010176139
137	0xbe6cb15b	-0.2311453
138	0x3dd16344	0.102240115
139	0x3e0aa688	0.13540089
140	0xbe4a0403	-0.19728093
141	0xbcadaeaf	-0.02120146
142	0x3dbc5015	0.09194962
143	0xbd988783	-0.07447722
144	0xbe44c4c9	-0.19215693
145	0xbd38ba70	-0.045099676
146	0x3d42007b	0.04736374
147	0xbe03f915	-0.12887986
148	0xbc5ff624	-0.013669524
149	0xbd21fe31	-0.039549056
150	0x3cd7c785	0.026340256
151	0xbe91c3f6	-0.2846982
152	0x3d5238ce	0.051323704
153	0xbdf40129	-0.11914284
154	0x3db5503b	0.08853193
155	0x3dbe6954	0.092974335
156	0xbde30818	-0.11085528
157	0x3c9005a3	0.017580813
158	0xbcb01e4a	-0.021498818
159	0xbd2ca22f	-0.042146858
160	0xbd4d59e9	-0.050134573
161	0x3df7a51a	0.120920375
162	0xbcfee021	-0.031112732
163	0xbd8ac026	-0.06774931
164	0xbd5f5d6d	-0.054532457
165	0x3d515d86	0.05111458
166	0x3dee4154	0.11633554
167	0x3db84aa9	0.08998615
168	0x3dbc85e3	0.09205224
169	0xbe51ade2	-0.20476487
170	0xbd85e34c	-0.06537494
171	0xbdd4f668	-0.10398561
172	0x3d52c96d	0.051461626
173	0xbd988dd3	-0.07448926
174	0xbd9b8214	-0.0759317
175	0xbdabf8ba	-0.0839705
176	0xbbdba2f5	-0.0067027756
177	0xbc1fbdf5	-0.009749879
178	0x3dd0aafd	0.101888634
179	0x3b0ee039	0.0021801128
180	0xbd1d2d2f	-0.03837317
181	0x3dd959d4	0.106128365
182	0xbd9d5c20	-0.07683587
183	0x3e27c842	0.16384986
184	0x3c1e81c9	0.009674498
185	0x3df208a7	0.118180566
186	0x3d9bb088	0.0760203
187	0xbd34d400	-0.04414749
188	0xbcfb67fa	-0.030689228
189	0xbd6ff2c0	-0.058581114
190	0x3bc3126a	0.005953123
191	0xbd84118c	-0.06448659
192	0xbd5dddb3	-0.054166507
193	0x3ca17558	0.019709274
194	0xbbdf5e2e	-0.006816647
195	0x3d16e450	0.03683883
196	0x3e1f22c3	0.15540604
197	0x3e0b644d	0.1361248
198	0xbd72de48	-0.059294015
199	0x3e2d3929	0.16916336
200	0x3ce209b9	0.027592527
201	0xbbf9bceb	-0.0076213977
202	0xbe04a810	-0.12954736
203	0xbd0380ef	-0.032105383
204	0x3de9d094	0.11416736
205	0xbd06f540	-0.032948732
206	0x3e70f5a1	0.235312
207	0x3d0764fc	0.03305529
208	0x3df74b87	0.120749526
209	0x3dbc0dad	0.09182296
210	0xbdf7780e	-0.120834455
211	0x3dcde316	0.10053079
212	0x3e83d288	0.2574656
213	0x3dbca6c9	0.09211499
214	0xbd4e013f	-0.050294157
215	0x3d9f9482	0.077919975
216	0xbd9c21a3	-0.07623603
217	0x3dacc769	0.08436472
218	0x3ddf273a	0.10896154
219	0x3df5744e	0.11985074
220	0x3e0c9f14	0.13732558
221	0x3da29665	0.07938842
222	0xbce85326	-0.02835996
223	0x3e5ed3ce	0.21760485
224	0xbdabc2af	-0.08386742
225	0x3d1b17ba	0.037864424
226	0x3d5e4de6	0.05427351
227	0xbce86e43	-0.02837289
228	0xbdf17f6c	-0.11791882
229	0xbc9a876c	-0.018863402
230	0xbb829e41	-0.0039861505
231	0x3da59a38	0.080860555
232	0x3c3815da	0.011235679
233	0x3cd46c72	0.025930617
234	0xbcd595a6	-0.026072334
235	0xbdb15768	-0.086592495
236	0x3e816d2d	0.25278607
237	0xbe0c1f6f	-0.13683866
238	0x3ccfb76f	0.025356023
239	0x3c928f3c	0.017890565
240	0xbd745da5	-0.05965962
241	0x3c0d1dd5	0.00861307
242	0x3e0526c7	0.13003074
243	0x3e17cabe	0.14823434
244	0x3d62460a	0.055242576
245	0x3ccf27fc	0.02528762
246	0x3dff955e	0.124796614
247	0x3e47be00	0.19506073
248	0xbe2cd7c0	-0.16879177
249	0x3e5f7e10	0.21825433
250	0x3df62d64	0.12020376
251	0xbde4f774	-0.111800104
252	0xbd052123	-0.032502305
253	0x3c694c10	0.014239326
254	0xbe0e5504	-0.13899618
255	0x3e01a46a	0.12660375

hidden_layers.2.bias f4 [32]
0	0xbcff8bd5	-0.031194607
1	0xbda15b79	-0.07878775
2	0xbdc3447c	-0.09534547
3	0x3d361b95	0.044459898
4	0x3c851c0a	0.016248722
5	0xbdf402eb	-0.11914619
6	0x3ee4e608	0.4470675
7	0x3da34743	0.079725765
8	0x3da5f46b	0.0810326
9	0x3db9fb9e	0.09081195
10	0xbe1aabb4	-0.15104562
11	0xbd788e7d	-0.060682762
12	0x3d6820b3	0.05667181
13	0x3e9ebab0	0.31001806
14	0x3e907173	0.28211555
15	0xbe78013a	-0.24219218
16	0xbbc1a781	-0.0059098606
17	0x3de02c03	0.109458946
18	0x3e1d5c72	0.15367296
19	0xbe864919	-0.26227644
20	0x3e575de5	0.21031912
21	0xbd955c90	-0.072930455
22	0x3d5c8926	0.053841732
23	0xbd9ab68c	-0.07554349
24	0x3e8f496b	0.279857
25	0xbda24173	-0.0792264
26	0x3cac678e	0.021045472
27	0xbd915e94	-0.070981175
28	0xbda97085	-0.082734145
29	0x3e389881	0.18026926
30	0x3e59bf8a	0.21264473
31	0x3e09acea	0.13444868

output.weight f4 [4, 32]
0	0x3dc0f64c	0.094219774
1	0xbd959dff	-0.07305526
2	0xbdd724c7	-0.105050616
3	0x3db8e905	0.0902882
4	0xbe958183	-0.29200372
5	0x3d391d76	0.04519411
6	0x3e74b955	0.23898824
7	0x3e5a14fa	0.21297064
8	0x3d19d613	0.037557673
9	0x3e57fe38	0.2109307
10	0xbcb0bf2d	-0.021575535
11	0xbbd6de25	-0.0065572434
12	0xbe5ac835	-0.21365435
13	0x3def3f6d	0.116820194
14	0x3e0cdd2d	0.13756247
15	0xbd06d7e8	-0.032920748
16	0x3e11d0e6	0.14239845
17	0xbe599a3a	-0.21250239
18	0x3df41631	0.11918295
19	0xbd922dd0	-0.07137644
20	0x3e37ca6e	0.17948315
21	0x3d93ff65	0.07226447
22	0x3c0853b5	0.008320739
23	0x3d73f23a	0.059557177
24	0x3e07bbdc	0.13255256
25	0xbe1d2f95	-0.15350182
26	0x3de74704	0.11292842
27	0x3dbf8a8e	0.09352599
28	0xbde1967c	-0.11015031
29	0x3ea9ccfc	0.33164203
30	0x3e8fe5de	0.28105062
31	0x3d55c93c	0.052193865
32	0x3e216be3	0.15763812
33	0x3d329270	0.043596685
34	0xbe09e6bd	-0.13466926
35	0x3e8c0e95	0.27354875
36	0xbdfb4cbb	-0.122704946
37	0x3e357753	0.177213
38	0x3db24adc	0.087056845
39	0x3d9865e9	0.07441313
40	0x3e4f92d0	0.20270848
41	0x3df4a9ab	0.11946424
42	0xbe58c815	-0.21170075
43	0x3e0cb67f	0.13741492
44	0xbd3fb2fc	-0.046801552
45	0x3e3a6e68	0.18206179
46	0x3e000b99	0.12504424
47	0x3d8e3bdb	0.0694501
48	0x3e12c002	0.14331058
49	0x3dee46ea	0.116346195
50	0x3e0c8c89	0.13725485
51	0x3d95cde2	0.0731466
52	0xbbd017d8	-0.0063504986
53	0x3c529042	0.012851777
54	0x3dd20dd8	0.10256547
55	0xbcbf6090	-0.023361474
56	0x3e3f003b	0.18652432
57	0xbd24f560	-0.04027307
58	0x3e1f946b	0.1558396
59	0xbbf3ec72	-0.007443958
60	0x3df591b8	0.11990684
61	0x3e7f50ec	0.24933213
62	0x3e1120e5	0.14172705
63	0x3dcb1f09	0.09918029
64	0x3e0e8841	0.13919164
65	0xbdeeb5fb	-0.11655804
66	0xbd9d1e4d	-0.07671795
67	0x3d1c70ac	0.03819339
68	0xbdde495c	-0.10853836
69	0xbdf8a345	-0.12140516
70	0x3e683373	0.22675876
71	0xbc966374	-0.01835797
72	0x3df368a0	0.1188519
73	0xbdeb1c68	-0.114800274
74	0xbde23ba7	-0.11046534
75	0x388a1cf6	6.585747e-05
76	0xbe7ac766	-0.24490127
77	0x3e3e8359	0.18604793
78	0x3d82a550	0.06379187
79	0xbe9aa8b5	-0.30206838
80	0xbe0c97c6	-0.13729772
81	0xbbe60649	-0.007019792
82	0xbd79c9e2	-0.060983546
83	0x3e157e8b	0.14599054
84	0x3e8aac3a	0.27084523
85	0x3dffc022	0.12487818
86	0x3e82d650	0.25554132
87	0x3dc83f2d	0.09777675
88	0x3e637324	0.22211891
89	0x3cead756	0.028667133
90	0xbe14c324	-0.14527565
91	0xbd6948be	-0.056954138
92	0xbdfdd888	-0.12394816
93	0x3dd73673	0.10508432
94	0x3e1e33e1	0.15449478
95	0x3dc4023b	0.09570738
96	0xbe0ce72c	-0.1376006
97	0x3d2826cd	0.04105263
98	0xbd523c86	-0.05132725
99	0xbb273949	-0.0025516322
100	0xbdd0e0b0	-0.10199106
101	0xbe01a368	-0.12659991
102	0x3e6f5b12	0.23374584
103	0x3d979a1c	0.07402441
104	0x3db3578b	0.08756932
105	0xbd92b20a	-0.071628645
106	0xbd304e13	-0.043043207
107	0xbd9869f9	-0.07442088
108	0x3e048903	0.12942891
109	0x3d6d4f0e	0.05793672
110	0x3e85cea6	0.26134223
111	0xbd9c3111	-0.07626546
112	0xbdf6cf3d	-0.12051246
113	0xbe764ca0	-0.24052668
114	0x3c134a30	0.008989856
115	0xbda5682b	-0.08076509
116	0xbcbeaf35	-0.023276905
117	0xbd3593bc	-0.044330344
118	0x3d94dfc4	0.072692424
119	0x3b9a5db4	0.0047108773
120	0x3e8efa9b	0.27925572
121	0xbe4b19a4	-0.19834
122	0xbe10e8a1	-0.14151241
123	0xbdedbd9b	-0.1160843
124	0xbde26a5a	-0.11055441
125	0x3e2cd204	0.1687699
126	0x3e82f46f	0.25577113
127	0x3eb5c213	0.3549963

output.bias f4 [4]
0	0x3e8f26f8	0.27959418
1	0x3e8ed6ef	0.27898356
2	0x3e141cfa	0.14464179
3	0x3ea32af1	0.318687
