dueling-dqn-checkpoint.pth (torch_old, 214389 bytes, 11 tensors)

hidden_layers.0.weight f4 [256, 37]
00000000: bb71 29be 0842 323d 09ff 82bd 5668 93bd
00000010: 032c 83be b794 2c3e 2cb4 2fbe 7bda 353e
00000020: 3ad4 3dbe 8f3a e2bd b993 a7bd 67e7 c7bb
00000030: 90ea 4fbe 6b42 06be b940 4fbe e8be bc3c
00000040: b789 963d 618f f73c db0f 43bd 7265 48be
00000050: f223 24be 6abd 4f3e f4a7 12bd 3b28 813e
00000060: d158 713d 9cf7 74bd cab3 9a3e 159c 7fbe
00000070: 8a97 61be fb0a bcbd b3a2 30be 8509 573e
00000080: bafa 6bbe 725c 393e a60d 68be 9a20 eebd
00000090: c764 893a 8046 8f3e 6a23 50be b8fe 90be
000000a0: 33b2 25be 7b18 15bf 1be1 d53d 4baa b7be
000000b0: 5b2f f6be 0258 4fbe b252 44be a16e 04bd
000000c0: 1e87 883d 899c 3b3d 85ed 283d 69c8 0c3e
000000d0: 8d89 843d aa44 51bd 5f45 90bd 0089 68be
000000e0: 7e54 bbbe 1d98 40be d6e2 8dbd 24a2 1cbe
000000f0: 2f4e 083c 96f4 c9bb f16d f9bd f0e1 7e3e
00000100: 0f3e 26bb ef24 bebe 597f 75be 0008 dfbd
00000110: 7630 ac3e a69e ed3d 5813 1bbe 723b 113d
00000120: baa6 52bd eab4 183d da0d 463d 0daa de3d
00000130: 34e1 513e a4a8 28be 1d1d 1cbd 6328 c7be
00000140: 9e4e f53c b2a7 a63e 6a1c a9bd 3ec7 29bf
00000150: 91ef 873c 366d 733d a1c3 1bbe 1e93 8bbc
00000160: 0279 5a3d 19e4 2bbe 17a2 043e 34a9 103e
00000170: 65ca 153d 0563 49bd cef6 63be 200b b5ba
00000180: c7b3 b13d dd69 9f3c 1d46 d8bc 61fc a9be
00000190: 6f1c 613e e958 453e 6235 443d 03dd b8be
000001a0: 3bf2 8ebe 568d 1c3e 71eb b13c c0b5 b0be
000001b0: 503e db3b 7043 2abd e515 67bb bb35 2f3e
000001c0: 6e32 0abe 6378 143e 8487 4e3e c17b 4fbe
000001d0: 7314 28bc c2cf 043d 673f af3d 5568 14bd
000001e0: 8d56 41be d66b 7f3d 8b57 75bd ab07 b53d
000001f0: 8e65 683c 3175 17be bd6e f63c e211 973d
00000200: 2cd4 18be 6973 5bbe abd6 0ebe 3f36 d43d
00000210: 8ffb a6bc 75c3 05bd fc51 4d3e f046 d9bc
00000220: 090d 05bb 7101 ab3d e68e a13d e5b3 903d
00000230: a6f4 653e 0051 953e ab28 4e3d 8c00 bdbd
00000240: 6881 95be 38a5 88bf c7b9 e83d b4c2 513c
00000250: f27e 733d a490 70be 4ac1 9fbd f952 49be
00000260: 9b68 12be a4f2 6f3e fb98 9f3e 4b3e d73c
00000270: 5cb5 35be 8d3c 88bf ba74 da3c 3719 db3c
00000280: b802 393c 387f 8bbc da68 b2bd 8421 22be
00000290: 05d5 a5bd 1bf8 103e 4593 c0bc 0618 163e
000002a0: c67e dabd 0005 003d 747a 1e3e 850b 903d
000002b0: 77f7 383e 6a71 2b3e 5ab9 bcbe 68fe 553e
000002c0: 3c89 ba3c 8b87 e3be 1b0a 453d a94a a03c
000002d0: bd42 2e3e 8af4 9d3d d450 f53d d9f5 823c
000002e0: f9e6 523c 4ee2 843d 79fe 53be 03f1 0cbd
000002f0: 47b0 88be cae1 8cbd 44c5 843e 8e5a 53bd
00000300: 18c0 06bf da97 97be d9d2 81bf 60c4 b7bd
00000310: f9a8 32be 10e7 613d b4e5 43bd fb9a 61bd
00000320: c981 993d df7f 633a 5cf4 80be f0c5 1abe
00000330: bb1f 6bbe 1a5b 043e ee9d 38bd 7e29 af3d
00000340: 7472 973d 481b 0abe 56c9 c13d bcab 80be
00000350: d6cd dfbd f25c 13be 1dbd 89be 4911 b63d
00000360: a6c6 f6bd 317b 44be 9cae b63c 0252 f3be
00000370: 95e4 9abd bbe9 993d fd2b e33d 2b68 5fbc
00000380: e791 32be be84 9f3c 7f4c efbd fb34 3dbc
00000390: a601 06be a075 893d 6a92 1bbe e2d5 27bd
000003a0: fa38 d33d 226b 93bc 06b0 4d3d 1d3c 5abc
000003b0: 60a4 7b3e 8e06 68bd eaae ad3d 4c61 50be
000003c0: bd36 013e e474 c93e e7d7 923c ccc3 79bd
000003d0: 6589 f53d 4a9b b4bb 0e32 133f 2ef5 62bd
000003e0: 97eb f6bd af91 09be 7fb0 9c3d 9373 1d3e
000003f0: ffbd 8e3e ee09 92be 2234 72bc 806f 66be
-0.16547291 0.043520004 -0.063963 -0.07197635 -0.25619516 0.16853605 -0.17158574 0.17759125
-0.1853799 -0.110463254 -0.08182473 -0.0061005834 -0.20304322 -0.13111274 -0.20239533 0.02304025
0.07350486 0.030219736 -0.047622543 -0.19569948 -0.16029337 0.202871 -0.035804704 0.25226006
0.058922593 -0.05980645 0.30215293 -0.24961884 -0.22030464 -0.09181782 -0.17249565 0.20999725
-0.23044863 0.18101671 -0.22661456 -0.11627312 0.0010482304 0.27983475 -0.2032601 -0.28319335
-0.16181259 -0.5824048 0.10443326 -0.3587211 -0.48083004 -0.20248416 -0.19172171 -0.032332066
0.066663966 0.04580358 0.04124214 0.13748325 0.06471548 -0.051090874 -0.070444815 -0.22708511
-0.365879 -0.18808027 -0.06928031 -0.15296227 0.008319422 -0.00616319 -0.12179173 0.24890876
-0.002536658 -0.37137553 -0.2397436 -0.10890198 0.33630723 0.116025254 -0.15144098 0.035457082
-0.051428534 0.037281908 0.048353054 0.10872278 0.20496064 -0.16470581 -0.038113702 -0.38898
0.029944714 0.32549816 -0.08257373 -0.66319644 0.016593726 0.059430324 -0.15211345 -0.017037924
0.05333806 -0.16786231 0.12952457 0.14127046 0.03656997 -0.049166698 -0.22262117 -0.001381252
0.08676868 0.01945966 -0.02640062 -0.33200362 0.21983503 0.19272198 0.047902472 -0.3610612
-0.27919182 0.1528829 0.021718713 -0.34513664 0.006690778 -0.04156822 -0.0035260853 0.1711034
-0.134958 0.14499049 0.20168883 -0.20262052 -0.010258782 0.032424696 0.08557015 -0.03623231
-0.18880673 0.0623587 -0.05989794 0.08839353 0.014184369 -0.14790799 0.030082101 0.07376458
-0.14924687 -0.21430744 -0.13949077 0.10361909 -0.020383624 -0.032657105 0.20050806 -0.026523083
-0.002030196 0.08349884 0.07888584 0.07065562 0.22456607 0.2916336 0.050331753 -0.0922862
-0.29200292 -1.0675421 0.11363559 0.0128027685 0.059447236 -0.23492676 -0.07800539 -0.19660558
-0.14297716 0.23432404 0.31171402 0.02627482 -0.17744964 -1.0643479 0.026666988 0.026745422
0.011292152 -0.017028436 -0.08711405 -0.15833098 -0.08097271 0.14157145 -0.023507724 0.14657602
-0.10668711 0.03125477 0.154764 0.07033447 0.1806315 0.16742483 -0.36860162 0.2089783
0.022770517 -0.4443935 0.04810534 0.01956685 0.17017646 0.07712658 0.11978307 0.01598637
0.012872451 0.06488477 -0.20702542 -0.034409534 -0.2669699 -0.06879003 0.25931752 -0.05160003
-0.5263686 -0.2960804 -1.0142471 -0.089730024 -0.1744727 0.055152 -0.047826484 -0.05507944
0.07495458 0.0008678417 -0.2518643 -0.1511457 -0.22961323 0.12925377 -0.04507249 0.08552836
0.07394877 -0.1348697 0.0946223 -0.25131023 -0.10927932 -0.14390925 -0.26902094 0.08890016
-0.12049608 -0.19187619 0.022300057 -0.47523504 -0.0756313 0.07515284 0.110923745 -0.013635675
-0.1743847 0.019472476 -0.11684512 -0.011548276 -0.13086566 0.06711888 -0.15192571 -0.04097546
0.10313602 -0.01799542 0.050216697 -0.013319996 0.24574423 -0.056646876 0.08480628 -0.20349616
0.12618537 0.39346993 0.017925216 -0.060977742 0.119890966 -0.005511676 0.5749825 -0.055409603
-0.12056654 -0.1343448 0.076508515 0.1537612 0.2787933 -0.285232 -0.014782937 -0.22503471

hidden_layers.0.bias f4 [256]
00000000: 7ff5 96bb e1c8 443d e58e 6e3b 5d57 653d
00000010: 3e01 293e 5c1f 7d3d 04ef 03be e142 e4bd
00000020: e7ae 99be 0149 c5bd c215 3b3d d587 523e
00000030: 313d 09be c8e7 5bbe 2130 1abe ed01 e4bb
00000040: 81cd 8f3d d8d6 353d c431 0ebe e731 1fbe
00000050: 9a9e d0bd 022e 693b 4511 c1bb f7ad 08be
00000060: 5e2b 04bd 27ba b23d 845c 013e c104 9b3d
00000070: b380 b23d f6bf f43d a4d4 ab3d 3cb4 163d
00000080: c345 54bd 3ffb 653d 8797 81bd d088 4d3e
00000090: dc48 e83c b357 c23d 82ac 1ebe 398e 783d
000000a0: 7278 c1bd df29 6cbd 9d0c 463d a3f7 073d
000000b0: 6682 8dbd 3a38 e0bc 2ed7 53be 0cce d4bd
000000c0: f8bc 383d 1360 ba3c c5ca 5cbc 753a 263e
000000d0: bf8d e8bc 8e23 cdbd 08aa 83bc 2d76 e0bd
000000e0: 624a c03d 5494 0fbd 8e79 203e 63c7 7d3d
000000f0: 469c eb3d f02b 8c3d 6af2 873c 1279 ffbb
00000100: eb48 623d 3d66 2ebe e88c 2abe 6edc 29be
00000110: af94 28be 48e2 f4bd 4012 63be 473c 473d
00000120: e79c 2ebe b764 303e 31ab a8bc 14cf a9bd
00000130: 7dad 933d 9529 a5bc 735e b7bd 33e6 da3c
00000140: 8b91 1abe fb15 8e3c 3160 6e3c 8652 873c
00000150: 898d 4b3d b114 89bd 8e95 18be d2c1 d03d
00000160: 19bd 2f3d 9af7 aa3d f371 183e ae39 04be
00000170: 5356 e6bd d6c3 1c3e 9999 9abd ebf5 f7bc
00000180: b264 083e 62cb 39be b340 b1bc 856e b53d
00000190: 3d12 28bd 1095 7ebe 9789 40be 119f c6bb
000001a0: b8b9 18be 7fd4 2cbe 74fd 103e 082f dfbd
000001b0: 628c 4dbe 6805 4f3c 9b4d 813d c2a6 b93d
000001c0: 49f5 b33d f189 5a3d fc50 393d ae07 f9bd
000001d0: d550 3cbe 3121 b43c 4f26 05be ccf7 61bc
000001e0: 009b b6ba 5841 8b3c 836d 35be bdfe 4f3d
000001f0: 0c3b 8dbe e3a7 e9bd 4d63 ae3d 0481 543e
00000200: 7e7b 263e 8478 88bd fa52 01be 4245 dd3d
00000210: f196 503c 97d7 6bbd 364e a7bc 30c9 07be
00000220: de6b aebd a9e1 82be 022b 3fbd 2515 a8bd
00000230: d80f 0a39 08f1 88bc 1382 bbbc 3f3b 06be
00000240: fe85 fcbd de6f 54be b6dd 3bbe 01c5 d43d
00000250: d53b 85be 6d55 af3d a635 adbd 0b51 d8bd
00000260: 10d3 4cbe edda 29be eb95 80bd de18 0b3d
00000270: 2be9 9abc 2424 2bbe 79d8 c03c 2438 123d
00000280: 43aa 0e3d a20d d93d ba6e f43d 4f8c e23c
00000290: 7d51 8c3d 11f4 04be 60fd 26bd 335e 07be
000002a0: f8fb 06bd f2e0 28be 729a 8fbc c8be 98bd
000002b0: afec b13d 13b3 633d ded6 85bc 8764 6dba
000002c0: d938 383d 47f2 58be cd96 a5bc 2cb4 44be
000002d0: 8044 0c3e 7c5e c5bd ea28 dabd 2221 003c
000002e0: c653 3cbe 9294 6a3c cd61 4c3e e1fe 143d
000002f0: ef74 21bd a724 fc3d 4794 5ebe deed 983d
00000300: 8d74 8cbb ae4e 2b3d 1a09 88bd 3261 a7bd
00000310: cddb 2e3e bfb5 d9bd f806 c9bd 8a3d afbd
00000320: 0649 af3d afd7 6ebd 1500 4abe 067e 90bc
00000330: b963 41bd aa90 32be 3da9 c03d 803e 153e
00000340: 83ac bf3d 74c5 923c c0d8 e2bd d08d 18be
00000350: 4e91 74bd fb3b 60be d37d 99bb 45c4 5fbe
00000360: 1e1f 54be 879d d8ba 49e3 4ebd bc9f 91bd
00000370: a3f3 64bd c7e8 f2bd b35e 5ebc c186 1ebd
00000380: 83e9 3cbe e032 eabc b463 32bd 5047 473d
00000390: dd50 b83d 53fa 22be 1c04 06bd a4bf 3cbb
000003a0: 98e7 43bd ec50 0fbd 68e4 273c 867c 41be
000003b0: ce88 bebd 218e 73bd 09f8 84bd 5a41 5bbe
000003c0: e168 af3d 1b0c 903c 6add ebbd c1ba 2bbd
000003d0: 44d6 77be 316c ddbd 687a 123b bde7 4f3e
000003e0: a334 b83d b707 92bb b78e 43bd 338d 3fbe
000003f0: f9f4 fcbd a1de 1c3e 6f15 9cbd bd1d 403c
-0.004606902 0.048043136 0.003640109 0.05599152 0.1650438 0.061797485 -0.12884146 -0.11145569
-0.30016252 -0.09633065 0.045675047 0.20559628 -0.13402249 -0.21475136 -0.15057422 -0.0069582374
0.07021619 0.044394344 -0.13886172 -0.1554638 -0.10186501 0.0035580401 -0.0058919513 -0.13347612
-0.03226792 0.08726912 0.12632948 0.07569266 0.08715954 0.11950676 0.08390167 0.03679298
-0.051824342 0.05614781 -0.0632773 0.20071721 0.028355055 0.094893835 -0.15495494 0.06068251
-0.09446801 -0.05765712 0.048351873 0.03319515 -0.06909637 -0.02737056 -0.20687553 -0.10390863
0.04510209 0.02275089 -0.013476078 0.16233237 -0.028387902 -0.10016547 -0.016072288 -0.1096004
0.093891874 -0.035053566 0.1567137 0.061957728 0.11504416 0.06844318 0.016595084 -0.007796415
0.05524532 -0.17031188 -0.16655314 -0.16587994 -0.16462968 -0.11957222 -0.2217493 0.04864147
-0.17052041 0.1722592 -0.020589443 -0.0829145 0.07210825 -0.02016143 -0.08953562 0.026721096
-0.15094583 0.017344465 0.014549301 0.016518842 0.049695525 -0.066934 -0.149008 0.10193218
0.042904947 0.083480075 0.14887218 -0.12912628 -0.11246934 0.1530908 -0.07548828 -0.03026863
0.13319662 -0.1814399 -0.021637296 0.088589706 -0.04103302 -0.2486155 -0.18802486 -0.0060614427
-0.14914596 -0.16877936 0.14159185 -0.108976424 -0.20073083 0.012635566 0.0631363 0.0906501
0.08787019 0.053354207 0.04524325 -0.12159668 -0.1839021 0.021988483 -0.13002895 -0.01379199
-0.0013931692 0.016998932 -0.17717557 0.050780047 -0.27584112 -0.11408975 0.08515034 0.2075234
0.16258046 -0.066636115 -0.1262931 0.108042255 0.0127313 -0.05757865 -0.020423036 -0.1326034
-0.08516668 -0.2556279 -0.046671875 -0.08207158 0.00013166608 -0.016716495 -0.022889173 -0.13108538
-0.123302445 -0.20745799 -0.18346295 0.10389138 -0.2602221 0.085612155 -0.08457498 -0.10562333
-0.20002389 -0.1658742 -0.062785946 0.033959262 -0.018910011 -0.16713005 0.023540722 0.03569807
0.034830343 0.105983034 0.11935182 0.027654795 0.0685148 -0.12983729 -0.04076898 -0.13219528
-0.03295514 -0.1649206 -0.0175297 -0.07458264 0.08687722 0.0555907 -0.016337808 -0.0009055812
0.04497609 -0.21186171 -0.020213509 -0.19209355 0.13698006 -0.09637162 -0.10652335 0.0078203995
-0.18391332 0.0143176485 0.19959183 0.036375884 -0.039418157 0.123116784 -0.21736251 0.074672446
-0.004286355 0.04182308 -0.06642361 -0.081728354 0.17076035 -0.106303684 -0.09815782 -0.085566595
0.0855885 -0.05831116 -0.19726594 -0.017638218 -0.047214244 -0.17437997 0.0940728 0.14574623
0.09359076 0.017916419 -0.11076498 -0.14897847 -0.059708886 -0.2189788 -0.004684189 -0.21852215
-0.20714995 -0.0016526439 -0.050509725 -0.07110545 -0.055896413 -0.11860805 -0.013572383 -0.03870273
-0.18448453 -0.028588712 -0.043552116 0.048651993 0.089997984 -0.15915804 -0.032718763 -0.002880075
-0.047828287 -0.034989282 0.010247327 -0.18895158 -0.09303437 -0.059461717 -0.064926215 -0.21411648
0.08564926 0.017583897 -0.11516841 -0.04192615 -0.2420283 -0.108116515 0.0022350792 0.20303245
0.08994415 -0.004456486 -0.047743525 -0.18706207 -0.12351412 0.15319301 -0.07621276 0.01172584

hidden_layers.1.weight f4 [128, 256]
00000000: 917b 193e da10 b63d fe5e 55be ca5d e7bc
00000010: 3bfd 3f3e e996 143e 3e92 c33a 0a14 3e3c
00000020: daf5 0bbc 3e18 fd3d 1f1c 63bd 0131 2e3d
00000030: 0750 7bbe b9ab 56bd dd67 fd3c df43 a6bd
00000040: 5e5d 3c3c 7b73 1e3e f7bd 1cbd 4492 01bc
00000050: 6d15 27bd 3b8f 2d3e 9382 313c 6a4b c33c
00000060: 69b9 143e c1e6 d33d e293 c93d 361b 15be
00000070: cabd 1c3e 96fe 5d3c 3e7c a8bd cec0 c0bd
00000080: a79b 43bd f72f 34be da32 6abd e2af f0bb
00000090: 3a76 b9bd fbc5 d33d 8474 e8bd 5658 5fbd
000000a0: 1eac 973d 7882 183c fe33 45be 58be 0abd
000000b0: 87e6 06be 8c59 9e3d 84a6 f9bd 55c3 813b
000000c0: 73d7 3d3e 30a8 ca3d 4ea3 95bd 9994 9f3e
000000d0: 67b0 0b3d 2b17 333d 4b7e 5c3c 1652 15be
000000e0: cd8b 05bc 2212 193b a055 d13c a391 723d
000000f0: 2a62 f8bd 7ce0 993d fd30 2bbe a54b 82bc
00000100: 3bf5 3c3e 540c 283a 2cae 2fbd 75f5 79bc
00000110: 60e4 2e3d 9292 233d 45eb 523d 540d 1bbe
00000120: 10d6 e83b 31dc 843d 61bb b7bd 9748 23be
00000130: 75d0 f7bc 78f7 99bd 2510 61bd ce34 803d
00000140: 34bf 993d aa05 d1bb b87a bb3d 2089 ee3d
00000150: ea87 04be e3f8 453c 3787 a63c 2ffd a1bc
00000160: e8a0 8fbc becd 6bbd 7f09 e1bc 798f eb3c
00000170: 3f06 47be 5f23 873e bf9a 7d3d e3ec c03d
00000180: b2b3 153e 2423 f33c 3342 af3d a228 45bc
00000190: c140 42bd 8e70 afbd d021 50bb 5987 9fbd
000001a0: c634 59bc cd6b 413d 9df5 073e 30ac 163d
000001b0: 0038 04be 38f6 3c3d 71b7 16bd b577 8b3d
000001c0: 0341 61be 3cd9 683d 2fc8 853c 5749 e0bc
000001d0: de71 253d b76f 5e3e af1e a43d 2930 3c3d
000001e0: 11ed 233e 1b8b 36be abf4 8bbd 876b a4bd
000001f0: 45f9 1bbe 030b a23d e3f1 33be cf28 d23c
00000200: 06a6 dbbb 2015 31bd 1610 05bd f5ef 133d
00000210: ecef df3d 11af 2b3c 5c4c ff3d 0eef ae3d
00000220: ddf1 92bd b851 42bc 2765 cdbc 8fa0 afbb
00000230: 92d9 d4bd 1829 ca3d b44a 1a3d f014 10be
00000240: e1e9 febd f123 a63d 8002 1fbd 7f8f db3d
00000250: c6bb 1c3e d098 dfbd db85 f73d 650e 95bd
00000260: 2092 88be 8ed9 dd3c 1ff8 1bbd 9d04 133d
00000270: 9a56 15be 971b e4bd 9675 88bd 6da0 0a3c
00000280: 9d6d 933c 8c24 ccbc 62d5 443d fa98 14be
00000290: 4c40 aebd b380 17be 6190 513e 04c9 71bd
000002a0: 03cc 08bc 1185 253b f53e e6bc 322b 023d
000002b0: 08bf 883d 4021 94bd a2ac 5dbe a8c3 ddbd
000002c0: a721 6fbd 5b06 c53d 7fad 98bc 949b 33be
000002d0: 7ba0 b2bc 3834 7e3d 2808 94be 50e0 ca3d
000002e0: b56d 883c afeb b3bd 92bf 983d 113f 82bd
000002f0: 5ea1 a5bd 3c3c b6bc 31e3 76bd fb01 0dbe
00000300: be50 47bd c3bc 873d a97f f93c eb66 973c
00000310: 7162 133d 7afb a53b a7fb 2c3c b250 8c3d
00000320: b980 d33a 36d0 913a 7b28 663c fa60 b9bc
00000330: 62c1 193d 7193 273e 538e 0fbd 2300 b43e
00000340: 1217 a73d b8df 66bd 5c08 c03c 7663 903d
00000350: 13d9 91bd b626 1dbe 73a4 9ebc e159 31be
00000360: cc33 d13c 2c5d 363d 9b30 fd3c 4e8c eabd
00000370: 9c26 493d e00a b7bd fdf6 61bd 5d5d 3abe
00000380: 3cab adbd 6916 d93d 7f6f 6bbc 5953 2abe
00000390: aed3 7d3c c188 e93d 4541 9d3c 7443 15be
000003a0: be65 3b3d 33f7 983d 0f84 2cbd 2363 d23d
000003b0: 9663 67be 389e ac3d f598 2fbe a884 263d
000003c0: 6f47 2a3e 75ff e7bd 8789 f23d d2d8 85bd
000003d0: 9a79 d3bd f786 1c3d 4734 a6bc 4d69 b43d
000003e0: a9cb 29be 234c 24bd 5481 7e3d 31b1 27bc
000003f0: 7b23 c53d 0347 ff3c 16ea e3bd fd36 873d
0.14988543 0.08889933 -0.20837018 -0.028242964 0.18748944 0.14510693 0.0014920903 0.011601457
-0.008542502 0.123581395 -0.05544674 0.042527203 -0.24542247 -0.05240986 0.030933315 -0.08118414
0.01149687 0.1547374 -0.038267102 -0.007908408 -0.040791918 0.1694917 0.010834354 0.023839671
0.14523853 0.10346747 0.098426595 -0.14561161 0.15306774 0.013549468 -0.08226822 -0.094117746
-0.047755864 -0.17596422 -0.057177402 -0.0073451856 -0.09055753 0.10340496 -0.113503486 -0.054527603
0.074058756 0.00930845 -0.19258115 -0.033872932 -0.13173877 0.077319235 -0.121899635 0.003960053
0.18539219 0.098953605 -0.073065385 0.3116806 0.034103777 0.043723267 0.013457845 -0.14582095
-0.008151007 0.0023356755 0.025553524 0.05922092 -0.12128098 0.0751352 -0.16717906 -0.01590521
0.18452923 0.00064105284 -0.042890713 -0.015256275 0.042698264 0.039934702 0.0514939 -0.15141803
0.0071055964 0.06487311 -0.089712866 -0.1594566 -0.030250767 -0.07517904 -0.054947037 0.06260072
0.07507172 -0.006378849 0.09154266 0.11647248 -0.12942472 0.012083265 0.020328147 -0.019774048
-0.01753278 -0.057569258 -0.027470348 0.028754937 -0.19435976 0.26394174 0.061915156 0.094201826
0.1461933 0.029679842 0.085575484 -0.012033613 -0.047425035 -0.0856639 -0.0031758435 -0.077894874
-0.013257211 0.047221947 0.13277288 0.036785305 -0.12911987 0.04613325 -0.036796037 0.06809942
-0.21997456 0.056847796 0.016330807 -0.027378721 0.040391795 0.21722303 0.08013665 0.045944367
0.16008402 -0.17826502 -0.06833776 -0.08028322 -0.15231808 0.079122566 -0.17572741 0.025654225
-0.006703141 -0.043233037 -0.032486044 0.036117513 0.10934433 0.010478751 0.12465736 0.0854169
-0.07175038 -0.011860304 -0.025072647 -0.0053597162 -0.10393061 0.09871119 0.0376689 -0.14070487
-0.124469526 0.08112324 -0.038820744 0.10720729 0.15306005 -0.109178185 0.12086078 -0.07278136
-0.26673985 0.027081277 -0.038078424 0.03589307 -0.14583817 -0.11138075 -0.06663053 0.0084611
0.017996604 -0.02491977 0.04805506 -0.14511481 -0.085083574 -0.14795189 0.20465232 -0.059029594
-0.008349421 0.0025256316 -0.028106192 0.031779476 0.06677061 -0.072329044 -0.21647885 -0.10828334
-0.058381703 0.09620353 -0.018637417 -0.17539817 -0.021805039 0.06206152 -0.28912473 0.099060655
0.016653875 -0.087851875 0.07458414 -0.06359685 -0.08087419 -0.022245519 -0.06027526 -0.13770287
-0.048660986 0.066278 0.03045638 0.018481692 0.035982553 0.0050653787 0.0105580455 0.06851329
0.0016136385 0.0011124674 0.014047737 -0.02262925 0.03753794 0.16364838 -0.03504784 0.35156354
0.08158697 -0.0563657 0.023441486 0.07050221 -0.07121482 -0.15346798 -0.019365525 -0.17319442
0.025537394 0.04452245 0.030906966 -0.11452542 0.049109086 -0.08937621 -0.055167187 -0.18199678
-0.08479926 0.105999775 -0.014369844 -0.16633357 0.015492363 0.11403037 0.019196162 -0.14576513
0.045751326 0.074690245 -0.04211813 0.10272815 -0.22596583 0.08428615 -0.17148192 0.040653855
0.16628812 -0.113280214 0.118426375 -0.06535496 -0.10325928 0.03821465 -0.0202886 0.08809147
-0.16581596 -0.040111672 0.062135056 -0.010235117 0.09625908 0.03116179 -0.11128633 0.06602285

hidden_layers.1.bias f4 [128]
00000000: 667c a83b 9f47 e83c 991b 84bd baf2 863d
00000010: 6693 a5bd 2137 4c3d c5b3 cd3d 118a 93bd
00000020: b585 953c db95 55bd 9afa 9fbd 07bc ebbc
00000030: 0d31 91bd f5c0 6fbc e4bc 1d3b 1b88 8cbd
00000040: 957d 6abd ca6f a1bc 37a2 02be 6c06 51bd
00000050: e388 123c 113e db3c e9ae 8dbd 11cc cd3c
00000060: 78d8 83bd 5751 18bc 8068 92bd 70d8 9c39
00000070: 18a5 6dbd a878 d73b d1c4 0cbd dcca 8abd
00000080: 3431 593c 13d7 d4bc 3b49 14bc d95f 3cbd
00000090: 0130 9fbc 400a e8bc 4ba0 723b e8ad 493c
000000a0: d280 fcbc 632d 113c 9157 4b3d c40a 933d
000000b0: 505b cd3c 1f43 003d f5d9 0d3d bdc1 37bd
000000c0: 877b 4f3d 0c47 ecbc 5375 9cbd 9194 c4bc
000000d0: f5b8 363d 272a 643d c561 3e3d 5edb 903d
000000e0: ebb9 1e3d 51d7 b1bd 2d83 15bd a065 5f3c
000000f0: 19dd 283c 62dc 79bd e177 fb3c f9d6 1f3d
00000100: 9f3b 91bd 6873 503d 5e80 c13c 5a4c 9ebd
00000110: 74e0 07bd 187b 5abd d9c8 0a3b b8d7 c6bd
00000120: 4db4 ff3c 24d9 033d baa0 b7bd f5b1 283c
00000130: e380 28bd ecf9 81bd 7d19 38bd 8018 76bc
00000140: b9c9 a03c bebc c1bb 63da abbc 2dad 67bd
00000150: bf9f abbb 2fc7 763c 9869 25bc 74a3 9b3c
00000160: 5a30 033d a00d 203d 1606 4e3c 2749 de3d
00000170: a4c0 a2bb 24d8 61bd 7bc6 d1bc 4de5 e93c
00000180: 685c c43d 95c1 113b 5073 ba3d 2fb3 73bd
00000190: 30e3 e43c 21f9 c13d b99f 0dbd 958c bc3b
000001a0: 50dc 063d 5784 45bd 77b0 ffb9 2f04 463d
000001b0: 90d1 ecbc 212b 3bbd 68aa 903d 2d3c 123d
000001c0: 6d26 0a3d abfd f1bb edb2 02bd 0fff 71bd
000001d0: a615 c5bd acf3 97bd b089 70bb 3cfc 98bd
000001e0: fd83 d13c 18ed e2bc 362a 21bb d40e d1bc
000001f0: db52 0b3c 2f06 b43c 9604 9abd ce80 593c
0.0051417826 0.028354464 -0.06450576 0.06589265 -0.08084755 0.049857263 0.10044054 -0.072040685
0.018252233 -0.052144866 -0.0781147 -0.028776182 -0.07089434 -0.014633407 0.0024068886 -0.068618976
-0.05724867 -0.019706625 -0.12757193 -0.051031515 0.008943769 0.026762994 -0.06918127 0.02512172
-0.064377725 -0.009296737 -0.07148838 0.00029915897 -0.058018774 0.0065756626 -0.034367386 -0.067769736
0.01325636 -0.025981462 -0.009050663 -0.045989845 -0.01943207 -0.0283252 0.0037021812 0.012309529
-0.030823145 0.008860919 0.049644057 0.07179788 0.025067955 0.03131401 0.03463169 -0.044862498
0.050654914 -0.028842472 -0.07639565 -0.023996623 0.044609983 0.055704262 0.04647996 0.07073091
0.038751524 -0.086836465 -0.036502052 0.013635069 0.01030662 -0.06100119 0.030696811 0.039023373
-0.0709145 0.05089131 0.02362078 -0.07729407 -0.03317304 -0.053340048 0.0021176843 -0.09709114
0.031213904 0.032189503 -0.08966203 0.0102963345 -0.04113854 -0.06346497 -0.044946183 -0.01502049
0.019627439 -0.0059123924 -0.020978158 -0.056561638 -0.005237549 0.0150621375 -0.010095976 0.018998839
0.032028534 0.039075494 0.012574693 0.108537965 -0.004966812 -0.05513777 -0.025607338 0.028551722
0.095879376 0.0022240628 0.09104025 -0.059497055 0.027940363 0.09471346 -0.03457615 0.0057540634
0.03292495 -0.048221912 -0.00048768867 0.048343834 -0.028908521 -0.045695428 0.070637524 0.03570192
0.033728052 -0.007384976 -0.03190892 -0.059081133 -0.0962327 -0.074195236 -0.0036703162 -0.07469985
0.025575632 -0.027700946 -0.002459181 -0.025519766 0.008503641 0.021975605 -0.07520406 0.013275338

hidden_layers.2.weight f4 [64, 128]
00000000: 3a70 8fbc 160c 80bd 7686 e33d a96a 983e
00000010: 6490 ad3d 18e1 5abe d09f 003e c53c 9d3c
00000020: 9d12 acbd 81f3 67bd 978e a1bd 88b8 913d
00000030: aae6 f6bb 6518 063d c1ce 9a3d f3c2 123d
00000040: 66c0 5f3c fdd2 42be 4d42 363d f6c4 88bd
00000050: 04a2 53bb 0b10 f53c 77c3 d73c e608 87bd
00000060: d687 59bd 6fb2 713b 0297 9dbd b1e8 c4bc
00000070: ca49 6c3d 9c80 8d3d 8459 583d d563 36be
00000080: 3ae5 c7bc 40e7 bbbd 08be b73d 21b6 973d
00000090: 0fa7 eebc 23ce 64bd 02d1 13bd 9dac 803c
000000a0: 337a e9bc a3f0 bf3d 5b61 b1bc 4f85 06bd
000000b0: 4b6a 323e 4eef c8bd 9971 ba3d 49fc 80bd
000000c0: 7750 69bd 3a8f 8abd 18c2 babb 321e 4abd
000000d0: f4ab bc3d 8e07 ff3c e487 91bd 43a1 d1bc
000000e0: fea4 f0bd 94d2 a63d b0ac 8f3d 4ae1 373d
000000f0: 737f 94bd 66f3 b8bd 9c58 d0bd 8ae8 21bd
00000100: a7c5 10bd 5735 5e3c c478 7bbd 9cb7 2c3d
00000110: 73cc ff3d 5eed 7ebd 2aa6 003c 824e b6bd
00000120: eba8 a43d 19db 25be 0c67 47bd afd1 1cbe
00000130: 4128 ab3d 1dd8 0abd d505 b23d f8d3 1c38
00000140: b8b9 a53d 5d74 053d 3684 bf3b c8c1 c3bc
00000150: baf8 abbd b250 8a3e 522e 9d3d e275 0c3d
00000160: a13f 113e 3873 45be 7ded 033c b8f1 0cbd
00000170: 9a78 0b3c a4c1 86bd 90e2 32bc e2e3 603d
00000180: aaac 90be 8587 913b 0942 883e d165 53bd
00000190: c728 adbd fa8c 78be 4222 a8bd 208e 9bbd
000001a0: d679 c1bc d463 bfba 2b12 5b3d a4ca 6fbc
000001b0: d2ca 1e3c a157 0f3d beec 81bd 7c32 c9bd
000001c0: 5536 f5bc 2cb4 babd 6ed1 093e 6934 96bd
000001d0: 167b 573d 812f 943d 8393 86bc ad2d 7fbd
000001e0: b8b4 01be 0431 053d 7bfb 22bc d65b 99bd
000001f0: 0965 943c 0b60 003c 3963 03be bf4f 7ebd
00000200: 3139 2a3d 419b 41bb cdfa 753d de19 f13d
00000210: 06f9 c2bd 80cb 98bc 962b cfbc c034 483d
00000220: e44d bc3d 68dc 92bc 862f 1ebd 058d d13b
00000230: 3698 b23c b7a2 55bc ac42 a63d 6326 a23d
00000240: 1b44 7a3d b7c2 32bd 680b 83bd 6986 87bd
00000250: 5b31 5fbd e6d8 6a3d aa99 833d f4e1 60be
00000260: 3470 8bbd 0a63 863c fdd0 723d 58c9 e03c
00000270: 1f3f 1a3d 08a9 193d f168 fe3d 31a8 1cbd
00000280: ca0b 833d fd1b 92bd c248 39bd 3aa5 0b3b
00000290: 59fd 133d b24c 763d bd55 dc3c 2bb5 0fbd
000002a0: d3b1 af3d 8e90 4a3e 26ff 023e b14f 153e
000002b0: 1393 2dbd 7e46 313d 6f9b f4bd 19db 3f3d
000002c0: 6b0c 783e 9f63 b23d ecee d2bc 130a 97bd
000002d0: a07f d63c ec7a be3c 296f cdbc 182a ae3d
000002e0: 0d3c cdbc 335e bc3c 922b 6b3b fd4b 54bd
000002f0: 114f 84bd d2c2 7e3c 2804 3abe 0086 11bc
00000300: a441 e2bd e340 77bb 3afa 8d3d df32 883d
00000310: c738 b8bd bade e6ba d52e d83d 3650 243d
00000320: 1675 763d 196f ed3d e939 a03c 2af6 5b3e
00000330: 23de 8b3d 9b25 99bd 52e3 c9bd 16a3 02bd
00000340: a275 2ebe ebd6 503c 17ab 5bbd 3c57 863d
00000350: 18f9 8c3c bdfc 5e3e f681 03bd 2419 16bc
00000360: 586a 93bd 7f50 d6bc c651 dabd 54c2 563e
00000370: 2f79 8c3d 2f85 a3bd 463e 723d 2815 c23d
00000380: 62db ac3d 492c f13d fc91 70bd 0464 363d
00000390: 29d9 4cbd 7cba 1e3d 72fb 513d b6cd 94bd
000003a0: e03c 85bd 8a4a ee3d 4a94 953c 767d 943d
000003b0: c399 9e3c cb6d c33d 1149 fe3d fe56 c0bd
000003c0: b0a7 423d 40e4 8c3d dd3d b3bd d752 9d3c
000003d0: 83ba 8e3c e81b 0f3c 168d 883d 7fd1 3cbd
000003e0: a3db c9bd 1f15 b1bc c695 81bd 464d 7f3d
000003f0: 2146 a8bb 91ca 1f3c a52a d3bc e308 6dbd
-0.017509568 -0.06252305 0.11109631 0.29768875 0.08474806 -0.21374929 0.12560964 0.019194016
-0.08401988 -0.056628708 -0.07888525 0.07115275 -0.0075348215 0.03273811 0.075589664 0.03583045
0.013656711 -0.19025798 0.044496823 -0.06678192 -0.0032292614 0.029914876 0.026338322 -0.06593494
-0.05310806 0.0036880036 -0.07694818 -0.024036737 0.05768756 0.06909296 0.052819744 -0.1781152
-0.024401296 -0.09174967 0.089717925 0.07407785 -0.029132394 -0.05586065 -0.036087997 0.015707308
-0.028500652 0.0937207 -0.021652868 -0.032841977 0.1742336 -0.09811269 0.09103698 -0.062981196
-0.056961503 -0.067655995 -0.0056994073 -0.049345203 0.09212485 0.031131532 -0.07105997 -0.02558959
-0.1175022 0.08145633 0.070153594 0.044892587 -0.072508715 -0.090307996 -0.10173151 -0.039528407
-0.035344746 0.013562522 -0.061394468 0.04216729 0.124901675 -0.06223809 0.007852117 -0.08901693
0.08040031 -0.1619686 -0.048682258 -0.15314363 0.08357287 -0.033897508 0.086925186 3.739071e-05
0.08092064 0.032581676 0.005844618 -0.023896113 -0.0839705 0.2701469 0.076748505 0.03429211
0.14184429 -0.19282234 0.008052227 -0.03441021 0.00851264 -0.06579903 -0.0109182745 0.054904826
-0.28256732 0.004441204 0.2661288 -0.05161077 -0.08455043 -0.24272528 -0.08209659 -0.075954676
-0.023617666 -0.0014601895 0.053484123 -0.014635716 0.009691911 0.03499568 -0.06343983 -0.09824082
-0.029933134 -0.09116396 0.13458797 -0.07334215 0.05260762 0.07235623 -0.016427761 -0.06229942
-0.12666595 0.032517448 -0.009947653 -0.074882194 0.018114584 0.007835398 -0.12830819 -0.06208777
0.04155845 -0.0029542001 0.060053635 0.11772512 -0.09520154 -0.018651724 -0.025289338 0.04887843
0.09194544 -0.017927364 -0.03861954 0.0063949847 0.021801095 -0.0130392825 0.081181854 0.07917478
0.061100107 -0.043642726 -0.0639866 -0.066174336 -0.05449043 0.057335757 0.064257935 -0.21961194
-0.068085104 0.016404647 0.059281338 0.027439758 0.037657853 0.037514716 0.1242236 -0.038246337
0.06398733 -0.071342446 -0.045235403 0.00213082 0.036130283 0.060131736 0.026896352 -0.035084885
0.08578839 0.19781706 0.12792644 0.14581181 -0.04237659 0.043280117 -0.11943709 0.046839807
0.24223487 0.087104075 -0.025748692 -0.073749684 0.026183903 0.023251973 -0.02507742 0.085041225
-0.025053049 0.022994136 0.0035884124 -0.05183028 -0.06460393 0.0155493785 -0.18165648 -0.008882046
-0.11047676 -0.0037727884 0.069324926 0.06650328 -0.089952044 -0.0017613985 0.105558075 0.040115558
0.060170256 0.11593456 0.019558864 0.21480623 0.068294786 -0.07477876 -0.09857811 -0.031893812
-0.17037061 0.012746553 -0.05362996 0.065596074 0.01720862 0.217761 -0.032106362 -0.009161267
-0.07198018 -0.02616143 -0.10660128 0.20972568 0.068590514 -0.07984387 0.05914142 0.094766915
0.084402815 0.11776025 -0.05873297 0.044528976 -0.050011788 0.038752064 0.051265188 -0.07265799
-0.065057516 0.11635311 0.018259186 0.07250492 0.019360429 0.09542426 0.1241628 -0.093915924
0.0475232 0.06879473 -0.08752034 0.01920454 0.01742292 0.008734681 0.06667535 -0.04609823
-0.098563455 -0.021616517 -0.06327395 0.062329553 -0.005135313 0.009752885 -0.02577717 -0.057869803

hidden_layers.2.bias f4 [64]
00000000: 9e75 55bd 4634 a03d 30fa 173e f832 24be
00000010: 1b08 893e 2b90 843c bc63 e63c 6f35 d2bc
00000020: b51c 2c3e e025 173e a8fe 3e3d f1c7 223e
00000030: 3e08 be3d f72f 8abd f46b ecbd 24d7 303e
00000040: fa7d 1c3d 67e6 493e eb5e a2bd b9e3 6e3d
00000050: d8c6 a13d 89d3 19bd 4996 e7bd 3a4a 26bd
00000060: fb2d cb3d 05dc dcbd 5f28 663e 60f3 f83d
00000070: d77c 1fbd 8643 223d dce6 a03d dfe3 503e
00000080: d1c8 423e 53c2 bbbd add3 1d3e 467f cebd
00000090: 91ec bcbd 419f f43a 252d c1bd 72fd 8e3d
000000a0: 53df 573b 920f 763e c5c8 f2bd 14cb 143e
000000b0: 3a1e 11be c492 aebd ed21 a03d 4b4c 4f3e
000000c0: b10a d4bd 5bf6 cdbd 5de5 b5bd d823 e7bc
000000d0: 873f 0e3b 7a6e 33be 36bb 213e 1dee 16bd
000000e0: 8c80 ca3d 14ed 1fbe 0209 49bd 095f c53d
000000f0: b2d6 ebbc c3b4 0d3e 5289 41bc f2f5 82bd
-0.05211412 0.0782247 0.14841533 -0.16035068 0.26763996 0.016182026 0.028123729 -0.025660245
0.16807826 0.14760542 0.046629578 0.15896584 0.09278916 -0.0674743 -0.11544028 0.1726957
0.038206078 0.19716798 -0.079282604 0.058322642 0.078992546 -0.03755525 -0.113079615 -0.04059813
0.099208795 -0.10784153 0.22476338 0.12155795 -0.038937416 0.039615177 0.07856533 0.20399426
0.19021918 -0.09167924 0.15412779 -0.10082869 -0.09224809 0.0018663184 -0.09432439 0.069819346
0.0032939508 0.24029377 -0.118547 0.14530593 -0.14171687 -0.08524087 0.07818971 0.20243947
-0.10353602 -0.10056754 -0.08881638 -0.028215334 0.0021705346 -0.17522612 0.15794072 -0.036848176
0.098877996 -0.15617782 -0.049080856 0.09637267 -0.028788898 0.13838486 -0.011812525 -0.063945666

hidden_layers.3.weight f4 [32, 64]
00000000: dd48 c43d 9374 8fbd 3e50 90bd 4641 35be
00000010: 6b9a 0a3c e874 893d bd63 30be 5d0b d73d
00000020: ecd0 05bd 9bdf 8bbd 315b 12be 6472 a33d
00000030: 1ad3 39be 0c6b 0ebe cee6 883d 882c 6cbd
00000040: 7e95 84be e23a dbbd 621c 80bd 3428 9a3c
00000050: 519e ea3c 0d12 af3d 9a22 6b3b d32a c53d
00000060: 4fd9 9bbd c576 303c ff0f dbbc 7158 d7bd
00000070: 93d2 043d 4778 2ebe e11d 143e af8d 7e3c
00000080: 65bf 59be c06e 343d c10b 29be 33ab b8bc
00000090: e0e6 1e3b 9047 dabd bd90 1a3c 7b43 0a3e
000000a0: 8ae9 04bd 899e cb3d cf37 023a 0b30 453e
000000b0: 0ab3 e3bd cd81 103d efbf b5ba 5e0b aa3c
000000c0: 633b d63d 9327 8cbd 3ad7 cd3d dc29 20be
000000d0: 4971 b0bd f8d4 133e 3dbe 893d c4aa 60bd
000000e0: 6b1c 1dbd dae6 aabd 2cc7 343e f191 edbd
000000f0: dc1e a13c 9ac1 12bd ee35 9a3c d6ba 483c
00000100: 7711 14be 3aa8 61be ebc1 84bc 896e 1dbe
00000110: 117c 16be 90bc 5c3d 9d29 ff3d ccd5 75bc
00000120: a8b2 91bd b4e6 f3bd 5d67 4d3e 9bb9 3c3b
00000130: 1396 7b3c 01e2 073e 3677 cebc 1a44 c1bd
00000140: 6994 293d c24f d43d b109 e5bc 80f7 ec3d
00000150: 9eba 553e a2cc ed3d 4f1f 73bd 5e53 7c3c
00000160: 1a57 9b3e 545d 99bc 06ce bebd 8a28 18be
00000170: 6e2c 313c 22ad 30be 2284 dd3b 3841 ce3d
00000180: 675e 9fbd dd8a c6bd 4504 ce3c 2197 043e
00000190: bd67 8fbe 06e3 9bbd 3c47 3fbd 6efd 90bd
000001a0: e641 fc3c 333d 063e 5706 bdbd 3e17 953d
000001b0: 6b82 acbd 8ee7 593d 22c7 c13c d5b7 c43b
000001c0: d4b2 9b3d a9a8 c13c 14c9 a7bc 508c 9a3d
000001d0: 7cb9 67bc 9a56 da3c 3d7c 8bbc 3292 82be
000001e0: 4dd3 063e 704d 8abc ce8e dd3d 97cb 0fbe
000001f0: 9e4c 57be a27e 69be 4213 d2bd fdfb 21bd
00000200: 360e e03d 82ed 403c 4ce7 1e3d c40f f7bd
00000210: 84bb 1ebd 5451 c03d 1ff4 36bb 9c9d 1d3d
00000220: 7cc9 4cbd 1e55 b5bc 4634 433c 8010 993b
00000230: cb6a 073c 88ec 463d 808e b73b 059c 183d
00000240: 6151 313c 6015 ebbd b000 f2bc 1dab c13d
00000250: c143 f7bd 900c 0e3c 9407 173d d3f9 cbbd
00000260: 8946 03be e85b e1bc a242 d93d e5b7 ac3d
00000270: 54a3 0dbd 12fb c0bd e5f4 87bd 316b 48bc
00000280: 3075 99bc 32cd f2bd 7394 bbbd 16bf 863d
00000290: a248 a2bd 7ab7 d43d f1bb 633d 20d2 46bc
000002a0: 0f4b 453d a5da 08be e040 9bbc c549 9abc
000002b0: 2a9b aebd 705a 983d 4845 c0bc d892 863d
000002c0: 461b b5bd 9e04 9ebd ec4a 033d bf83 b2bb
000002d0: de91 62bd 4695 debd 9c3a 6ebd 28ce b0bc
000002e0: 07e5 cf3d a6d5 f13d e8a6 e1bc 085e a63d
000002f0: 48a9 9bbd dca7 1dbd d4bd 41bd 6fec 59bd
00000300: 0e29 4a3e d5a3 303e e2c4 963d 6231 37be
00000310: ad17 4a3e b8b1 5e3c 0185 03be ea2b 863d
00000320: 5472 813e 875c 023e 5e53 c93d 600a 393d
00000330: ca8a 193e 0e7e b63c 9fa6 39bb 59a2 2a3e
00000340: 3601 e5bd ae65 2f3e 911b 1dbe df75 6f3d
00000350: 29cf 663e f840 ee3d 7187 833d e126 493e
00000360: 8373 eabc 7211 71bc 997f 913e 7048 163d
00000370: 08c9 e13c 5734 193e 0aea eb3b c3c1 d73d
00000380: 93b9 6a3e fcbb 183a dae3 2e3e 855f 1c3c
00000390: fbb4 9dbd f667 493d 3820 02be 5478 c43c
000003a0: dcf8 87bd 291a 0c3e eae6 df3c af11 c3bc
000003b0: 1847 b23c a85c dabd 2790 12bd f2d8 7bbd
000003c0: a03e e03d a241 143b 3f24 443d 4194 0bbd
000003d0: 6647 8a3d dc8b 99bd d804 ec3d 112c 1e3e
000003e0: d147 d33c 57f5 b3bb 7f82 21bd c2e5 95bd
000003f0: a534 cc3d 627a 693e c15e 1b3e f2e6 593d
0.0958421 -0.07004657 -0.07046555 -0.17700681 0.008459668 0.06711751 -0.17225547 0.10500214
-0.032669947 -0.06829759 -0.142926 0.07980803 -0.18146935 -0.13908023 0.066846475 -0.057659656
-0.25895303 -0.107045904 -0.062554136 0.018817998 0.028639944 0.08548365 0.0035878778 0.09627309
-0.07609808 0.010770504 -0.026741026 -0.10514916 0.03242738 -0.1703807 0.14464523 0.01553671
-0.21264417 0.044050932 -0.1650839 -0.022542572 0.00242465 -0.10658181 0.009433922 0.13502304
-0.032449283 0.099423476 0.00049674226 0.19256608 -0.11118133 0.035280038 -0.0013866405 0.020757373
0.10460546 -0.06843486 0.10050817 -0.15640968 -0.086153574 0.1443671 0.06725738 -0.054850355
-0.03835718 -0.08344813 0.17654103 -0.11600102 0.019668035 -0.035829164 0.018824544 0.012251576
-0.14459787 -0.2203683 -0.016205749 -0.15374197 -0.14695765 0.053890765 0.12459109 -0.015004586
-0.07114154 -0.119092375 0.20058961 0.0028797153 0.015355605 0.13269807 -0.025203329 -0.094368175
0.0414013 0.10366775 -0.027958723 0.115706444 0.2087197 0.11611296 -0.05935603 0.015400736
0.3033989 -0.01872126 -0.093166396 -0.14859214 0.0108138155 -0.17253545 0.006760136 0.10071033
-0.07781678 -0.09694455 0.02514852 0.12948276 -0.28008834 -0.07611661 -0.046698794 -0.07079588
0.030793142 0.13109283 -0.09229725 0.07279824 -0.08423313 0.053199343 0.023654524 0.00600336
0.07602468 0.023639994 -0.020481624 0.07546294 -0.014143344 0.026652623 -0.017027015 -0.25502163
0.13166542 -0.016882628 0.108182535 -0.14042507 -0.21025321 -0.22802213 -0.102575794 -0.039546955
0.109402105 0.011775376 0.0387948 -0.12063554 -0.038753048 0.09390512 -0.0027916504 0.038480386
-0.049996838 -0.022135314 0.011914318 0.0046711564 0.0082652075 0.048565418 0.005601704 0.037258167
0.010822625 -0.11478686 -0.029541343 0.094564654 -0.1207347 0.008669987 0.03687246 -0.099597596
-0.12819876 -0.027509645 0.10608412 0.084335126 -0.03457959 -0.09422888 -0.06638507 -0.012232588
-0.018732637 -0.11855544 -0.09159174 0.065794155 -0.0792401 0.10386558 0.055599157 -0.012135059
0.048167285 -0.13364656 -0.018951833 -0.018834004 -0.08525689 0.074391246 -0.023470536 0.06570977
-0.088430926 -0.077157244 0.032053873 -0.0054478343 -0.05531489 -0.108683154 -0.058161363 -0.021582678
0.101511054 0.11808328 -0.027545407 0.08123404 -0.07600647 -0.03849016 -0.047300175 -0.053203996
0.19742224 0.17249997 0.07361771 -0.17889932 0.19735594 0.013592176 -0.12843706 0.06551345
0.25282538 0.12730609 0.09830354 0.04517591 0.1499435 0.022276904 -0.0028328074 0.16663493
-0.111818716 0.17128631 -0.15342547 0.05846202 0.22539963 0.116334856 0.06422318 0.19643737
-0.028619533 -0.014713632 0.28417662 0.036690176 0.02756168 0.14961372 0.0071995305 0.10535004
0.22922353 0.00058263517 0.17079106 0.009544258 -0.07700535 0.04917141 -0.12707603 0.023983158
-0.06639263 0.13681854 0.027331788 -0.023812143 0.021762416 -0.10662204 -0.035782006 -0.061486192
0.10949445 0.0022622128 0.04788613 -0.034076933 0.067518994 -0.07497379 0.11524361 0.15446497
0.02579108 -0.0054918933 -0.03943109 -0.073192134 0.09970979 0.22800592 0.15172864 0.053198762

hidden_layers.3.bias f4 [32]
00000000: 7330 0f3e 7d71 0a3d 30fe aabd c0e7 9d3e
00000010: 511d fcbd f105 873e c329 db3d 888e 873d
00000020: ba93 dfbd ee33 873e 5a09 8fbc 0a5d 88be
00000030: d92d 053e ce19 f6bd 7092 9abd fe43 9c3e
00000040: 33ee aa3e 9fd1 eb3c 10d2 22bd a502 093e
00000050: 6799 eabd 5ecb 903e c60d babd 639f f83d
00000060: a6ba 9c3e 49d8 56be 8586 14be e36e 72bc
00000070: 756f 853b 01a2 02be 50b6 15be 4a6a a13d
0.13983326 0.033799637 -0.08349264 0.30840874 -0.12310279 0.2637172 0.10701325 0.066189826
-0.109168485 0.26406807 -0.017460514 -0.26633483 0.1300577 -0.120166406 -0.07547462 0.30520624
0.33384857 0.028786479 -0.039751112 0.13379915 -0.114550404 0.28280157 -0.09084658 0.121397756
0.3061115 -0.20980944 -0.1450444 -0.014796945 0.0040721246 -0.12757112 -0.14620328 0.07881601

v_layer.weight f4 [1, 32]
00000000: 2c63 853d c1ce 023e 081b 173c 2265 713e
00000010: cc49 db3d 096d 843e 9051 993b b6b9 493e
00000020: af68 2ebd 1d58 0e3e 1bc5 083e 1e0a 8abe
00000030: 6f1a 5c3e b449 b5bd ada3 183d f499 933e
00000040: a74e 6d3e 0a1f b63d cbf6 c63d 1ebd de3d
00000050: ff06 643d ea74 773e 9eb1 b4bd 4885 e93d
00000060: 1a8b 723e ca97 7dbe be2b 88bd 4930 bcbd
00000070: 235b 13be bf57 41bc 1c72 13bd d817 1f3e
0.06513056 0.12774183 0.009222753 0.23573735 0.10707435 0.25864437 0.0046789125 0.1969975
-0.042580303 0.139008 0.1335644 -0.26960844 0.21494459 -0.088519484 0.03726547 0.28828394
0.23174535 0.08892639 0.09715041 0.10875915 0.055670734 0.24165693 -0.0882294 0.114023745
0.23685876 -0.24764934 -0.06648968 -0.09188897 -0.14390235 -0.011800705 -0.035997495 0.1553644

adv_layer.weight f4 [4, 32]
00000000: b701 5dbd 6a3b 1f3e 8b6e 41bd fc96 b4bd
00000010: 78be b63a e28e 4fbe b44f 573e bf89 5fbe
00000020: e35c 113e e2eb 403e 85e1 9dbd 0008 23be
00000030: 0900 ce3d da94 a4bc 5599 adbd f535 03be
00000040: 60be 9abd 2e8c 66bb 8b72 e23d b66b 7a3b
00000050: 887e 2cbe b252 233e da0a 0a3e 655d 8ebe
00000060: c7de 1dbe 42e5 a03d 622b 3cbd 15f9 79be
00000070: c9d5 3f3c 44c5 c83d 3510 0fbe e5ce bcbd
00000080: 6397 0a3e 1ee2 5d3e 9c90 0cbc fa0b 0d3c
00000090: a0c6 bc3d 1468 253d 3441 973e 1d0c 0ebe
000000a0: e304 a7bd 563c fb3d ea1e cabc 88a2 b63c
000000b0: e0a0 50be 9a7a b73d a2c8 0e3d 3923 2bbe
000000c0: c9af ae3d 52df 383e 8002 7e3d 8f13 c5bd
000000d0: 85aa 083e 3c15 283d 1a6f 083e db6c 54be
000000e0: 7001 c63c 072a 573e 95b6 f33d 1701 2ebe
000000f0: 6743 eabd 779c d43c 7d66 8fbd 0908 e93d
00000100: 847e a6bd 340e a5be 5e79 e43c 8f4a fe3d
00000110: ff1c 9c3d ec99 75be 97b5 a3be 04c4 8abc
00000120: e15c 983c b916 f73c b36a cdbd ec21 3bbe
00000130: 38b8 873d 8b3f c33d 99e8 3bbe 8eb9 c83d
00000140: 216f 60bd 29ca 0e3e 703e 3b3e 19ac 46bd
00000150: f772 22bd e3e6 7cbe 845b 9fbd 3f88 47be
00000160: 8e92 17be 2fb6 febd 8626 f73d de68 4abe
00000170: 75da 7ebd ef07 8b3b 90e6 efbb d31c cfbb
00000180: 91ce 3c3e fc42 a0bd fe8a ccbd 1933 1fbe
00000190: 14b3 36be a34e 683d d4f0 22be 77e0 14be
000001a0: 27de 87bb 6d7d 3fbd ae59 0e3e 95eb 473d
000001b0: e23a 923c 40d8 89bd 8de4 823d 08af 13bd
000001c0: b6b5 aabd 22eb 14be ea76 d63d b0d5 acbe
000001d0: eeeb 3e3e 7986 b73d 8d88 fd3d 9c8c e5bd
000001e0: 86a9 703d 759e b43e a5eb 2cbd a109 12be
000001f0: 4c3c 02be b0c2 1bbe 588c cf3d 244f c939
-0.053956714 0.15550008 -0.047224563 -0.088178605 0.0013942262 -0.20269349 0.21026498 -0.2182989
0.1419559 0.18839982 -0.0770903 -0.1592102 0.100586005 -0.02009051 -0.084765114 -0.12813552
-0.075558424 -0.0035178768 0.110570036 0.0038211173 -0.16845143 0.15949515 0.13480702 -0.2780563
-0.15417014 0.078562275 -0.04593981 -0.24411424 0.011708685 0.098032504 -0.13971026 -0.092191495
0.13534312 0.21668288 -0.008579399 0.0086088125 0.09217572 0.04038246 0.29541934 -0.13871808
-0.08155229 0.122673675 -0.024672944 0.022294298 -0.20373869 0.08958931 0.034859307 -0.16712655
0.08529622 0.1805394 0.062014103 -0.09622871 0.13346298 0.041035876 0.13323632 -0.2074465
0.024170607 0.21012126 0.11900059 -0.16992603 -0.11438637 0.025953515 -0.0700197 0.11378486
-0.081296 -0.322374 0.027889904 0.12416565 0.07622718 -0.23984498 -0.3197448 -0.01693917
0.018598976 0.030162202 -0.10030117 -0.18274659 0.06626934 0.09533604 -0.18350448 0.09801017
-0.05479348 0.13944305 0.18285537 -0.04850397 -0.03966042 -0.24697451 -0.07781127 -0.19485568
-0.14802 -0.124370925 0.12067895 -0.19766566 -0.062220056 0.004242889 -0.0073211864 -0.006320575
0.18438174 -0.07825276 -0.09987448 -0.15546836 -0.1784175 0.05671562 -0.15912181 -0.14538752
-0.0041463557 -0.046750475 0.13901398 0.048808653 0.017850343 -0.067306995 0.06391249 -0.036055595
-0.0833544 -0.14542821 0.104719 -0.3375678 0.18644688 0.089611955 0.123795606 -0.1120846
0.05875542 0.35277143 -0.042216916 -0.14261486 -0.12718314 -0.15210986 0.1013419 0.00038396672

adv_layer.bias f4 [4]
00000000: 9b3c 0c3e 5e76 16be abd8 5abd da2b 03bd
0.13694994 -0.14693591 -0.053429287 -0.032024242
