dueling-dqn-checkpoint.pth (torch_old, 63079 bytes, 9 tensors)

hidden_layers.0.weight f4 [128, 37]
-0.075711556 0.1559223 -0.18131235 0.0646765 -0.054205578 0.13196069 -0.021615617 0.13831992
-0.18218368 -0.10010258 -0.08287552 0.08288312 -0.2785892 0.0154780755 0.08769417 -0.27173913
0.2755424 0.114512466 -0.20609184 -0.002972114 0.0700151 -0.07780838 0.1449643 0.22200668
-0.15666217 0.017121196 0.14693144 -0.073869646 -0.13820618 -0.10174056 -0.16640237 0.09927709
0.0066737197 0.050750937 0.029322257 -0.12731816 -0.05065484 0.21535408 0.04437859 0.090166606
0.08564194 -0.13372286 0.12337243 -0.15840295 -0.18509269 -0.060725745 -0.15034083 0.19769736
-0.04441354 -0.08714158 0.14330693 0.15387146 0.15311205 0.039630108 0.08003863 -0.105041675
0.0031608103 -0.070756264 -0.08058442 -0.092493646 0.07706429 -0.022718117 -0.035226855 0.14419931
0.04151064 -0.07229499 0.0149577325 0.07636616 0.18529876 0.1404157 -0.1486441 -0.1980351
0.09285204 0.059883874 -0.017402103 0.1145187 0.08107884 0.06376199 -0.03848189 -0.41574842
0.06485513 0.3155077 -0.086674474 -0.26127338 -0.2763919 0.120256186 -0.062669 0.0075180405
-0.039756075 -0.21180975 0.0778497 0.0029049967 0.18691619 0.033371467 -0.4089569 0.03560346
0.09727195 -0.11707022 -0.33262107 -0.22426844 0.23793857 0.11085154 0.043665938 -0.15380217
-0.40459558 0.054858148 0.013749937 -0.26392674 -0.32730597 -0.05073772 0.0071774665 -0.04555758
-0.008090176 0.19083896 0.12060591 -0.12132611 0.047317505 -0.06823046 0.10670944 0.045242313
0.35456797 -0.22838715 0.06563594 0.1708842 -0.13854757 0.072490126 -0.14491227 -0.13555017
0.04656439 -0.09308439 0.036794536 0.16150375 -0.35475934 -0.12997197 0.16043802 -0.51201534
0.022136578 -0.036820464 -0.07294489 0.21742165 0.32859287 0.1111564 0.15750988 -0.14041162
-0.104078576 -0.42453748 0.06639387 -0.0068261265 -0.11883711 0.010680353 -0.31968886 -0.08579785
-0.117644675 0.2349751 -0.15677775 -0.15318389 -0.3146755 -1.0066148 0.020902636 -0.24371883
-0.027481724 0.10334822 -0.2746495 -0.1515442 0.09775619 -0.032855846 -0.07480341 0.02862492
-0.096640445 -0.16084184 0.21014744 0.080316745 0.07931998 0.08728195 -0.067804724 0.0076644225
-0.051884163 -0.24049908 0.12665099 -0.056666788 0.017189164 0.05100344 0.071608044 0.16802865
0.051450916 0.07894101 -0.07840913 -0.03305253 -0.113528855 0.10388374 0.26150876 -0.219367
-0.18795583 -0.2689468 -1.139594 -0.0734335 -0.06772691 0.02840641 -0.17057848 -0.028775344
0.021512868 0.064154655 -0.003927464 -0.22220594 -0.06683672 0.14403452 -0.054226156 0.018071571
0.09968037 -0.047240216 -0.011436915 -0.010238112 0.06498411 -0.13926743 -0.17362371 0.059491135
-0.042154443 -0.26499894 0.0038304501 -0.26452062 -0.24364507 0.07321463 0.0887923 -0.07108061
-0.25638065 0.16565605 -0.16309415 -0.041183073 0.01197384 -0.07145019 -0.17036821 0.04493042
0.04431576 0.106666364 0.06434316 -0.20217636 0.15830411 -0.261202 -0.15275374 -0.0023020355
0.1692998 -0.06323547 -0.042477407 -0.107503936 0.089627504 -0.3315185 0.22367677 -0.31639993
0.016052121 -0.016320424 0.032154024 -0.14788453 0.17383648 -0.08703681 -0.22964157 -0.34986323
00000000: a90e 9bbd 18aa 1f3e f2a9 39be 1d75 843d
00000010: ab06 5ebd b420 073e 3c13 b1bc bda3 0d3e
00000020: 5c8e 3abe 9502 cdbd a4ba a9bd a0be a93d
00000030: 3ea3 8ebe c197 7d3c 0099 b33d 6421 8bbe
00000040: e513 8d3e 8385 ea3d bd09 53be ccc7 42bb
00000050: 1464 8f3d 005a 9fbd 8571 143e b855 633e
00000060: 0c6c 20be c041 8c3c 3275 163e f848 97bd
00000070: ec85 0dbe 5b5d d0bd 6265 2abe c951 cb3d
00000080: 38af da3b 37e0 4f3d 3b35 f03c b15f 02be
00000090: 737b 4fbd c885 5c3e 53c6 353d 45a9 b83d
000000a0: 0b65 af3d a5ee 08be afaa fc3d 6234 22be
000000b0: f088 3dbe 8fbb 78bd f2f2 19be 2d71 4a3e
000000c0: f9ea 35bd 4977 b2bd 0dbf 123e 7b90 1d3e
000000d0: 68c9 1c3e 2e53 223d 4beb a33d 1720 d7bd
000000e0: 9925 4f3b a9e8 90bd 7209 a5bd 4f6d bdbd
000000f0: e2d3 9d3d 581b babc 094a 10bd fca8 133e
00000100: 1007 2a3d 650f 94bd 4711 753c dc65 9c3d
00000110: f5be 3d3e 22c9 0f3e 2936 18be b7c9 4abe
00000120: 3629 be3d cb48 753d db8e 8ebc c888 ea3d
00000130: aa0c a63d a595 823d 309f 1dbd fadc d4be
00000140: c4d2 843d 3a8a a13e 6382 b1bd a0c5 85be
00000150: 3d83 8dbe e048 f63d 9b58 80bd e559 f63b
00000160: 44d7 22bd a8e4 58be aa6f 9f3d c261 3e3b
00000170: f566 3f3e 85b0 083d cc62 d1be efd4 113d
00000180: 8436 c73d 83c2 efbd 4f4d aabe a0a6 65be
00000190: 2ba6 733e 2206 e33d 0edb 323d 517e 1dbe
000001a0: 2727 cfbe f0b2 603d 6a47 613c 6821 87be
000001b0: a694 a7be 5bd2 4fbd f430 eb3b 969a 3abd
000001c0: a88c 04bc 4a6b 433e 3b00 f73d d379 f8bd
000001d0: 00d0 413d 69bc 8bbd 7b8a da3d 0150 393d
000001e0: ef89 b53e 52de 69be 236c 863d 45fc 2e3e
000001f0: 6adf 0dbe b475 943d e263 14be aacd 0abe
00000200: 4dba 3e3d 07a3 bebd deb5 163d 3d61 253e
00000210: 04a3 b5be 5f17 05be dd49 243e 7013 03bf
00000220: c557 b53c 0ed1 16bd 2164 95bd c8a3 5e3e
00000230: 533d a83e f7a5 e33d 454a 213e 10c8 0fbe
00000240: 2627 d5bd fa5c d9be 82f9 873d b3ad dfbb
00000250: df60 f3bd a6fc 2e3c 42ae a3be c8b6 afbd
00000260: b1ef f0bd 509d 703e 598a 20be 3ddc 1cbe
00000270: 261d a1be c1d8 80bf 013c ab3c 6e91 79be
00000280: 5a21 e1bc 3ba8 d33d dc9e 8cbe 672e 1bbe
00000290: 6634 c83d da93 06bd 8832 99bd cf7e ea3c
000002a0: 6deb c5bd b9b3 24be e430 573e 1b7d a43d
000002b0: 8472 a23d e1c0 b23d 34dd 8abd d625 fb3b
000002c0: 7d84 54bd 6445 76be ccb0 013e 6f1b 68bd
000002d0: 4ad0 8c3c fce8 503d 3da7 923d b40f 2c3e
000002e0: 32be 523d d3ab a13d f794 a0bd 1762 07bd
000002f0: d181 e8bd 00c1 d43d 7ae4 853e bea1 60be
00000300: 7e77 40be 65b3 89be 37de 91bf 4e64 96bd
00000310: 68b4 8abd 8fb4 e83c 20ac 2ebe 45ba ebbc
00000320: c13b b03c 8463 833d f5b1 80bb f489 63be
00000330: b1e1 88bd c97d 133e 3f1c 5ebd d50a 943c
00000340: 3925 cc3d f57e 41bd e661 3bbc c1bd 27bc
00000350: 6416 853d 1f9c 0ebe 6aca 31be faac 733d
00000360: 23aa 2cbd f1ad 87be 4a08 7b3b 3f6f 87be
00000370: 187e 79be 8df1 953d bdd8 b53d b692 91bd
00000380: 5344 83be bda1 293e 2702 27be 95af 28bd
00000390: ed2d 443c 7a54 92bd 0175 2ebe f608 383d
000003a0: 7184 353d e573 da3d 59c6 833d 5207 4fbe
000003b0: 791a 223e 45bc 85be 7a6b 1cbe bfdd 16bb
000003c0: ed5c 2d3e 9981 81bd cafc 2dbd 062b dcbd
000003d0: a08e b73d cbbc a9be 860b 653e 2cff a1be
000003e0: bd7f 833c 69b2 85bc f0b3 033d 0b6f 17be
000003f0: 3102 323e 5b40 b2bd 2927 6bbe 4621 b3be

hidden_layers.0.bias f4 [128]
0.002255253 0.087712735 -0.09227074 -0.077276796 0.010477171 -0.08090145 0.027743476 0.0629241
-0.13809805 0.018037735 -0.08619425 -0.20165265 -0.07903224 -0.009199501 -0.020715218 -0.108735815
0.0048417347 -0.10698065 -0.010714161 -0.005969638 -0.104934014 0.15708199 0.15683767 -0.043260634
-0.06564551 0.11636633 0.104337186 0.034394618 -0.052961953 -0.07001496 0.07252652 0.03326369
-0.11794441 0.040579606 -0.033446424 -0.2737233 0.08444518 0.13818547 -0.022514265 -0.05940594
0.012144395 0.076117665 0.14334778 0.05021144 0.0658073 -0.17311499 0.110728145 -0.01843507
-0.1789021 0.09066328 0.09361533 0.013794001 0.07701986 0.09530934 0.00523011 0.1154514
-0.21464747 -0.01257862 -0.017127234 -0.06401415 -0.20386247 0.030219495 0.051518966 -0.13128251
0.19986229 -0.024145056 0.038405407 -0.08512533 -0.131259 -0.061127376 -0.029171124 -0.10338708
0.13684344 -0.15349783 -0.089967154 0.06424438 0.15367387 -0.16492985 0.09173134 0.045748156
-0.019235918 0.08411927 0.042105943 -0.00021702718 -0.05239405 0.12090621 0.02939029 -0.0007045759
0.10242586 0.02190672 0.05696183 -0.08220495 -0.10256409 -0.1913739 -0.038492743 0.13375135
0.052422926 -0.25660503 -0.05717227 0.049182065 -0.17258362 -0.19824217 0.0874197 0.06315196
-0.22128074 -0.2544156 -0.10893169 0.01461681 -0.0946716 0.02597985 0.040631656 -0.09444859
-0.1148901 -0.17739253 -0.01488917 0.15935801 0.08666354 0.15484174 0.07645921 -0.08716588
0.0007890721 0.012289201 0.041179527 -0.23033977 -0.060002208 0.078589395 0.103808954 0.003480048
00000000: decc 133b bca2 b33d 71f8 bcbd 4c43 9ebd
00000010: 71a8 2b3c a9af a5bd 4946 e33c 5ade 803d
00000020: 9369 0dbe dfc3 933c 9c86 b0bd 087e 4ebe
00000030: a8db a1bd 81b9 16bc f6b2 a9bc e2b0 debd
00000040: 6aa7 9e3b ac18 dbbd 738a 2fbc f49c c3bb
00000050: a5e7 d6bd 1ada 203e 0e9a 203e 1032 31bd
00000060: 2771 86bd 7851 ee3d bcae d53d 5fe1 0c3d
00000070: a2ee 58bd 0164 8fbd c988 943d 823f 083d
00000080: d78c f1bd cd36 263d 1eff 08bd 7625 8cbe
00000090: 98f1 ac3d 7e80 0d3e d66f b8bc a553 73bd
000000a0: 49f9 463c 94e3 9b3d c3c9 123e 83aa 4d3d
000000b0: fac5 863d 0e45 31be 70c5 e23d 2505 97bc
000000c0: 1d32 37be abad b93d 65b9 bf3d 3c00 623c
000000d0: 97bc 9d3d 8b31 c33d 5861 ab3b c971 ec3d
000000e0: 8ccc 5bbe 8e16 4ebc 6a4e 8cbc da19 83bd
000000f0: 53c1 50be e08e f73c 8d05 533d ec6e 06be
00000100: b3a8 4c3e dacb c5bc fd4e 1d3d 3056 aebd
00000110: c268 06be b360 7abd 48f8 eebc 9bbc d3bd
00000120: b020 0c3e 892e 1dbe b340 b8bd 8f92 833d
00000130: af5c 1d3e 5fe3 28be a4dd bb3d 6b62 3b3d
00000140: a594 9dbc b946 ac3d 4877 2c3d ca91 63b9
00000150: 259b 56bd ad9d f73d e8c3 f03c 4ab3 38ba
00000160: a6c4 d13d b975 b33c cf50 693d 125b a8bd
00000170: 1f0d d2bd 85f7 43be 91aa 1dbd 1df6 083e
00000180: 6cb9 563d bc61 83be 782d 6abd 2273 493d
00000190: c3b9 30be ffff 4abe 1a09 b33d d155 813d
000001a0: 6b97 62be c342 82be 9417 dfbd 587b 6f3c
000001b0: 2fe3 c1bd b2d3 d43c 616d 263d 436e c1bd
000001c0: 804b ebbd 63a6 35be b5f1 73bc bf2e 233e
000001d0: a77c b13d d58e 1e3e a596 9c3d 0684 b2bd
000001e0: bbd9 4e3a a558 493c ddab 283d 30de 6bbe
000001f0: e0c4 75bd 7af3 a03d ca99 d43d 8411 643b

hidden_layers.1.weight f4 [64, 128]
-0.010156648 -0.0580612 -0.14715272 -0.0258739 -0.057469793 0.055492375 -0.097143844 0.1757951
0.006528292 0.035633493 -0.0030061966 -0.042490907 0.17804077 -0.040798116 0.11264933 -0.017434068
0.02008355 -0.02714226 -0.119213365 -0.1876365 0.023134634 0.025948144 -0.28542268 0.059884384
0.04643875 0.0840346 -0.10318749 -0.2312402 -0.07847793 0.11276348 0.019974746 0.07164407
0.009266786 -0.0010785253 0.12520471 -0.008407444 0.054909833 -0.10062903 0.2632708 -0.03209059
0.0639347 0.03376419 -0.020075534 0.13571034 -0.02739423 -0.024513626 -0.09723311 0.04767357
0.058883708 -0.11264429 -0.10058555 -0.34848514 0.019467462 0.050516248 -0.07649612 -0.066615365
-0.030674687 -0.25777182 0.11956573 0.09122338 0.0717545 0.09275269 0.24232991 -0.18388978
0.031758595 -0.17741911 0.06890097 -0.058978844 0.013041048 0.13966216 0.1450223 -0.008681837
-0.08851571 -0.037962116 -0.09162436 0.13791521 0.05066537 -0.16685341 0.06318197 0.031923033
-0.0015616728 -0.030574663 0.21200353 0.01194406 0.16344202 -0.031186055 -0.0029470392 0.09188559
0.03470199 0.11245013 0.12709244 -0.016473606 0.11036082 -0.09961637 -0.25158638 -0.060429934
-0.3492954 0.0061906055 -0.08434869 -0.089960635 0.104006246 0.037389845 0.0034422278 0.1552573
-0.020425018 0.04281602 0.043372467 -0.095074594 -0.011254168 -0.056537587 0.18348014 0.07630868
0.047155716 -0.052511897 -0.022019556 0.23937374 0.09102089 0.29393643 -0.2279275 0.023723878
0.18071595 -0.027177313 0.13271502 -0.07993739 0.14147547 -0.07962916 0.16757539 -0.04430191
0.07909486 0.16566159 0.06098878 -0.21821924 -0.28254342 -0.33415782 0.16612491 -0.28377005
-0.002173558 -0.052521735 0.03693892 -0.07859953 -0.10840103 -0.06357651 -0.1507174 -0.15700369
-0.24948502 -0.079875395 0.23326616 -0.03036195 -0.1180808 -0.09354323 0.07893173 -0.13529901
-0.07333527 0.0024762976 0.5115751 -0.3633149 -0.011053892 -0.17985769 -0.065426804 -0.15721019
-0.11223355 -0.12549928 0.02386744 -0.115229316 0.054711327 0.070054494 -0.117182374 -0.091219686
-0.13942741 0.041326065 0.25367898 -0.26530796 -0.05725399 0.07957588 0.04202732 -0.15114906
-0.14422175 0.16770206 0.07728717 0.041181985 -0.13141769 -0.11132501 0.12158134 -0.0011424024
-0.1337826 0.016684491 0.032355364 0.04700701 -0.079293996 -0.31472895 0.051164314 -0.17194088
0.081606165 0.1362712 -0.031038873 0.041661184 -0.020616505 0.13536693 0.08798549 -0.12774707
0.04878926 -0.084511094 -0.097170435 0.004500699 -0.14189841 -0.049815666 0.07222935 0.114992924
-0.03576575 0.029254017 0.013590793 -0.23594038 0.061631475 -0.008843831 0.26105052 -0.20712982
-0.0937133 -0.3469849 -0.088311866 -0.18257307 0.13252735 -0.19793057 -0.022039637 -0.04805252
0.11671842 -0.068094306 -0.064904794 -0.03272172 0.0073409653 -0.040510107 -0.078872435 -0.03359709
-0.019651737 -0.26256084 -0.0037715526 0.10369774 -0.039456747 -0.1628978 0.17628141 -0.21263148
-0.20988931 0.039811764 -0.057535782 0.07438572 -0.03138647 0.007997119 -0.20916635 -0.031306546
0.109192066 -0.09718306 0.10217631 -0.09415591 -0.102186106 0.024285132 -0.011502167 -0.12944907
00000000: 1268 26bc 95d1 6dbd 34af 16be 80f5 d3bc
00000010: 7265 6bbd f94b 633d 5af3 c6bd a103 343e
00000020: 48eb d53b 6df4 113d 9c03 45bb f20a 2ebd
00000030: 5250 363e ed1b 27bd b1b4 e63d e4d1 8ebc
00000040: 4286 a43c 7259 debc 2326 f4bd c823 40be
00000050: d884 bd3c 3491 d43c ec22 92be 5449 753d
00000060: 8f36 3e3d 551a ac3d f653 d3bd 3bca 6cbe
00000070: 09b9 a0bd 8af0 e63d 14a2 a33c 20ba 923d
00000080: b8d3 173c 4e5d 8dba aa35 003e 60bf 09bc
00000090: 22e9 603d 9816 cebd 6ecb 863e 6c71 03bd
000000a0: 32f0 823d 524c 0a3d 7275 a4bc a7f7 0a3e
000000b0: dd69 e0bc cdd0 c8bc 2722 c7bd 5d45 433d
000000c0: 0b30 713d 0db2 e6bd ccff cdbd a56c b2be
000000d0: 3a7a 9f3c 20ea 4e3d ffa9 9cbd a36d 88bd
000000e0: 7b49 fbbc abfa 83be e1de f43d 53d3 ba3d
000000f0: 06f4 923d 1ff5 bd3d 5525 783e 9a4d 3cbe
00000100: 4d15 023d 5bad 35be f41b 8d3d cd93 71bd
00000110: 1faa 553c 9903 0f3e ba80 143e 433e 0ebc
00000120: b947 b5bd 2a7e 1bbd 8da5 bbbd a539 0d3e
00000130: 7e86 4f3d 9fdb 2abe 8c65 813d bac1 023d
00000140: 0bb1 ccba b777 fabc 7417 593e 05b1 433c
00000150: 585d 273e e679 ffbc 1d23 41bb 832e bc3d
00000160: ad23 0e3d 414c e63d 8524 023e a8f3 86bc
00000170: db04 e23d ab03 ccbd eecf 80be 6185 77bd
00000180: d9d6 b2be 90da ca3b 02bf acbd 483d b8bd
00000190: 3a01 d53d 1826 193d 0097 613b c5fb 1e3e
000001a0: 5e52 a7bc da5f 2f3d 54a7 313d 78b6 c2bd
000001b0: 6763 38bc f593 67bd 38e2 3b3e ba47 9c3d
000001c0: 5a26 413d b716 57bd 5b62 b4bc 641e 753e
000001d0: 2969 ba3d d67e 963e d465 69be 9458 c23c
000001e0: 9a0d 393e f5a2 debc 72e6 073e 37b6 a3bd
000001f0: f2de 103e 9d14 a3bd e298 2b3e eb75 35bd
00000200: 7cfc a13d 31a3 293e 5fcf 793d dd74 5fbe
00000210: 88a9 90be bc16 abbe a61c 2a3e 4f4a 91be
00000220: 4172 0ebb 0821 57bd 444d 173d caf8 a0bd
00000230: 5c01 debd 6734 82bd a955 1abe 93c5 20be
00000240: 0079 7fbe b695 a3bd 53dd 6e3e a0b9 f8bc
00000250: 59d4 f1bd 9893 bfbd f5a6 a13d d38b 0abe
00000260: cd30 96bd 6149 223b 96f6 023f 6904 babe
00000270: 621b 35bc 9d2c 38be 7dfe 85bd b5fb 20be
00000280: b4da e5bd e282 00be a685 c33c 59fd ebbd
00000290: fc18 603d bb78 8f3d 50fd efbd 63d1 babd
000002a0: 0fc6 0ebe 8545 293d 36e2 813e 72d6 87be
000002b0: 2983 6abd aef8 a23d d724 2c3d d2c6 1abe
000002c0: deae 13be 17ba 2b3e bc48 9e3d 71ae 283d
000002d0: 5c92 06be 5efe e3bd a3ff f83d aabc 95ba
000002e0: 4efe 08be eaad 883c 0f87 043d 6c8a 403d
000002f0: e464 a2bd 2724 a1be ac91 513d 4511 30be
00000300: 2221 a73d ad8a 0b3e 3c45 febc eba4 2a3d
00000310: f2e3 a8bc a19d 0a3e bd31 b43d 21d0 02be
00000320: 3fd7 473d 2714 adbd 4b01 c7bd 9a7a 933b
00000330: d14d 11be 830b 4cbd fbec 933d 6981 eb3d
00000340: 1b7f 12bd 1fa6 ef3c ebab 5e3c 5b9a 71be
00000350: 4971 7c3d b7e5 10bc 6aa8 853e d719 54be
00000360: c2ec bfbd 01a8 b1be dadc b4bd 6ff4 3abe
00000370: 40b5 073e 50ae 4abe 788c b4bc b8d2 44bd
00000380: 110a ef3d 0775 8bbd ceec 84bd 3607 06bd
00000390: 7b8c f03b eded 25bd df87 a1bd 1a9d 09bd
000003a0: aefc a0bc 606e 86be 272c 77bb 7b5f d43d
000003b0: 669d 21bd aece 26be 1d83 343e 11bc 59be
000003c0: 39ed 56be a911 233d a4aa 6bbd 8a57 983d
000003d0: 198f 00bd 5906 033c b42f 56be 4b3b 00bd
000003e0: 17a0 df3d ea07 c7bd d041 d13d d0d4 c0bd
000003f0: f346 d1bd 9df1 c63c 9673 3cbc 4c8e 04be

hidden_layers.1.bias f4 [64]
-0.0013111511 0.0036316556 -0.026515005 0.1002619 0.111426875 -0.080121756 0.07351013 0.16378133
0.019137284 -0.021066628 0.007764865 -0.020997772 -0.09000542 -0.13586198 -0.12135313 0.11351978
0.16773163 0.049112454 -0.11228247 -0.096941635 -0.01282446 0.06393532 -0.02094106 0.05981044
0.10449378 0.12386412 -0.01805667 0.08399768 -0.016404228 0.123067446 0.02237654 0.0941048
0.013389242 0.022908572 0.112817355 -0.0050635207 0.0021317892 -0.023330217 -0.003408277 -0.04124255
0.0058107264 0.25416893 0.14387843 -0.060963728 0.06873464 0.16787438 -0.02061348 -0.060532346
-0.02668344 -0.09710972 0.096619084 -0.097807705 -0.114155784 0.055637944 -0.052648447 0.015620717
-0.04404275 -0.014312078 0.122854 0.024722833 -0.029751455 -0.10750578 -0.13739933 -0.08883869
00000000: eeda abba 1201 6e3b ff35 d9bc 1c56 cd3d
00000010: c633 e43d e016 a4bd 7b8c 963d 4bb6 273e
00000020: cbc5 9c3c ec93 acbc 6970 fe3b 8503 acbc
00000030: c354 b8bd 671f 0bbe fd87 f8bd 0f7d e83d
00000040: d7c1 2b3e 242a 493d 5af4 e5bd 5689 c6bd
00000050: af1d 52bc 85f0 823d 968c abbc cbfb 743d
00000060: d600 d63d 79ac fd3d 95eb 93bc fa06 ac3d
00000070: 2962 86bc c90a fc3d 014f b73c 04ba c03d
00000080: 8d5e 5b3c c2aa bb3c c90c e73d e4eb a5bb
00000090: 7db5 0b3b 031f bfbc 665d 5fbb f3ed 28bd
000000a0: e867 be3b 6e22 823e de54 133e 1ab5 79bd
000000b0: bfc4 8c3d 43e7 2b3e 9add a8bc c4f0 77bd
000000c0: 3b97 dabc 76e1 c6bd 3ae0 c53d 684f c8bd
000000d0: 82ca e9bd 9de4 633d e6a5 57bd 09ee 7f3c
000000e0: 2c66 34bd 357d 6abc e19a fb3d 8a87 ca3c
000000f0: 53b9 f3bc fe2b dcbd 69b2 0cbe 0ff1 b5bd

hidden_layers.2.weight f4 [32, 64]
0.04326846 0.06917851 0.05370537 0.022268504 -0.0330426 -0.0917291 0.06458348 -0.018906148
-0.032817643 -0.11885563 0.15228997 0.070391014 -0.046521377 0.042296086 0.08543768 -0.008943386
-0.11358982 -0.10894518 0.027017206 0.047077205 -0.11388148 0.029464388 0.08747673 -0.042319603
-0.14378317 -0.09164885 0.052557014 -0.048947763 -0.050467078 -0.105458334 -0.07296463 0.071313046
0.054706067 0.012930477 0.06255325 -0.090217315 -0.05756964 0.05141688 -0.09912589 0.045365408
0.06069618 -0.02760162 -0.12915306 0.10365104 -0.06509627 -0.037524953 0.0828007 -0.07236417
0.11124941 -0.0041634305 -0.110677086 -0.05789956 -0.110268384 0.07365438 0.06826329 -0.04457921
-0.12001336 0.04811991 0.057053607 0.10228503 -0.044120576 0.04757428 0.0528988 -0.023946987
0.004989053 0.0707766 0.0020674162 -0.031776763 0.04341924 0.0016358633 -0.050545458 -0.020013502
0.0630806 0.1167066 -0.033000633 0.0885041 0.116255045 0.06511893 0.06273857 -0.11226029
-0.064626954 -0.05709787 0.12169172 0.01539833 -0.10894944 -0.10798157 -0.11536164 -0.09819675
-0.08383973 -0.07453871 0.08613078 -0.059159923 0.10673953 -0.036070593 -0.10733539 -0.05430643
-0.059440866 -0.09440968 -0.12511148 -0.0039520278 -0.10165959 -0.04067215 -0.038787402 -0.07642242
-0.00923672 -0.10416486 -0.047826525 0.10326131 0.10967563 0.0024072833 0.01899219 0.106028214
0.11287464 -0.062256698 0.015699476 -0.02750815 -0.091598496 0.10252229 0.09269172 -0.001661741
0.09959952 0.025409155 0.07586916 0.04696516 0.05075976 0.037678108 0.057694048 0.1040059
0.027570987 -0.09329599 0.03571448 0.09963327 0.0823159 0.059543576 -0.026768116 0.1067083
0.0010082072 -0.07677663 -0.003914922 0.08291193 -0.124007314 -0.03956341 0.08421695 -0.052284442
-0.0778177 -0.047256827 0.036559846 -0.10453706 -0.016630696 -0.01717597 0.02301161 0.011429483
0.052186675 -0.014657638 0.05368263 0.07556003 -0.093443096 -0.055173516 0.044800427 -0.03559435
-0.048053633 -0.022438623 -0.042347245 -0.06053223 -0.017665911 0.09290901 0.047196068 0.05870336
0.042917196 -0.10430503 -0.13449658 -0.02920355 0.0022964827 -0.031772994 -0.10234104 -0.10146371
-0.013801309 0.080355994 -0.0075317095 0.08673436 -0.06761616 0.09324193 -0.09356262 0.08436345
-0.017478408 0.114297986 0.0853249 -0.084719695 -0.018585207 -0.042221177 -0.015490186 -0.063134454
-0.060960434 -0.08555558 0.06811216 0.05728789 -0.006133149 -0.003804192 -0.08507766 -0.12459021
-0.11521648 -0.107765555 -0.10284874 0.048705954 -0.10353071 0.07217563 0.075068526 -0.03993901
-0.0024384928 0.042725403 -0.11335331 0.107971445 0.07828569 0.101550154 -0.045185424 0.040027045
-0.078621365 0.006307302 0.09267443 0.003298379 0.015655523 -0.071563065 -0.08466332 0.05824167
-0.122899614 0.026871802 -0.058240514 -0.04279466 -0.13263789 -0.08616973 -0.07134676 0.0052855946
0.03418117 -0.14341421 -0.07009727 -0.12670778 0.062283657 -0.13732967 -0.028950593 -0.032434855
-0.10774096 0.08717299 0.04726668 0.031046007 0.08811866 -0.079313315 0.050336838 0.080990985
-0.041171584 -0.010231152 -0.00015023502 -0.13381825 -0.013303131 -0.014953971 -0.09943636 0.091442466
00000000: 453a 313d 76ad 8d3d 29fa 5b3d 706c b63c
00000010: ad57 07bd 77dc bbbd 5844 843d 11e1 9abc
00000020: cb6b 06bd 956a f3bd e7f1 1b3e 2a29 903d
00000030: 338d 3ebd a93e 2d3d f3f9 ae3d 4887 12bc
00000040: c8a1 e8bd a71e dfbd 3053 dd3c 07d4 403d
00000050: b23a e9bd 4d5f f13c 0027 b33d 5257 2dbd
00000060: e53b 13be 64b2 bbbd 0646 573d 737d 48bd
00000070: 91b6 4ebd 8afa d7bd 7b6e 95bd 930c 923d
00000080: 7813 603d 5ada 533c eb1b 803d dbc3 b8bd
00000090: 25ce 6bbd 829a 523d 8402 cbbd 14d1 393d
000000a0: 8f9c 783d cb1c e2bc b340 04be ff46 d43d
000000b0: 3151 85bd c4b3 19bd 6a93 a93d aa33 94bd
000000c0: bbd6 e33d 636d 88bb abaa e2bd 1728 6dbd
000000d0: 64d4 e1bd 1cd8 963d a0cd 8b3d b198 36bd
000000e0: 91c9 f5bd 6219 453d 0bb1 693d d07a d13d
000000f0: c7b7 34bd 40dd 423d 69ac 583d 792c c4bc
00000100: 367b a33b 52f3 903d 7d7d 073b 5a28 02bd
00000110: 5fd8 313d 776a d63a c108 4fbd 5bf3 a3bc
00000120: 6730 813d df03 ef3d ac2b 07bd a341 b53d
00000130: 2017 ee3d 135d 853d 147d 803d b9e8 e5bd
00000140: 235b 84bd 75df 69bd 8239 f93d 4749 7c3c
00000150: e220 dfbd 7125 ddbd b942 ecbd 611b c9bd
00000160: 2ab4 abbd c0a7 98bd 5665 b03d ad51 72bd
00000170: 419a da3d c2be 13bd a8d2 dbbd 6b70 5ebd
00000180: 4478 73bd dd59 c1bd 391d 00be 0380 81bb
00000190: e732 d0bd d797 26bd 8adf 1ebd 5c83 9cbd
000001a0: 9d55 17bc 6354 d5bd bfe5 43bd aa7a d33d
000001b0: 9e9d e03d 83c3 1d3b 8295 9b3c 5225 d93d
000001c0: d22a e73d e100 7fbd 309c 803c c658 e1bc
000001d0: fe97 bbbd 35f7 d13d 28d5 bd3d c6ce d9ba
000001e0: d5fa cb3d dc26 d03c 4a61 9b3d 8a5e 403d
000001f0: 77e9 4f3d 5c54 1a3d 9850 6c3d 0c01 d53d
00000200: 8ddc e13c f811 bfbd 5949 123d 870c cc3d
00000210: 3d95 a83d f7e3 733d cf48 dbbc e289 da3d
00000220: d225 843a 113d 9dbd bf48 80bb bbcd a93d
00000230: 8cf7 fdbd 3e0d 22bd f079 ac3d 3628 56bd
00000240: e35e 9fbd 6090 41bd c7bf 153d 8717 d6bd
00000250: 193d 88bc 9fb4 8cbc d882 bc3c ba42 3b3c
00000260: b2c1 553d 9726 70bc 51e2 5b3d 38bf 9a3d
00000270: 185f bfbd a0fd 61bd a780 373d 62cb 11bd
00000280: e3d3 44bd 34d1 b7bc 4e74 2dbd a5f0 77bd
00000290: 1ab8 90bc 1447 be3d aa50 413d ef72 703d
000002a0: f1c9 2f3d e09d d5bd 79b9 09be 493c efbc
000002b0: 9680 163b 6624 02bd 2e98 d1bd 35cc cfbd
000002c0: e31e 62bc af91 a43d 8fcc f6bb c9a1 b13d
000002d0: 577a 8abd a0f5 be3d c29d bfbd bfc6 ac3d
000002e0: e12e 8fbc 1015 ea3d d2be ae3d 8581 adbd
000002f0: 0140 98bc 1df0 2cbd 8dca 7dbc a34c 81bd
00000300: a6b1 79bd c437 afbd 637e 8b3d b5a6 6a3d
00000310: 95f8 c8bb c04f 79bb 323d aebd 2729 ffbd
00000320: 9ef6 ebbd 30b4 dcbd 5ca2 d2bd e57f 473d
00000330: e907 d4bd d1d0 933d 87bd 993d 1697 23bd
00000340: 1fcf 1fbb d500 2f3d c825 e8bd 2220 dd3d
00000350: 3f54 a03d 87f9 cf3d 5a14 39bd 66f3 233d
00000360: 3d04 a1bd 7cad ce3b 17cc bd3d 9e29 583b
00000370: 0340 803c a88f 92bd f663 adbd d18e 6e3d
00000380: cbb2 fbbd 4122 dc3c 9b8d 6ebd 7449 2fbd
00000390: 3ad2 07be c179 b0bd 401e 92bd c832 ad3b
000003a0: 8e01 0c3d 2ddb 12be 288f 8fbd afbf 01be
000003b0: 261d 7f3d 26a0 0cbe cb29 edbc 69da 04bd
000003c0: 4ba7 dcbd c187 b23d b59a 413d 3254 fe3c
000003d0: 8e77 b43d 056f a2bd 002e 4e3d 9ade a53d
000003e0: 89a3 28bd 90a0 27bc 6888 1db9 a707 09be
000003f0: 60f5 59bc 8001 75bc 4aa5 cbbd 3046 bb3d

hidden_layers.2.bias f4 [32]
-0.049665123 -0.07129247 -0.031261344 -0.14900267 -0.028464183 -0.09173013 0.35020095 0.09052126
-0.09629958 0.26087776 -0.08733874 -0.07714087 0.09391337 0.3664134 0.08503443 -0.028431281
0.0833597 0.034134414 0.033070024 -0.16933747 -0.005959473 -0.11145358 0.094305746 -0.024348091
-0.04489633 -0.094789535 0.11541552 -0.06877492 -0.20175062 0.24765572 0.16878086 0.02334741
00000000: a86d 4bbd c901 92bd e50b 00bd 2894 18be
00000010: b82d e9bc 02dd bbbd 8a4d b33e 3663 b93d
00000020: b738 c5bd c591 853e a7de b2bd 08fc 9dbd
00000030: a755 c03d 8a9a bb3e 8826 ae3d b8e8 e8bc
00000040: 7eb8 aa3d 87d0 0b3d 6f74 073d cd66 2dbe
00000050: af47 c3bb c641 e4bd 5f23 c13d a675 c7bc
00000060: 37e5 37bd 0421 c2bd f95e ec3d ded9 8cbd
00000070: b797 4ebe 7699 7d3e e4d4 2c3e 1143 bf3c

v_layer.weight f4 [1, 32]
0.0434926 -0.07544893 -0.019762157 0.06324497 -0.15637411 0.07955711 0.25304794 0.02321947
0.070815496 0.27088907 -0.005885283 -0.13840693 -0.10441589 0.23923346 -0.18073085 0.09059119
0.10649408 -0.11500117 0.05391975 -0.0817558 0.06355456 0.06766219 0.078580715 -0.13389526
0.0073580635 0.006132912 0.15396385 0.12872261 -0.17184868 0.30053166 0.26449504 -0.07360444
00000000: 4c25 323d f884 9abd 3fe4 a1bc 9486 813d
00000010: 8920 20be d7ee a23d 808f 813e c236 be3c
00000020: b707 913d f9b1 8a3e 55d9 c0bb 8cba 0dbe
00000030: 00d8 d5bd 9ef9 743e 8211 39be e087 b93d
00000040: 9119 da3d bc85 ebbd f5da 5c3d 966f a7bd
00000050: e528 823d 7992 8a3d edee a03d d71b 09be
00000060: e91b f13b 98f6 c83b b3a8 1d3e dccf 033e
00000070: 1af9 2fbe 49df 993e e56b 873e edbd 96bd

adv_layer.weight f4 [4, 32]
0.030544544 -0.1302922 -0.00064249116 -0.074190475 0.13965955 -0.014479389 -0.03942316 0.066444166
-0.08529367 -0.19780505 0.097327165 -0.20529196 0.052810717 0.06287685 -0.22851335 -0.010318801
0.1257163 -0.0017062515 0.07577591 -0.22763927 -0.1220321 0.11577813 0.19196717 0.22513366
-0.17914015 -0.08300449 -0.009325835 0.08864832 -0.063298084 -0.08186067 0.08300369 0.045138553
-0.11903601 0.017449202 0.008178751 0.044090398 -0.026340626 0.14221704 -0.14248155 -0.091704175
0.036864888 -0.090204045 -0.0502411 -0.025518078 -0.011035042 0.08651237 0.03970786 -0.08884382
0.10648632 -0.079732 0.15649368 0.1409892 0.016315302 0.11151483 0.18061092 -0.010884185
-0.06824132 -0.04679052 -0.00892888 -0.1306566 -0.18622304 -0.03808656 -0.007576486 -0.14426664
0.044311073 -0.0111217825 -0.044673897 -0.07171294 -0.052818503 0.030138422 -0.06932496 -0.15612791
-0.09051743 -0.04372634 -0.14154156 0.05533976 -0.11844041 0.13882944 -0.21179824 -0.07500998
-0.18888365 -0.081709094 -0.14032027 0.021186054 -0.06780824 0.0278183 -0.16075492 -0.013402318
-0.26043156 -0.13761732 -0.18992056 -0.120831445 0.0084412135 0.09398583 0.011995216 0.025054283
0.104570456 -0.014325118 0.07964817 -0.071919456 0.047259722 -0.044776645 0.11680651 0.083433665
0.08519747 -0.10893008 -0.05857595 -0.19377837 -0.13755137 -0.0009931388 0.03895793 -0.3012127
-0.19100232 0.07022943 0.112699255 0.03552244 0.09648231 -0.040625513 0.10736044 -0.23044504
-0.04387439 0.08539362 0.23453921 -0.0471089 -0.10405686 0.05062945 0.048654787 0.08308171
00000000: 8d38 fa3c 526b 05be da6c 28ba 2df1 97bd
00000010: ea02 0f3e f63a 6dbc 2e7a 21bd e113 883d
00000020: 73ae aebd 688d 4abe 7753 c73d 0e38 52be
00000030: 0d50 583d 94c5 803d 67ff 69be 3010 29bc
00000040: c6bb 003e 4da4 dfba 6630 9b3d 451a 69be
00000050: f7eb f9bd 161d ed3d 0b93 443e 7089 663e
00000060: 8470 37be 42fe a9bd 63cb 18bc 408d b53d
00000070: 6da2 81bd 91a6 a7bd d7fd a93d 34e3 383d
00000080: 27c9 f3bd a1f1 8e3c 2b00 063c 2298 343d
00000090: 4cc8 d7bc 58a1 113e afe6 11be 66cf bbbd
000000a0: a3ff 163d e6bc b8bd 9dc9 4dbd 4a0b d1bc
000000b0: 52cc 34bc 662d b13d b6a4 223d c0f3 b5bd
000000c0: 8015 da3d 884a a3bd e13f 203e 795f 103e
000000d0: aba7 853c e361 e43d 12f2 383e 9553 32bc
000000e0: 1bc2 8bbd 6ba7 3fbd 704a 12bc d8ca 05be
000000f0: 41b1 3ebe a700 1cbd 2c44 f8bb a2ba 13be
00000100: 877f 353d 2338 36bc fafb 36bd 3cde 92bd
00000110: 3758 58bd dae4 f63c 3ffa 8dbd ffdf 1fbe
00000120: 3461 b9bd 641a 33bd 45f0 10be f2ab 623d
00000130: e390 f2bd 4e29 0e3e a3e1 58be d59e 99bd
00000140: b76a 41be 1957 a7bd 1eb0 0fbe 608e ad3c
00000150: 0cdf 8abd 34e3 e33c f09c 24be 6595 5bbc
00000160: 4957 85be 8eeb 0cbe 897a 42be 7a76 f7bd
00000170: 044d 0a3c a57b c03d 9587 443c a43e cd3c
00000180: 0929 d63d e6b3 6abc 941e a33d 824a 93bd
00000190: 6993 413d b767 37bd 4038 ef3d 45df aa3d
000001a0: 037c ae3d bc16 dfbd 56ed 6fbd d66d 46be
000001b0: 44da 0cbe 352c 82ba 5a92 1f3d 8d38 9abe
000001c0: 1d96 43be 73d4 8f3d dece e63d fa7f 113d
000001d0: 8498 c53d f066 26bd cadf db3d c9f9 6bbe
000001e0: a2b5 33bd dae2 ae3d 0c2b 703e 43f5 40bd
000001f0: c31b d5bd d360 4f3d 3e4a 473d be26 aa3d

adv_layer.bias f4 [4]
0.07234984 -0.017015114 -0.2254516 -0.10611377
00000000: 272c 943d 4863 8bbc c9dc 66be 2d52 d9bd
