mini-rainbow-dqn-checkpoint.pth (torch_old, 63079 bytes, 9 tensors)

hidden_layers.0.weight f4 [128, 37]
0	0x3d2689a8	0.040658623
1	0x3e21abee	0.15788242
2	0xbe324490	-0.17408967
3	0xbe6038d5	-0.2189668
4	0xbda82de7	-0.0821188
5	0xbd1495e9	-0.036275778
6	0xbe201827	-0.15634213
7	0x3eaa4d8f	0.33262298
8	0x3d1f3dda	0.038877346
9	0x3c33ba1c	0.010969665
10	0xbcfd3390	-0.030908376
11	0xbda34410	-0.07971966
12	0xbdfc5594	-0.1232101
13	0xbe2bab4f	-0.16764568
14	0xbdc2fa30	-0.09520376
15	0x3e117437	0.14204489
16	0xbf0678f5	-0.52528316
17	0x3eb5e11b	0.35523304
18	0xbe1c7706	-0.15279779
19	0xbea0193e	-0.31269258
20	0x3dc6e7a1	0.097121485
21	0xbdc07516	-0.09397332
22	0x3e5592b9	0.20856752
23	0x3e5abeb0	0.21361804
24	0xbea448a0	-0.32086658
25	0x3b5f7cd9	0.0034101515
26	0x3e3ff1c3	0.18744569
27	0xbea8e61f	-0.32988068
28	0x3e198314	0.14991409
29	0xbea15f05	-0.31517807
30	0xbdce7d86	-0.100825354
31	0x3e180907	0.14847194
32	0xbdf502a5	-0.11963395
33	0x3c015c6e	0.007895572
34	0xbde41962	-0.11137654
35	0xbd92e459	-0.0717246
36	0x3c2d23f2	0.010567652
37	0x3e3a164c	0.18172568
38	0x3e8b2755	0.27178445
39	0xbd96886b	-0.073502384
40	0xbe93fdf6	-0.28904694
41	0xbe3c67b9	-0.18398942
42	0x3d9fa37c	0.07794854
43	0xbe54d1dd	-0.20783181
44	0xbda22a2d	-0.07918201
45	0xbd9b7093	-0.07589831
46	0xbda1baf6	-0.07896988
47	0x3da21fc3	0.07916214
48	0xbcad4481	-0.02115083
49	0xbe2f2ae2	-0.17106202
50	0x3de7da27	0.11320906
51	0x3e71ab63	0.23600535
52	0x3e401931	0.1875961
53	0xbe67dbc9	-0.22642435
54	0x3dc468d5	0.095903076
55	0xbe8efbb4	-0.2792641
56	0xbeb29518	-0.34879375
57	0xbe1a0385	-0.15040405
58	0xbe149601	-0.14510347
59	0xbc77f464	-0.015133951
60	0xbe0a7d90	-0.13524461
61	0x3e06872c	0.13137501
62	0xbe919b18	-0.2843864
63	0x3e5346dd	0.20632501
64	0x3e10b8ae	0.1413295
65	0xbdb7798a	-0.089587286
66	0x3e94626e	0.28981346
67	0xbcb73875	-0.022365788
68	0x3d5b9412	0.053608008
69	0x3e04bcba	0.12962618
70	0xbdbe8bd8	-0.09304017
71	0xbe42854f	-0.18996166
72	0x3e9a7bb0	0.3017249
73	0xbb7abe93	-0.0038260564
74	0x3c16c10c	0.009201299
75	0x3e1d7bf7	0.1537932
76	0x3e2e8c66	0.17045745
77	0xbe67c3c7	-0.22633277
78	0x3dc3a445	0.09552816
79	0xbe6caba3	-0.23112349
80	0xbe6239c8	-0.22092354
81	0x3c7eb41b	0.01554587
82	0x3eabd0be	0.33557695
83	0xbeb29db7	-0.34885952
84	0xbd706758	-0.058692306
85	0x3db6fc72	0.08934869
86	0xbd9597e4	-0.073043615
87	0xbe881368	-0.26577306
88	0x3df5f82a	0.12010224
89	0xbe8e5cfa	-0.2780531
90	0x3df4ad7b	0.11947151
91	0x3e6cd4bd	0.23128028
92	0xbd19f0a4	-0.03758301
93	0x3ed34c53	0.41269168
94	0xbe9e5465	-0.30923763
95	0x3d9bcb0f	0.0760709
96	0xbd5cb860	-0.05388677
97	0x3e285d94	0.16441947
98	0xbe3790cd	-0.17926331
99	0xbeae5d39	-0.34055498
100	0xbd7025fe	-0.058629982
101	0x3e81b785	0.25335327
102	0xbc323677	-0.010877243
103	0xbd57e398	-0.052707285
104	0xbe8ba60a	-0.27275115
105	0xbda35b16	-0.07976358
106	0xbdc6a5db	-0.09699603
107	0xbe078112	-0.1323283
108	0xbdfd2ab5	-0.12361661
109	0xbdde67f2	-0.1085967
110	0xbd9592f4	-0.0730342
111	0x3e327e13	0.17430906
112	0xbdf2c0c9	-0.11853177
113	0x3c5999d6	0.013281306
114	0x3e44ddcb	0.19225232
115	0x3cb5a8dc	0.022175245
116	0xbe3440e6	-0.17602882
117	0xbe65d63f	-0.2244501
118	0x3deec4ba	0.11658616
119	0x3e78de99	0.24303664
120	0x3edcdce4	0.43137276
121	0xbd40a2a5	-0.04703011
122	0xbe22c223	-0.1589437
123	0x3d96212f	0.07330548
124	0x3c83cae4	0.016087957
125	0xbe3aea3e	-0.18253419
126	0x3d8ae78d	0.06782446
127	0xbe52c086	-0.20581254
128	0xbe0adb2c	-0.1356017
129	0xbdf28062	-0.11840893
130	0xbe16d3c6	-0.14729223
131	0x3dd1273d	0.10212562
132	0xbe7d3ca9	-0.24730171
133	0xbdb63a40	-0.08897829
134	0x3e8a6c73	0.27035865
135	0xbe0584b6	-0.13038906
136	0x3d0ad734	0.03389664
137	0xbd99d3c5	-0.07511095
138	0xbdb9ec0d	-0.09078226
139	0x3d9f594b	0.07780703
140	0x3e024ee8	0.12725413
141	0x3e1c2c56	0.15251288
142	0xbe172a66	-0.14762267
143	0x3ddd8713	0.10816779
144	0x3d05eea0	0.032698274
145	0xbe0d6ba5	-0.13810594
146	0x3e85c385	0.26125732
147	0x3c46c370	0.012131557
148	0xbdd7aa96	-0.105305836
149	0xbe14a679	-0.1451663
150	0xbe10a845	-0.1412669
151	0xbd81ab58	-0.06331509
152	0x3d1e48d1	0.038643662
153	0xbc8fea03	-0.01756764
154	0xbd8ea586	-0.06965165
155	0xbca3cde5	-0.01999564
156	0x3ec33beb	0.3813165
157	0x3f56fb66	0.83977354
158	0xbe21851e	-0.15773436
159	0x3d1b7be5	0.037959952
160	0xbaab6fd0	-0.0013079587
161	0xb9b8f376	-0.00035276607
162	0xbe033da4	-0.12816483
163	0xbd218181	-0.039430145
164	0xbe4e744e	-0.20161554
165	0xbd00e232	-0.031465717
166	0xbccda91f	-0.025105057
167	0x3e3321bc	0.17493337
168	0xbe1690a3	-0.14703612
169	0x3d35c6fb	0.044379216
170	0x3dbe7b36	0.09300844
171	0x3d91d185	0.07120041
172	0x3ea8f52c	0.3299955
173	0xbd4ceb8e	-0.05002933
174	0xbeee53a5	-0.4654819
175	0x3d97493b	0.073870145
176	0x3e8f2641	0.27958873
177	0x3e28daed	0.16489764
178	0x3e69b278	0.22821987
179	0xbed24ea2	-0.41075617
180	0xbda7fb46	-0.082022235
181	0x3e2de1f2	0.16980723
182	0x3eefee78	0.46861625
183	0xbcf4c12e	-0.029877272
184	0xbb8c9f04	-0.004291417
185	0x3e2c858a	0.16847816
186	0xbe8401f0	-0.25782728
187	0x3df03013	0.117279194
188	0xbe8e9666	-0.2784912
189	0x3d8da6e6	0.06916599
190	0xbd9ebe00	-0.077510834
191	0x3e9f0c46	0.3106405
192	0xbe30c90e	-0.17264196
193	0x3e51074f	0.20412944
194	0x3f08277d	0.53185254
195	0x3da6425a	0.08118124
196	0xbe7f0b39	-0.24906625
197	0x3bf2736c	0.0073990133
198	0x3ca85eda	0.020553041
199	0x3de86896	0.11348073
200	0xbd7bb25e	-0.0614494
201	0x3e0a77eb	0.13522308
202	0xbd7673f8	-0.06016919
203	0xbdd96912	-0.10615744
204	0xbcce5a5f	-0.025189577
205	0x3e6b0e23	0.22954611
206	0xbd7a8706	-0.061163925
207	0x3ca1680e	0.019702937
208	0x3e41cacc	0.18925017
209	0x3ec87728	0.3915341
210	0xbdcc9148	-0.09988648
211	0x3de68ffb	0.11257931
212	0xbd414283	-0.04718257
213	0x3c865914	0.016399898
214	0x3ea7f872	0.32806736
215	0x3e4e74d6	0.20161757
216	0xbea6fc9d	-0.32614604
217	0xbec01e37	-0.37523052
218	0x3e842752	0.2581125
219	0xbecbb9fb	-0.3979033
220	0x3d1f6f34	0.03892441
221	0xbcd969d0	-0.026539713
222	0x3e1daac1	0.15397169
223	0xbd557da8	-0.05212179
224	0xbebaafff	-0.364624
225	0x3e1abd2a	0.15111223
226	0xbedeb3b7	-0.43496487
227	0xbeba5dc0	-0.3639965
228	0xbdd4c5a4	-0.103892595
229	0xbd89fbed	-0.06737504
230	0x3e6354ac	0.22200269
231	0x3e3b300a	0.18280044
232	0x3db19df0	0.08672702
233	0x3dd7af90	0.10531533
234	0x3cdd7352	0.027032528
235	0xbe042b4c	-0.12907141
236	0x3cb5f9ac	0.02221378
237	0xbe7bee8d	-0.24602719
238	0xbdca5102	-0.09878732
239	0x3e2d604f	0.1693127
240	0xbd9c9967	-0.07646447
241	0x3e860172	0.26172978
242	0xbeb54332	-0.35402828
243	0x3d5b06b8	0.053473204
244	0x3d4ee13e	0.050507776
245	0xbb76776e	-0.0037607807
246	0x3def8497	0.116952114
247	0xbe0e57dd	-0.13900705
248	0xbe0791cc	-0.13239211
249	0xba235952	-0.00062312663
250	0xbe0bc7b3	-0.13650398
251	0x3e0a377b	0.13497727
252	0x3de90c8d	0.11379347
253	0xbe3e0753	-0.18557481
254	0xbd4c1563	-0.049825083
255	0xbda292b4	-0.07938138

hidden_layers.0.bias f4 [128]
0	0xbd8f7f3f	-0.07006692
1	0x3cf74aa3	0.030186957
2	0xbdcf9509	-0.10135848
3	0xbddd9e60	-0.10821223
4	0xbd3377c1	-0.043815378
5	0xbe1ae328	-0.15125716
6	0x3d67b9a4	0.056573525
7	0x3c1cae95	0.009563108
8	0x3cbab7c1	0.022792699
9	0xbddd363b	-0.10801359
10	0xbd4008a3	-0.046883237
11	0xbe2003b8	-0.15626419
12	0xbe38bad4	-0.1804002
13	0x3ced2c20	0.028951705
14	0xbdc17209	-0.094455786
15	0xbce9fa37	-0.028561695
16	0xbc89d109	-0.016823309
17	0xbd0408b1	-0.03223485
18	0xbc621f1d	-0.013801363
19	0xbd59a8a1	-0.053139333
20	0xbe06f38c	-0.13178843
21	0x3c122274	0.008919347
22	0x3d38d231	0.04512233
23	0xbd268f9d	-0.040664304
24	0xbd47e798	-0.04880485
25	0x3deac0ef	0.114625804
26	0x3d490055	0.049072582
27	0xbe5424f1	-0.20717217
28	0xbc716021	-0.014732392
29	0xbd743ce3	-0.05962838
30	0x3e37bc0c	0.17942828
31	0x3c9cff5e	0.019164737
32	0xbe11ddf7	-0.14244829
33	0x3dbe8cb8	0.09304184
34	0xbcdcee07	-0.026968969
35	0xbe78a1cd	-0.24280472
36	0xbd527a07	-0.051385906
37	0xbcca5382	-0.024698023
38	0xbcd05928	-0.025433138
39	0xbd415123	-0.04719652
40	0x3d222daa	0.03959433
41	0x3dd585e3	0.104259275
42	0x3e1ddc8c	0.15416163
43	0xbd336e79	-0.043806527
44	0xbce14955	-0.027500788
45	0xbd2bbf1b	-0.0419303
46	0x3d61975a	0.05507598
47	0xbdc73139	-0.09726185
48	0xbe818626	-0.2529766
49	0x3dfa3284	0.12216666
50	0x3dd90180	0.10595989
51	0x3e014e6e	0.12627575
52	0x3cbce7ed	0.02305981
53	0x3d849517	0.06473749
54	0xbc6be25b	-0.014397229
55	0x3e4eb2ac	0.20185345
56	0xbdec4e61	-0.11538387
57	0xbe05bae1	-0.1305957
58	0xbd34df99	-0.04415855
59	0x3afc9a85	0.0019272125
60	0xbe18d28c	-0.14924067
61	0x3d4c2ade	0.04984557
62	0x3c329946	0.010900801
63	0xbdc7e447	-0.09760337
64	0x3dfc01aa	0.12305005
65	0xbc32f397	-0.010922334
66	0x3c8c40e8	0.017120793
67	0xbd42e743	-0.04758383
68	0xbe310929	-0.1728865
69	0xbe197e9e	-0.14989707
70	0xbc7a99d6	-0.015295466
71	0xbe3b7eac	-0.1831004
72	0x3dba5364	0.09097937
73	0xbdff982f	-0.124801986
74	0xbe142bbf	-0.14469813
75	0xbd72b736	-0.059256755
76	0x3e3c6e29	0.18401398
77	0xbdf3ec11	-0.119102605
78	0xbc9ae691	-0.01890877
79	0x3db242eb	0.0870417
80	0xbdbb5e8d	-0.091488935
81	0x3dcee5bc	0.10102412
82	0xbbb2651a	-0.005444181
83	0xbe3d3757	-0.18478142
84	0xbe15a2d0	-0.1461289
85	0x3e3490a9	0.17633308
86	0x3d7fbb98	0.062434763
87	0xbdbdec8d	-0.09273634
88	0x3d0443d3	0.032291245
89	0x3d04bae3	0.03240479
90	0x3debed65	0.11519889
91	0xbdc73ad8	-0.097280204
92	0xbe0debba	-0.13859454
93	0xbe451240	-0.19245243
94	0xbd59691a	-0.05307875
95	0x3d153481	0.036427025
96	0x3d62b9c0	0.055352926
97	0xbe8123e3	-0.25222692
98	0xbdcbf7c6	-0.099593684
99	0x3d831294	0.06400028
100	0xbe098f8b	-0.13433664
101	0xbe648cf0	-0.22319388
102	0x3dda2a45	0.106525935
103	0x3dea326e	0.114354
104	0xbe4ef551	-0.20210768
105	0xbe38182a	-0.17977968
106	0xbe2c8534	-0.16847688
107	0x3dcaa781	0.0989523
108	0xbe4f7d6d	-0.2026269
109	0xbd798d72	-0.06092591
110	0x3cbcd79d	0.023052031
111	0xbe0f9aa1	-0.1402383
112	0xbe446f43	-0.19183068
113	0xbe410f12	-0.18853405
114	0xbce01298	-0.027352616
115	0x3e16e06e	0.1473405
116	0x3a3c23c1	0.00071769586
117	0x3de8b1e1	0.11362053
118	0x3cd2ee18	0.025748298
119	0xbda10587	-0.078623824
120	0xbd2f3885	-0.04277851
121	0x3dd5553e	0.10416649
122	0x3d9e2d37	0.07723468
123	0xbe65a367	-0.22425614
124	0xbc9a53d2	-0.018838797
125	0x3e1f1029	0.15533508
126	0x3e24a31d	0.16077848
127	0xbdf0706f	-0.11740195

hidden_layers.1.weight f4 [64, 128]
0	0xbe9073a4	-0.28213227
1	0x3d3f0857	0.046638813
2	0xbe5f6d9c	-0.21819156
3	0x3dcc9686	0.099896476
4	0xbb81eff6	-0.003965373
5	0xbc7a068b	-0.015260349
6	0x3e057328	0.1303221
7	0x3b274ab6	0.002552671
8	0x3d37edab	0.044904392
9	0xbdd2c593	-0.102915905
10	0x3e770b08	0.24125302
11	0xbe244a20	-0.16043901
12	0x3e21d8ae	0.15805313
13	0xbdc33a63	-0.09532621
14	0x3b15bd16	0.00228483
15	0xbcb5925e	-0.02216452
16	0xbe021bc8	-0.1270591
17	0x3e351803	0.17684941
18	0x3c242600	0.0100188255
19	0x3ca22d67	0.01979704
20	0x3e8e7cd6	0.27829617
21	0x3c96537f	0.01835036
22	0xbd75e31b	-0.060031038
23	0xbe0c0e0f	-0.13677238
24	0xbcd918f4	-0.026501156
25	0x3da45ed2	0.08025898
26	0x3b8f0d2c	0.004365584
27	0xbdadca7d	-0.08485887
28	0xbd8bb2e8	-0.06821233
29	0x3f08fccc	0.5351074
30	0xbc687c4d	-0.014189792
31	0x3d0a5d2a	0.033780254
32	0x3c6f7f31	0.014617727
33	0x3dff0437	0.12451976
34	0xbe250cae	-0.16118118
35	0xbd28ddd4	-0.041227177
36	0xbc30c55b	-0.010789241
37	0xbe241def	-0.16027044
38	0x3dd37533	0.10325088
39	0x3dfcf4dd	0.123513915
40	0xbdaf8821	-0.085708864
41	0x3b14bb29	0.0022694564
42	0xbe81b3c9	-0.25332478
43	0xbd1d3f8b	-0.038390677
44	0x3e17b931	0.14816739
45	0xbde871a9	-0.11349804
46	0x3e1df463	0.15425257
47	0x3d3f15bd	0.04665159
48	0xbe5519be	-0.20810601
49	0xbd25683e	-0.040382616
50	0x3e36a98b	0.17838113
51	0xbdcc0bca	-0.09963186
52	0xbdea034a	-0.114264086
53	0xbe9fccda	-0.31210977
54	0xbef373d7	-0.47549316
55	0x3dcf1826	0.10112028
56	0x3d83dae7	0.06438237
57	0xbdd3dfab	-0.10345396
58	0x3dcc1ef2	0.0996684
59	0x3d9f1a2b	0.07768663
60	0x3cd361c1	0.025803449
61	0xbe8b3026	-0.27185172
62	0xbc2555a2	-0.010091217
63	0xbd7ed718	-0.062216848
64	0xbe4629e8	-0.19351923
65	0x3d7e8de7	0.062147047
66	0x3e11d6a6	0.14242038
67	0xbc5dcba4	-0.013537321
68	0xbc10f8ac	-0.0088483505
69	0x3ccffc94	0.025388993
70	0xbdc56052	-0.09637512
71	0xbe639abe	-0.22226998
72	0xbd7a915c	-0.06117378
73	0x3b6afb35	0.0035855297
74	0xbbf6d349	-0.0075325114
75	0x3d8afbbb	0.06786295
76	0xbea7df09	-0.3278735
77	0xbe1606b4	-0.14650995
78	0x3cec4a10	0.02884391
79	0x3dbd7843	0.09251454
80	0x3e30b26a	0.1725556
81	0x3e1efdfb	0.15526573
82	0x3beeaf1d	0.0072840587
83	0xbd4e0406	-0.050296806
84	0x3d592b16	0.053019606
85	0xbcd14fb0	-0.025550693
86	0x3e7525bb	0.23940174
87	0x3eac7735	0.33684698
88	0x3c807128	0.015678957
89	0xbcbc2fcd	-0.022972012
90	0x3e64aaf9	0.22330846
91	0xbc9be902	-0.019032005
92	0xbcf7b53f	-0.030237792
93	0x3dbf9dc2	0.09356262
94	0x3b93a2b0	0.004505478
95	0xbbdfad42	-0.006826074
96	0xbdc3d2a2	-0.095616594
97	0x3da0a942	0.07844783
98	0x3e84f8fd	0.25971213
99	0xbc2c1c1e	-0.010504751
100	0xbca1e974	-0.01976464
101	0xbde6e5ec	-0.11274323
102	0xbd55b40b	-0.052173655
103	0xbc702ae1	-0.014658661
104	0xbdfdd8ee	-0.12394892
105	0xbe0e14f4	-0.1387518
106	0xbe180c8c	-0.14848536
107	0xbe2a2b26	-0.16618022
108	0xbddb5ae6	-0.10710697
109	0xbd935f15	-0.0719587
110	0x3d19292d	0.037392784
111	0x3cef9e93	0.029250419
112	0xbe814581	-0.2524834
113	0xbbb34b55	-0.0054716268
114	0x3d83b819	0.06431598
115	0x3d425ca1	0.04745162
116	0xbc747f86	-0.014922982
117	0xbea14181	-0.31495288
118	0xbe2d80d5	-0.16943677
119	0x3e4dd565	0.20100935
120	0x3d818e30	0.06325948
121	0xbe15ee32	-0.14641646
122	0x3d1f25c3	0.03885437
123	0xbd6a21ea	-0.05716125
124	0xba090a16	-0.0005227638
125	0xbea578fc	-0.32318866
126	0x3e5fd853	0.21859865
127	0x3d928bd8	0.07155579
128	0x3d0e2cf9	0.034710858
129	0xbcc38b16	-0.023870032
130	0xbd79e26e	-0.061006956
131	0xbdbe7d18	-0.093012035
132	0xbe283dbb	-0.16429798
133	0xbdc1209c	-0.09430048
134	0x3ac46f6f	0.0014986823
135	0xbdb4726f	-0.08810889
136	0x3d957fb2	0.072997466
137	0xbd842462	-0.06452252
138	0xbd304d56	-0.043042503
139	0xbc77a150	-0.0151141435
140	0xbd98240c	-0.074287504
141	0xbccb0e32	-0.024787042
142	0xbd198aec	-0.037486
143	0xbdc9b6c4	-0.09849313
144	0xbbe5bc21	-0.007010952
145	0x3d7039e4	0.05864896
146	0xbce4892e	-0.027897444
147	0x3d06437a	0.032779194
148	0xbbeae53c	-0.00716844
149	0xbd2896d5	-0.04115947
150	0x3d3c9502	0.046040542
151	0xbd89db9c	-0.0673134
152	0xbdd28729	-0.10279686
153	0xbd419538	-0.047261447
154	0x3d3b4e43	0.045728933
155	0xbd784eed	-0.060622144
156	0x3c9f16de	0.019420084
157	0xbdc02870	-0.09382713
158	0x3c4c7b63	0.01248059
159	0xbd37b041	-0.044845823
160	0xbd1b3a8b	-0.037897628
161	0xbda870e2	-0.08224656
162	0xbc898104	-0.016785152
163	0xbd156f96	-0.03648337
164	0x3d21c907	0.039498355
165	0x3b185d4a	0.0023248964
166	0xbdc9f372	-0.09860887
167	0xbdc12d6b	-0.09432491
168	0xbcf80ef5	-0.03028057
169	0x3d05a7c9	0.032630716
170	0xbd9507bf	-0.07276868
171	0xbd695e99	-0.05697498
172	0x3c699e60	0.014258951
173	0xbdb8dbc9	-0.09026296
174	0xbd66d06a	-0.056351103
175	0x3d694123	0.056946885
176	0xbd7b0899	-0.061287496
177	0xbd71fdff	-0.05908012
178	0x382deb5a	4.1465602e-05
179	0x3bea8cda	0.007157904
180	0x3d4004f1	0.046879712
181	0xbdf78740	-0.12086344
182	0x3c47b58d	0.012189281
183	0xbc9e9663	-0.01935882
184	0xbda8feab	-0.08251699
185	0xbd0446a5	-0.032293934
186	0xbdccfa20	-0.10008645
187	0x3cff93f3	0.031198477
188	0xbdb14d72	-0.0865735
189	0xbdcbd3db	-0.099525176
190	0x3b65cc43	0.0035064376
191	0x3c207380	0.009793162
192	0xbc2a5b3a	-0.010397727
193	0x3d2b455a	0.041814186
194	0x3d25656f	0.040379938
195	0x3da652d0	0.08121264
196	0x3d85a163	0.06524923
197	0x3c902c08	0.01759912
198	0x3c7104a7	0.014710582
199	0xbd39f28a	-0.04539732
200	0xbb972b81	-0.0046133404
201	0xbd5cf04a	-0.053940095
202	0x3a8e930d	0.0010877565
203	0xbc257c89	-0.010100492
204	0x3c9c8dc1	0.019110562
205	0xbda518bf	-0.080613606
206	0xbda84002	-0.082153335
207	0x3d5b509d	0.053543676
208	0xbcf66b29	-0.030080395
209	0xbc6e4536	-0.014542868
210	0xbda2d984	-0.07951644
211	0xbd37c44c	-0.044864938
212	0xbcf01610	-0.029307395
213	0xbcd2df31	-0.025741192
214	0x3d245498	0.040119737
215	0xbd2d7fd9	-0.042358253
216	0xbce30031	-0.027710052
217	0xbd27bd26	-0.04095187
218	0x3cd8e992	0.026478563
219	0xbdae73f0	-0.08518207
220	0x3c5bf536	0.013425162
221	0xbdc57d33	-0.096430205
222	0xbde2d55e	-0.11075853
223	0xbda385b1	-0.07984484
224	0xba5157cd	-0.00079858006
225	0xbcba4ae7	-0.022740794
226	0xbca858a7	-0.020550085
227	0xbcfb0713	-0.030643022
228	0x3d542348	0.05179146
229	0x3d4ddce0	0.05025947
230	0x3cde89c5	0.027165303
231	0x3d500d67	0.05079403
232	0xbccc00ca	-0.02490272
233	0xbd9e3417	-0.07724779
234	0x3c785eb7	0.0151593005
235	0x3cedfa41	0.029049994
236	0xbd660c31	-0.05616397
237	0xbda72cd4	-0.08162847
238	0x3c38a0e0	0.011268824
239	0xbd45e30c	-0.048312232
240	0xbd3b9be2	-0.04580296
241	0x3aa382e4	0.0012474922
242	0xbcbee28a	-0.023301382
243	0xbd5c90b4	-0.053848937
244	0xbd52a67c	-0.051428303
245	0x3d05693e	0.03257107
246	0xbcdfeab5	-0.027333597
247	0xbd9a1d9f	-0.07525181
248	0xbd25c245	-0.040468473
249	0xbcaba04c	-0.020950459
250	0x3cf80a65	0.030278394
251	0xbdc49022	-0.09597804
252	0x3ad6dec7	0.0016393297
253	0x3caf3b70	0.021390647
254	0x3cc45248	0.023965016
255	0xbd20e9d4	-0.039285496

hidden_layers.1.bias f4 [64]
0	0xbde644a7	-0.11243563
1	0xbde9895e	-0.11403154
2	0xbd72da7a	-0.059290387
3	0xbd8722fb	-0.06598469
4	0x3d07071f	0.032965776
5	0xbdee2ca9	-0.11629612
6	0xbd881014	-0.06643692
7	0x3e01ac2b	0.12663333
8	0x3d08095f	0.033212062
9	0xbd9a34e5	-0.0752962
10	0xbcda65f8	-0.02665995
11	0xbe06d268	-0.13166201
12	0xbdeb9571	-0.11503113
13	0xbdee7e6b	-0.11645206
14	0xbe297b2f	-0.16550897
15	0xbd4285e2	-0.04749096
16	0xbc5581f9	-0.013031476
17	0xbd8cc49a	-0.06873436
18	0xbe21310f	-0.1574137
19	0xbdeb7c67	-0.11498337
20	0x3d72da97	0.059290495
21	0x3c3a2068	0.011360265
22	0xbdb32854	-0.08747926
23	0x3e5b8a67	0.21439515
24	0xbc20ba71	-0.009810076
25	0x3e485485	0.19563492
26	0xbda542ab	-0.080693565
27	0xbd318a43	-0.043344747
28	0xbe0c585d	-0.13705583
29	0xbd9ef2f2	-0.07761182
30	0x3a867000	0.0010256767
31	0x3e425644	0.1897822
32	0xbdb81318	-0.08988017
33	0xbdb28361	-0.08716465
34	0x3dd42b32	0.10359801
35	0xbe23dc47	-0.16001998
36	0xbc94cecd	-0.018165017
37	0xbcc0bb12	-0.023526702
38	0xbcb603b1	-0.022218557
39	0x3c8d957c	0.017283194
40	0xbc9f2679	-0.019427525
41	0x3e780db6	0.2422398
42	0x3d1cb396	0.038257204
43	0xbdd49d79	-0.10381598
44	0x3e0b85ac	0.1362521
45	0x3df84098	0.12121695
46	0xbd99d612	-0.07511534
47	0xbd20b48a	-0.039234675
48	0xbd884cdf	-0.06655287
49	0x3d169333	0.036761474
50	0xbd977216	-0.07394807
51	0xbdcfea32	-0.10152091
52	0xbe62aec8	-0.22136986
53	0xbd621f98	-0.05520591
54	0xbd448040	-0.04797387
55	0xbd866984	-0.06563094
56	0x396aea7a	0.00022403328
57	0xbd53461b	-0.05158053
58	0x3d34468c	0.04401259
59	0x3c891d65	0.01673765
60	0xbc621e18	-0.01380112
61	0xbd1c2bb4	-0.038127616
62	0xbe0f68c1	-0.14004804
63	0xbd193667	-0.037405398

hidden_layers.2.weight f4 [32, 64]
0	0x3d3be7ae	0.045875244
1	0x3dc125b5	0.0943102
2	0x3cd9fd5f	0.026610075
3	0x3d905562	0.070475355
4	0xbe56700b	-0.20941179
5	0xbe0a07d9	-0.13479556
6	0x3dba7440	0.09104204
7	0x3e85ae64	0.26109612
8	0xbe0c05b9	-0.13674058
9	0xbd41c15b	-0.04730354
10	0x3e494a0f	0.19657157
11	0x3db9d99d	0.090747096
12	0xbd75160b	-0.059835475
13	0x3ddd5057	0.10806339
14	0xbd78d272	-0.06074757
15	0x3ce75047	0.028236521
16	0xbe2bf015	-0.16790803
17	0xbd866a3f	-0.065632336
18	0x3dea51ea	0.11441405
19	0x3c9192ea	0.01777025
20	0xbe6698d8	-0.22519243
21	0x3e14ecf7	0.1454352
22	0x3dd2a4c3	0.10285332
23	0x3d2d65c1	0.04233337
24	0xbd8daeae	-0.06918083
25	0xbe736812	-0.23770168
26	0x3e5fffbb	0.21874897
27	0x3d583c20	0.052791715
28	0x3bc37f19	0.005966079
29	0xbde85f9c	-0.11346361
30	0xbdb6554f	-0.0890299
31	0x3e0e25f4	0.13881665
32	0x3e3957df	0.18099926
33	0xbcff58fc	-0.03117036
34	0x3e411699	0.18856277
35	0xbe137f2c	-0.14403981
36	0xbde3a212	-0.11114897
37	0x3d9055bc	0.070476025
38	0xbdc2116b	-0.094759785
39	0x3dfeffbb	0.124511205
40	0x3de55ac3	0.11198952
41	0x3b9f4a85	0.0048611783
42	0xbe97f647	-0.29680082
43	0x3e17a908	0.14810574
44	0x3bd73312	0.0065673674
45	0x3e1f1261	0.15534355
46	0x3df7098e	0.12062369
47	0xbc3c0590	-0.011475936
48	0x3e655eac	0.22399396
49	0x3e3e6b80	0.18595695
50	0xbce87934	-0.028378107
51	0x3aaefc5a	0.0013350353
52	0xbe33b4d1	-0.17549445
53	0x3deca0e0	0.11554122
54	0x3d9663dc	0.073432654
55	0x3d042555	0.032262165
56	0xbbb08ace	-0.0053876406
57	0x3d498287	0.049196746
58	0x3ddfe78b	0.10932835
59	0x3e8787c6	0.26470774
60	0xbb7ffcea	-0.003906066
61	0x3e18aff5	0.14910872
62	0x3d5b5368	0.05354634
63	0x3d969e6d	0.07354436
64	0xbe52d7c6	-0.20590124
65	0x3d8f05b0	0.06983507
66	0x3c17c71e	0.009263782
67	0xbd07d0ac	-0.03315799
68	0xbd046724	-0.032324925
69	0x3b1e4b4f	0.0024153774
70	0xbd34c06f	-0.04412883
71	0xbe8d67a8	-0.27618146
72	0x3d184615	0.03717621
73	0x3deb2730	0.11482084
74	0xbc39fad9	-0.011351311
75	0x3dba805b	0.09106513
76	0x3d8b0812	0.06788649
77	0x3d8a1f1b	0.06744214
78	0xbe0632b1	-0.13105275
79	0xbddabc72	-0.10680474
80	0xbead4899	-0.3384445
81	0xbd3fc3de	-0.046817653
82	0x3de261a6	0.11053781
83	0x3c5fbcbd	0.013655839
84	0xbea1a887	-0.3157389
85	0xbde5238a	-0.11188419
86	0xbe22aaf4	-0.15885526
87	0xbe95a35b	-0.29226193
88	0xbe4336cc	-0.19063872
89	0xbe709921	-0.23495914
90	0xbe4877a5	-0.19576891
91	0xbd5b5626	-0.053548954
92	0x3ddea81a	0.108719066
93	0xbda1f0d7	-0.07907265
94	0xbdd8db1c	-0.10588667
95	0xbd8a5807	-0.06755071
96	0xbd41bcfd	-0.047299374
97	0xbed29acc	-0.41133726
98	0xbdb6e15b	-0.08929702
99	0xbda2f9bb	-0.079577886
100	0xbd82f42b	-0.063942276
101	0xbd2be0d3	-0.041962456
102	0xbd3e45cd	-0.046453286
103	0xbe063581	-0.13106348
104	0x3e14453b	0.14479534
105	0xbe452844	-0.19253641
106	0xbdb44c22	-0.08803584
107	0x3db94398	0.090460956
108	0x3e421410	0.18952966
109	0xbe02794a	-0.1274158
110	0xbbb73a50	-0.005591668
111	0x3e178910	0.14798379
112	0x3e50a5d9	0.20375766
113	0xbe573756	-0.21017203
114	0x3c6fc4dc	0.014634337
115	0xbd324715	-0.04352482
116	0xbe0517e4	-0.12997395
117	0x3d545cd5	0.051846344
118	0x3dcd5250	0.100254655
119	0xbcd479ac	-0.025936924
120	0x3d4f8a81	0.050669197
121	0x3cde0df0	0.027106255
122	0x3c5c4e98	0.013446473
123	0xbd677faf	-0.056518253
124	0xbdac481b	-0.084121905
125	0xbd19a682	-0.03751231
126	0x3e92d0b3	0.2867485
127	0x3e282e76	0.16423973
128	0xbe114d05	-0.14189537
129	0xbdc16cb2	-0.0944456
130	0x3d11451d	0.035466302
131	0x3db48b58	0.0881564
132	0x3d8825e6	0.066478536
133	0x3d9266ab	0.071484886
134	0xbd684be7	-0.05671301
135	0xbd38834b	-0.045047086
136	0x3d0a5d66	0.033780478
137	0xbd07d7bf	-0.033164736
138	0xbc89779f	-0.016780673
139	0x3daa8356	0.083258316
140	0xbdff28a7	-0.12458926
141	0xbd1542a7	-0.036440518
142	0xbce7c6df	-0.028293071
143	0xbd05b321	-0.032641534
144	0xbdfb4acb	-0.12270125
145	0xbd0cd591	-0.03438336
146	0x3d29ddcc	0.041471288
147	0xbdd39535	-0.10331193
148	0xbde044f1	-0.109506495
149	0x3d851801	0.06498719
150	0x3d69cf56	0.057082497
151	0xbe621c6d	-0.22081156
152	0xbc45f117	-0.012081406
153	0xbda15eeb	-0.07879432
154	0xbd2822b6	-0.041048728
155	0x3d957147	0.072969966
156	0xbdc26b65	-0.0949314
157	0xbb38be63	-0.0028189651
158	0x3e15c7d7	0.14627014
159	0xbe18954c	-0.14900702
160	0xbd59f140	-0.05320859
161	0xbdd0fc6a	-0.10204394
162	0xbde773cc	-0.113013834
163	0xbdb5641d	-0.08856986
164	0x3da34d00	0.07973671
165	0x3db5c7fe	0.08876036
166	0x3c2756a9	0.0102135325
167	0x3c90f742	0.017696027
168	0x3e46b9ca	0.1940681
169	0xbe46575b	-0.19369261
170	0xbe0b987b	-0.13632385
171	0xbd6250b0	-0.05525273
172	0x3dc1201e	0.09429954
173	0xbe037b22	-0.1283994
174	0xbdb81506	-0.08988385
175	0xbc95b7b5	-0.018276075
176	0x3d7614d3	0.060078453
177	0xbd27b056	-0.04093965
178	0xbb0538b2	-0.0020327982
179	0x3dea2972	0.11433686
180	0xbdb625a1	-0.08893896
181	0x3da2c763	0.07948186
182	0xbdb8bfad	-0.09020934
183	0x3de502ce	0.111821756
184	0x3c2f016e	0.010681493
185	0x3ded5734	0.11588898
186	0x3da85e54	0.08221117
187	0xbe0f7831	-0.14010693
188	0xbd045e5e	-0.032316558
189	0xbde99a56	-0.1140639
190	0x3e51c043	0.20483498
191	0xbce93f08	-0.028472438
192	0xbd73b87c	-0.05950211
193	0xbd9b2a8e	-0.07576476
194	0x3d8bbd54	0.06823221
195	0x3d7b6cb6	0.06138297
196	0xbd643b0f	-0.055720385
197	0xbb794fc0	-0.003804192
198	0xbdc00256	-0.093754455
199	0xbdfe9a59	-0.12431783
200	0xbdc58734	-0.096449286
201	0xbdd27b57	-0.102774315
202	0xbdf9b8a2	-0.12193419
203	0x3d700ff0	0.05860895
204	0xbdcdc0d7	-0.10046547
205	0x3d755b84	0.05990173
206	0x3cfe0dfa	0.031012524
207	0xbc36a7ce	-0.011148406
208	0xbd1c3ae5	-0.038142104
209	0x3d89e784	0.06733611
210	0xbde825c8	-0.11335331
211	0x3ddd2022	0.107971445
212	0x3d4585fb	0.048223477
213	0x3ddf9f2f	0.10919034
214	0xbda24ddc	-0.07925007
215	0x3d929d95	0.07158963
216	0xbd65ec88	-0.056133777
217	0xbcdaa574	-0.026690222
218	0x3d824b41	0.0636201
219	0x3cac8c49	0.021062987
220	0x3d11512a	0.035477795
221	0xbd357a70	-0.04430622
222	0xbd85743d	-0.06516311
223	0x3cb2e138	0.021835908
224	0xbe001f6e	-0.1251199
225	0xbc0ccbb9	-0.008593493
226	0xbcb7c56f	-0.02243301
227	0xbd87ea43	-0.06636479
228	0xbe11c019	-0.14233436
229	0xbdadbf34	-0.08483735
230	0xbd921e40	-0.07134676
231	0x3c9a5490	0.01883915
232	0x3a9fa1f0	0.0012178998
233	0xbe21716b	-0.15765922
234	0xbde1dc53	-0.11028352
235	0xbe02d843	-0.1277781
236	0x3ce14c59	0.027502226
237	0xbe16941c	-0.14704937
238	0xbcb2f99e	-0.021847542
239	0xbda7e5a2	-0.08198096
240	0xbd9d873d	-0.0769181
241	0x3d5a3440	0.053272486
242	0x3d460d33	0.04835243
243	0x3d6cdc03	0.057827007
244	0x3d6c326a	0.057665266
245	0xbd7fbad8	-0.062434047
246	0x3d4aade9	0.04948226
247	0x3dceeea8	0.10104114
248	0xbd38cf4a	-0.04511956
249	0xbc27a090	-0.010231152
250	0x3aa847e0	0.0012838803
251	0xbe202d6b	-0.15642326
252	0xbc59f560	-0.013303131
253	0xbc750180	-0.014953971
254	0xbdffbee6	-0.12487583
255	0x3d8b9183	0.068148635

hidden_layers.2.bias f4 [32]
0	0x3e090a73	0.13382892
1	0xbd529e6a	-0.051420607
2	0xbc49d80a	-0.012319574
3	0xbe35b9ab	-0.17746608
4	0xbc8258e0	-0.01591152
5	0xbbccf96d	-0.00625532
6	0x3ea1d430	0.316072
7	0x3e479846	0.19491681
8	0xbe291a5a	-0.16513959
9	0x3e45b06f	0.19305585
10	0x3d6084c3	0.05481411
11	0xbdc9db31	-0.098562606
12	0x3cddc16e	0.027069774
13	0x3ef19cd1	0.47189954
14	0x3c0f8dc0	0.008761823
15	0xbe68d4d2	-0.22737435
16	0xbd68d462	-0.05684317
17	0x3dfa3d43	0.12218716
18	0x3b82a691	0.0039871414
19	0xbe0e2cf2	-0.13884333
20	0x3d5e303a	0.05424521
21	0xbdd73993	-0.10509028
22	0xbceff258	-0.029290363
23	0xbdc30d1d	-0.095239855
24	0xbdb7a28a	-0.08966549
25	0xbde55dc5	-0.11199526
26	0xbc2d057c	-0.01056039
27	0xbdc4cea9	-0.0960973
28	0xbc96956a	-0.018381793
29	0x3eb65a1c	0.35615623
30	0x3e6de5f5	0.23232253
31	0x3d30073b	0.042975646

v_layer.weight f4 [1, 32]
0	0x3e088dc8	0.13335335
1	0xbea75451	-0.32681516
2	0xbe49b134	-0.19696504
3	0x3d57166b	0.052511614
4	0xbe5d1192	-0.21588734
5	0x3e6d6f13	0.23186903
6	0x3e980e86	0.2969858
7	0x3e8cfe8a	0.27537948
8	0x3cb3d7f4	0.02195356
9	0x3e477c00	0.19480896
10	0x3dde6809	0.10859687
11	0xbe53d5fc	-0.20687097
12	0xbc9d0742	-0.0191685
13	0x3e9f26c6	0.3108427
14	0xbe0dab19	-0.138348
15	0xbdfdde08	-0.12395865
16	0xbd8689cc	-0.065692514
17	0x3d5b507b	0.05354355
18	0x3da1a0c9	0.078919955
19	0xbe1efdc5	-0.15526493
20	0x3e569280	0.20954323
21	0x3cc716d4	0.024302877
22	0xbd8de57e	-0.06928538
23	0xbd613978	-0.054986447
24	0xbe43e5d4	-0.19130641
25	0x3ca04330	0.019563287
26	0xbceafa2d	-0.028683746
27	0x3dbfbad9	0.0936181
28	0xbe4a5a45	-0.19760998
29	0x3eb168ad	0.34650174
30	0x3e9e7927	0.30951807
31	0x3bf12664	0.007359313

adv_layer.weight f4 [4, 32]
0	0x3e02ef2b	0.12786548
1	0x3ea489c7	0.32136366
2	0x3e119682	0.1421757
3	0xbd314c09	-0.043285403
4	0x3da4e0ce	0.080506906
5	0xbd4d8ad1	-0.050181214
6	0xbdc224b7	-0.09479659
7	0x3e069038	0.13140953
8	0xbdbbb088	-0.0916453
9	0xbeb62aed	-0.35579625
10	0x3e1c96d9	0.15291919
11	0xbe13bbd6	-0.14427122
12	0x3e1bcf54	0.15215808
13	0x3dd6c521	0.10486818
14	0xbdd25c28	-0.10271484
15	0xbc2baa24	-0.010477576
16	0x3e24ec38	0.16105735
17	0x3e0f53da	0.1399683
18	0x3cdc78b5	0.026913026
19	0xbdfe59a5	-0.12419442
20	0xbeaed0fe	-0.34143823
21	0x3e052159	0.13001002
22	0xbd9525a1	-0.07282568
23	0x3de212c9	0.11038739
24	0xbe77bb7d	-0.24192615
25	0xbdda503e	-0.10659836
26	0x3e004571	0.1252649
27	0x3d7cdab9	0.061732028
28	0x3e5516b1	0.20809437
29	0xbdcf9182	-0.10135175
30	0x3df0b51f	0.11753296
31	0xbbb5ef95	-0.005552242
32	0xbe1eca57	-0.15506874
33	0xbe39fc81	-0.18162729
34	0xbdb2725e	-0.0871322
35	0x3d0b67a8	0.0340344
36	0x3ca0081d	0.019535119
37	0xbdc64bd0	-0.09682429
38	0xbded30b3	-0.11581554
39	0x3e306178	0.17224681
40	0x3d41cd0a	0.04731468
41	0x3d0794a8	0.033100754
42	0x3e5a6ae8	0.21329844
43	0xbd599e88	-0.053129703
44	0xbd442ab9	-0.047892306
45	0x3c906456	0.017625969
46	0x3d5a0cba	0.053234793
47	0xbe85ab8d	-0.26107445
48	0x3dd2a376	0.10285084
49	0x3de0223b	0.10944029
50	0x3e314280	0.17310524
51	0x3e7e79ae	0.24851105
52	0x3e2480d6	0.16064772
53	0x3e0ccf4b	0.13750951
54	0x3e009a2a	0.12558809
55	0x3d053ea3	0.03253044
56	0x3d659628	0.056051403
57	0xbcee8587	-0.029116405
58	0xbd8c6871	-0.06855858
59	0xbe0ef24f	-0.13959621
60	0xbe233502	-0.1593819
61	0xbd38c05b	-0.04510532
62	0xbd4d7017	-0.050155725
63	0xbe184175	-0.1486872
64	0x3e1ae20e	0.15125296
65	0xbd8876fb	-0.06663319
66	0xbe50f277	-0.20404993
67	0xbd9d8b47	-0.07692581
68	0xbca1963b	-0.019724956
69	0xbe315641	-0.1731806
70	0xbe3a5e9e	-0.18200156
71	0x3c21d1dd	0.009876695
72	0xbda72b88	-0.081626
73	0xbd3b73cb	-0.045764726
74	0xbe027e70	-0.12743545
75	0x3e4aed42	0.19817069
76	0xbd8fe048	-0.070252
77	0x3e30ae06	0.17253885
78	0xbd68c613	-0.056829523
79	0xbdfb1fc5	-0.12261919
80	0xbe4def7a	-0.20110884
81	0xbea28110	-0.31739092
82	0xbce585e1	-0.02801794
83	0xbe2ce047	-0.1688243
84	0x3e75c73b	0.24001782
85	0x3dbec256	0.093144104
86	0x3d472aaa	0.048624672
87	0x3e0af1a4	0.13568741
88	0xbddc7d3d	-0.10766075
89	0xbe16affa	-0.14715567
90	0xbe43d3fa	-0.19123831
91	0xbe0181b7	-0.12647139
92	0x3e22384a	0.15841785
93	0x3e31e9f8	0.17374408
94	0x3e23bec5	0.15990742
95	0xbe07f440	-0.13276768
96	0xbdb8adc3	-0.090175174
97	0xbe16679f	-0.14687966
98	0x3c90d098	0.01767759
99	0xbdc182f6	-0.09448807
100	0x3d2513ee	0.04030221
101	0x3eb0def4	0.345451
102	0x3e51b606	0.20479593
103	0xbd321e6b	-0.04348604
104	0x3d6fba92	0.058527537
105	0xbdccb5c7	-0.09995609
106	0xbe3f18e0	-0.18661833
107	0xbcd4e954	-0.025990166
108	0xbdec6ff1	-0.11544789
109	0x3d5c3c70	0.053768575
110	0x3d200969	0.039071474
111	0xbec5a0c5	-0.3859922
112	0xbe05b44d	-0.1305706
113	0xbdad4df7	-0.08462136
114	0x3d70a89c	0.05875455
115	0x3db92f8c	0.09042272
116	0x3d91a282	0.07111074
117	0x3cf88504	0.030336864
118	0x3d2a93bd	0.0416448
119	0xbde2fdba	-0.11083551
120	0xbdc7dc56	-0.097588226
121	0x3d098fb6	0.03358432
122	0x3dd5ee49	0.1044584
123	0xbd02c8d3	-0.031929802
124	0x3dfb314b	0.12265261
125	0xbd23ed75	-0.04002138
126	0xbe19677b	-0.14980881
127	0xbd7fb370	-0.062426984

adv_layer.bias f4 [4]
0	0x3dcb1637	0.099163465
1	0x3c19f453	0.00939663
2	0xbe505836	-0.2034615
3	0xbe441cea	-0.19151655
