mini-rainbow-dqn-checkpoint.pth (torch_old, 214389 bytes, 11 tensors)

hidden_layers.0.weight f4 [256, 37]
000000 01 aa 34 3e ca b6 91 be 08 26 55 3e f0 a7 99 be
       0.17642976 -0.2845977 0.20815289 -0.3001094
000010 d1 1e a3 be f8 28 66 bf 6f 99 d1 3e f0 8e 71 3d
       -0.3185945 -0.89906263 0.40937373 0.058974206
000020 11 42 b1 3d 00 c7 3a 3e d2 21 ab 3d 49 bd cc 38
       0.08655179 0.18239975 0.0835606 9.762735e-05
000030 45 bd 8f be 1f 47 c2 3d 13 39 aa 3e fb c4 6c be
       -0.2807409 0.094862215 0.3324667 -0.23122017
000040 fe 41 6b 3e 40 86 9c be 7f 22 93 3e 6c 72 ab be
       0.22974393 -0.30571175 0.28737256 -0.33485734
000050 50 06 80 3e c0 96 fc 3c 91 52 b1 bd ce 81 c5 bb
       0.25004816 0.030833602 -0.086583264 -0.006027437
000060 f2 08 76 3d 07 0b 92 bd 3b 76 55 3e 9a 2f 90 be
       0.060067125 -0.071310095 0.20845883 -0.28161317
000070 e1 6b 9b 3e d7 8d 80 be d6 92 63 bc c8 c7 15 3d
       0.30355743 -0.25108215 -0.013889989 0.03656748
000080 bf a4 e5 3d bc da a4 be e3 35 03 3e 7e 4b cc 3d
       0.112130634 -0.3219813 0.12813525 0.099753365
000090 2e df 1b be b1 44 a7 3e 4f 98 86 bd bf e3 b3 be
       -0.15221855 0.32669595 -0.06572019 -0.35134694
0000a0 d1 bb 7a be b9 4d 0f bf 86 e5 cf 3d 0c 94 1f bf
       -0.24485709 -0.5597797 0.101512 -0.62335277
0000b0 84 27 14 be 51 2f f9 be f4 89 5d bf ec 70 ad be
       -0.14468199 -0.48668912 -0.86538625 -0.33875215
0000c0 39 50 a0 3d 24 3e 83 be 53 8b 90 3e dc 0d 23 be
       0.07827801 -0.25633347 0.28231296 -0.15923256
0000d0 e4 71 03 3c 26 69 25 bf 87 40 24 3e 1d c8 ad be
       0.008022759 -0.6461357 0.1604024 -0.33941737
0000e0 c7 12 30 bf 56 b2 51 be 90 a1 8d be cd 6c 01 bd
       -0.6877865 -0.20478186 -0.27662325 -0.0315979
0000f0 13 84 be be 69 7f c1 be c9 26 a2 bf d8 85 a1 bd
       -0.3721014 -0.3779252 -1.2668086 -0.07886857
000100 da c8 a9 3e ea a4 8a be 7e f9 df be a2 1c 8f be
       0.3316105 -0.27078944 -0.43745035 -0.27951533
000110 67 51 75 3d 22 5d 8c 3e c3 f4 aa be 5c ca 1f bf
       0.059892084 0.27414805 -0.33389863 -0.6241815
000120 d1 36 8b 3e 30 2b 73 bd be 68 cb 3e 16 e7 e8 bd
       0.2719026 -0.05936736 0.3972835 -0.11372201
000130 1d 66 9f be 94 fc f6 be a2 eb 60 3e a0 8b f8 bb
       -0.31132594 -0.48239577 0.21964887 -0.007585004
000140 9a 55 d9 be c8 48 c5 3d 3a 62 8c 3e b7 aa 2f be
       -0.4244812 0.096330225 0.2741869 -0.17154966
000150 e6 82 44 3e 3d 6b c1 be a3 0f 1e bf e9 09 3c bd
       0.19190559 -0.3777713 -0.6174261 -0.04590789
000160 bd 90 69 bd c3 2a b5 bd 7c 13 f8 be e6 6d 73 3e
       -0.0570228 -0.08846047 -0.48452365 0.23772392
000170 5c 3d e1 be 62 ce eb 3d eb 72 89 be be c1 ae be
       -0.43992126 0.11513974 -0.26845488 -0.3413219
000180 06 da c3 be 91 9f cc 3e 81 44 41 bf 66 12 29 bf
       -0.38252276 0.3996549 -0.75495154 -0.660437
000190 b0 cb 01 3f 3f 89 76 be bc f8 2b be d6 fc b7 3d
       0.5070143 -0.24075793 -0.16794103 0.089837715
0001a0 dd 85 f3 be a1 fe ca 3d a0 1c cb be 05 a5 5c 3c
       -0.47563067 0.09911848 -0.39670277 0.013467078
0001b0 00 da 38 3e 9a d5 86 3b 16 eb a6 3c 09 97 51 be
       0.1805191 0.0041148188 0.02037577 -0.20467772
0001c0 01 23 0d bf cb b7 9e 3e b0 4a d5 be d1 05 0b bf
       -0.55131537 0.30999598 -0.41658545 -0.5430575
0001d0 e3 36 95 bc ef 4b 4e be e3 2b 20 3e 0e 8f fc be
       -0.018214649 -0.20146154 0.15641741 -0.49327892
0001e0 58 0c 59 be 15 15 4e be d6 aa d9 3d 7c 4a c5 3d
       -0.21196115 -0.2012523 0.106282875 0.096333474
0001f0 5b 1d 5d bf 63 62 2c bf 3a 61 16 be 2c 5a 53 3d
       -0.8637292 -0.67337626 -0.14685526 0.051599666
000200 88 1e ad be de 07 23 bf 26 bc 00 3d a5 80 c5 be
       -0.33812356 -0.6368388 0.031429432 -0.3857471
000210 7e ae fb be f9 4d 83 bb e4 4b d8 bc 1f b4 1f be
       -0.49156564 -0.004007098 -0.026403375 -0.15596054
000220 46 33 ae be aa 30 d0 be 06 33 90 be 34 17 ca 3e
       -0.34023494 -0.40662128 -0.28163928 0.39470828
000230 c0 bb 6e be 27 53 72 be 23 2f ab bd 41 70 bb 3c
       -0.23313808 -0.23664533 -0.083586 0.022880675
000240 95 02 b9 be a2 30 41 bf 1a 9c 96 3d 0d 72 29 bd
       -0.36134782 -0.7546483 0.07353993 -0.041368533
000250 f7 29 a9 bc df 68 28 be 87 50 41 bc 94 5c d6 bd
       -0.020649893 -0.16446255 -0.011798984 -0.104668766
000260 c2 f3 3c bd ef 69 10 3f 76 b2 ba be e8 01 81 bf
       -0.046130903 0.5641164 -0.3646428 -1.0078707
000270 e2 81 f8 be ee 5a 0d c0 69 ce f9 bc 02 57 38 3e
       -0.48536593 -2.208675 -0.030493932 0.18001941
000280 b9 4f f4 bc a7 fc ed ba 3d 59 9e bd bd 35 85 3c
       -0.029823171 -0.0018156961 -0.077318646 0.016260976
000290 c4 a4 22 3c a8 7d 0b be 33 6a 72 3e cc a7 12 3e
       0.0099269785 -0.13622153 0.23673324 0.14321822
0002a0 79 a4 7a bc ce c0 61 3d d2 1d 74 3d bc c9 f1 3d
       -0.015298002 0.055115514 0.05959875 0.11806056
0002b0 d0 ff 90 3d b6 59 31 3e a6 57 93 bd fb 12 08 3c
       0.07080042 0.17319378 -0.07194452 0.008305307
0002c0 5a 77 9e 3e ac 09 23 be e0 85 70 3e 86 a4 bd bd
       0.30950433 -0.15921658 0.2348857 -0.09259896
0002d0 dd 6d c3 3d ad 92 41 3d 32 13 4f 3d ed 18 d2 bc
       0.09542439 0.04725902 0.050555415 -0.025646651
0002e0 7e 13 55 bc 46 99 36 bf eb 20 71 bd 60 dc 64 be
       -0.013005136 -0.71327627 -0.058869284 -0.22349691
0002f0 ae c0 c9 bc 21 8e 53 bd 4e c2 32 be 08 b9 8e 3e
       -0.02462801 -0.051649217 -0.17456934 0.27875543
000300 d0 f0 cb bd 86 0e 3f bf 5e 5b 30 bf 78 4d dd be
       -0.09958041 -0.74631536 -0.68889415 -0.43223166
000310 91 b9 0b bf 5b 12 7c bc 19 f5 c8 3d 19 01 4c bf
       -0.54580027 -0.015385236 0.09812374 -0.79689175
000320 6f 7f 06 bf 49 ad 48 be 2b 90 33 bc bf e8 94 bd
       -0.525382 -0.19597353 -0.010959665 -0.07270955
000330 a8 24 d5 be 77 be 68 3e 7d 6d d6 be 1b 23 2c be
       -0.4162953 0.22728907 -0.41880408 -0.16810267
000340 c2 44 c9 be fb 4c b0 be 12 84 97 be df 4a 48 be
       -0.3931027 -0.3443373 -0.2959295 -0.19559811
000350 4f 73 54 3e 32 46 a0 bd c4 61 3d 3e 6e 45 e0 bd
       0.20747112 -0.07825889 0.18494326 -0.10950743
000360 bc bb 02 be 26 8f 21 be 75 02 89 be bd 10 7c bf
       -0.12766927 -0.15777263 -0.26759687 -0.9846304
000370 53 e5 c8 bd bf 82 e6 bb e3 28 4b be 57 cf bd 3e
       -0.09809365 -0.007034629 -0.19839816 0.3707225
000380 31 35 0e bd f6 c5 dd bd e0 70 b6 be d1 79 7a be
       -0.034718696 -0.10828774 -0.35632992 -0.24460532
000390 92 df fa bc 39 a6 9f 3e e8 d3 fa be 29 43 9e 3e
       -0.030624185 0.31181505 -0.48989797 0.30910614
0003a0 6d a8 fe 3e 6e 60 d8 bd 41 e6 b4 be 7d d1 22 be
       0.49737874 -0.105652675 -0.3533192 -0.15900226
0003b0 e7 88 88 be 49 96 13 be 5b a5 6c bd 42 12 4b 3e
       -0.26666948 -0.14412798 -0.057774883 0.19831184
0003c0 9c ce 4a 3b a2 30 18 be c1 17 35 3e 65 d2 00 bf
       0.0030945903 -0.14862302 0.17684843 -0.50321037
0003d0 04 21 91 3d 24 53 d4 3c 49 7e 69 3e 5a 40 3a be
       0.07086375 0.02591855 0.2280208 -0.1818861
0003e0 7d ea 3c 3e 56 17 5c bd 5f 99 55 be b3 56 af 3e
       0.18448825 -0.053733192 -0.20859288 0.34245834
0003f0 97 47 3d bd 98 21 66 3d dc 51 c2 be b2 1e 91 3e
       -0.04621085 0.05618438 -0.3795308 0.2834373

hidden_layers.0.bias f4 [256]
000000 b3 f1 77 bd eb eb f4 bd 61 32 77 be 99 f0 9e be
       -0.060533237 -0.1195906 -0.24140312 -0.31042936
000010 d0 de 3f 3e 2f 53 94 be eb e9 16 be a7 8f 44 be
       0.1873734 -0.28969714 -0.1473767 -0.19195424
000020 46 1f 09 be 65 fa 9e be 19 5f c6 bd 96 cf 63 3e
       -0.13390836 -0.3105041 -0.09686107 0.22247157
000030 70 b7 a5 be 60 af 99 be 09 62 a9 be f1 b1 01 3e
       -0.32366514 -0.30016613 -0.33082607 0.12665536
000040 66 de 07 be c2 32 13 be cc e7 24 be 13 05 c3 be
       -0.13268432 -0.14374831 -0.16104048 -0.3808981
000050 27 17 65 bd 6e f0 95 bd 50 43 36 be 87 99 08 be
       -0.055930283 -0.07321249 -0.17799115 -0.13339816
000060 f4 74 61 be 3b bb 59 3e 29 f0 19 bc 1d cc 58 3d
       -0.2201727 0.21262829 -0.009395638 0.052929033
000070 67 c7 42 be 73 10 4d 3b 79 30 28 3d d1 b5 b9 be
       -0.19021378 0.0031290322 0.041061852 -0.36271527
000080 a4 af cf bd 7a 2e b3 3d d1 45 5b be a1 b7 2f 3b
       -0.10140923 0.08749099 -0.21413352 0.0026812332
000090 81 91 48 be b5 b5 63 be f8 de 0a bf ae 33 77 3d
       -0.19586755 -0.22237284 -0.54246473 0.06035202
0000a0 84 0f 74 be cd 04 c0 be 50 0e 72 3d fc a3 6d be
       -0.23834044 -0.37503663 0.05909568 -0.23207086
0000b0 94 a4 8a be bc cb 63 be e7 4b d4 be be 4a f7 bc
       -0.27078688 -0.22245687 -0.4146416 -0.030187007
0000c0 0d b7 3d be 5a b1 54 be ee 7b 42 be 30 20 6d 3d
       -0.1852686 -0.20770779 -0.18992588 0.057892025
0000d0 61 3e 26 3d c6 90 5a be 1f 74 41 be 37 70 7d be
       0.040586833 -0.21344289 -0.18891953 -0.24749838
0000e0 05 86 50 3e eb 70 20 be 42 10 19 3e db c5 98 bd
       0.20363624 -0.15668075 0.14947608 -0.07459613
0000f0 e5 47 44 3e 62 09 bd bd 71 e0 db 3d ac 03 32 bd
       0.1916805 -0.09230305 0.10736168 -0.043460533
000100 fb 3c c8 3d ae 17 55 be 9f ba 00 be c6 01 b0 be
       0.09777256 -0.20809814 -0.1257119 -0.34376353
000110 85 65 31 be 30 bd 01 be 73 2b b2 bc be 10 03 3e
       -0.17323883 -0.12669826 -0.021749234 0.12799355
000120 84 c0 6e be 99 a9 a1 3d 7c f4 12 be 20 a6 b4 be
       -0.23315626 0.07893676 -0.14351076 -0.35282993
000130 8f 5e 64 3e 02 b7 83 bd 46 80 2c be 99 d8 88 be
       0.22301696 -0.0643139 -0.16845807 -0.2672775
000140 c3 b1 5a be 23 08 70 be fc 3f 88 be 4d 1c 49 3a
       -0.21356873 -0.23440604 -0.26611316 0.00076717586
000150 3b 61 9b bc 8e 2f a6 be 34 03 d9 ba 4d b2 f5 3d
       -0.018967262 -0.32458156 -0.0016556741 0.11996899
000160 66 0f 88 3d 78 ce 01 be ef 80 2e bd ee 7a 9a be
       0.06643562 -0.12676418 -0.04260343 -0.30171913
000170 e3 f0 1a be 57 ba 43 3e 6d 75 62 bd c1 0b af bc
       -0.15130953 0.19114052 -0.055287767 -0.02136791
000180 38 04 89 3d 39 fe 87 be 35 65 80 be 9b 77 f9 3b
       0.06690258 -0.26561144 -0.25077215 0.007613135
000190 65 ff 05 bd b9 c3 af be da 5d 2b be c2 07 05 3e
       -0.032714266 -0.34329012 -0.1673502 0.1299124
0001a0 b8 8e bb bd 9e a4 e9 be e0 ea bc bd 64 38 81 be
       -0.09158081 -0.45633405 -0.09224486 -0.25238335
0001b0 35 5b 8e be 01 9e 32 be e4 55 10 3d fa 51 80 be
       -0.2780396 -0.17443086 0.03523816 -0.25062543
0001c0 13 ab e6 bc 7b f9 13 be 3a 2c cc 3b 34 e7 b1 bd
       -0.028157746 -0.14450638 0.006230858 -0.086866766
0001d0 da 89 9c be 46 3d 29 be b9 c0 18 bb 98 0d 8d be
       -0.30573922 -0.1652728 -0.002330823 -0.27549434
0001e0 34 00 8d bd 1e 81 a3 be f3 97 13 be ca 31 8f bd
       -0.06884804 -0.31934446 -0.14413433 -0.069919184
0001f0 b7 b3 81 be bd bd 12 bd a8 18 be bd 82 0e 4f 3e
       -0.25332424 -0.03582548 -0.092820466 0.20220378
000200 d8 ea e9 3d 7c 90 4a be 32 66 e2 bd be b1 19 3d
       0.11421746 -0.19781679 -0.110546485 0.037523024
000210 af 6b 32 3e 30 36 97 be 06 42 20 be 07 59 fd bd
       0.1742389 -0.2953353 -0.15650186 -0.12370496
000220 cf 24 e5 be bd fe 87 be 56 ed c9 bd 55 46 7d bc
       -0.44754645 -0.26561537 -0.09859721 -0.015458663
000230 d8 93 ac be c5 6b 6b bd 73 32 17 be 2f 77 b1 bd
       -0.33706546 -0.057475824 -0.14765339 -0.086653106
000240 06 30 ce bd dd de a9 be 08 c0 88 be a0 c1 42 3e
       -0.100677535 -0.33177844 -0.26709008 0.19019175
000250 af cc af be 69 68 67 bd c6 bf 0f 3d 7b 8d d5 bd
       -0.3433585 -0.056496058 0.035095 -0.10427376
000260 1b 47 da be 99 6e 17 be 12 b5 0c be ee a5 a7 3c
       -0.42632374 -0.14788283 -0.13740948 0.020464864
000270 fd 9d b7 be c5 ef 6d be 92 36 55 be d4 7f 2a 3e
       -0.35862723 -0.23235996 -0.20821598 0.16650325
000280 18 ea 43 3d 9a 9e 19 bc eb 19 14 be 72 78 30 be
       0.04783067 -0.009376192 -0.14463012 -0.17233446
000290 3f d6 f4 bd ba 27 a4 be 0c 7e 1c be 0e 82 ad bd
       -0.11954927 -0.3206156 -0.15282458 -0.084720716
0002a0 69 4e e1 3a e2 fc c4 be 67 f7 62 bd 24 7b 6c be
       0.0017189506 -0.38474184 -0.055411723 -0.2309385
0002b0 02 36 e6 3d 21 3c d0 3d 26 4e 9d be 72 f7 74 be
       0.1124077 0.10167719 -0.30723685 -0.23922518
0002c0 b1 1a 2d 3d 99 d7 32 be a6 19 5a be 29 0c d0 be
       0.042261783 -0.17465056 -0.21298847 -0.40634277
0002d0 69 25 8f 3d d6 14 13 be 47 a7 ff be 53 7c 41 be
       0.06989557 -0.14363417 -0.4993231 -0.18895082
0002e0 b0 aa 80 be 99 c3 e0 bd a8 34 3b 3d 2e fc 55 bc
       -0.25130224 -0.10974807 0.045704514 -0.013060613
0002f0 78 65 c6 3c c9 64 9a bd d2 9c 7e be bc cc 61 be
       0.024218306 -0.075387545 -0.2486451 -0.22050756
000300 1c 8c 3a bd 56 02 8c bc 9b e1 26 be 95 ef 29 be
       -0.045543775 -0.017090958 -0.16296999 -0.165953
000310 1a 3e 18 bd 20 2d 4d be 91 0e 71 be fe 17 bc bd
       -0.0371686 -0.20036745 -0.23540713 -0.09184264
000320 e7 8b 4a be 94 47 b6 bd 26 a8 8c be 4a 80 0f be
       -0.19779931 -0.08900371 -0.27472037 -0.14013782
000330 16 89 ad 3d 0e 89 7b be 19 36 33 be 58 02 98 3d
       0.08473413 -0.24564001 -0.17501105 0.07422322
000340 32 37 9f bd 3a 95 8e be 45 33 8f be 8c a1 d9 be
       -0.077741995 -0.27848226 -0.27968803 -0.42506063
000350 74 ea a0 bd b7 5e 06 be 27 b1 04 3c 82 69 f2 be
       -0.078572184 -0.13122068 0.008098877 -0.4734612
000360 84 44 3e be f9 b7 80 be 7f cc b3 bd 94 62 c6 bd
       -0.18580824 -0.2514036 -0.08779239 -0.09686771
000370 d6 b5 a8 be fb e0 bd bd d4 79 2e be b9 fc 71 be
       -0.3295123 -0.09271427 -0.17038661 -0.23631562
000380 0b b0 9d be 52 be 7f bd 50 ea 97 be c2 98 3c be
       -0.30798373 -0.062437363 -0.29670954 -0.18417647
000390 3c 38 c7 bd dd a8 37 be 10 9d 72 be cd 9d 94 bd
       -0.09727523 -0.1793551 -0.23692727 -0.072566606
0003a0 4f e2 26 3e 5d de 12 be 3e 98 d3 3d 06 ab 96 be
       0.16297267 -0.14342637 0.10331772 -0.29427356
0003b0 9a ec 76 be 9a 3d a0 be 15 56 c2 bd 9d bd c6 be
       -0.24113694 -0.31296998 -0.09489075 -0.38816538
0003c0 ac 2a 6d 3c 8a 12 f7 bd 1a 39 b1 be f8 e7 0d be
       0.014475506 -0.12064083 -0.34613878 -0.1385802
0003d0 5b 2c b2 be f4 9a 33 be cc 35 da bc 6f d1 37 bd
       -0.34799466 -0.17539579 -0.02663698 -0.044877466
0003e0 22 17 d6 bd 86 a8 55 be 08 fa 22 be 06 02 f4 be
       -0.10453631 -0.20865068 -0.15915692 -0.47657794
0003f0 f5 28 59 be e0 df 7a bd 96 0e 88 be 22 ff ce bd
       -0.2120703 -0.06124866 -0.26573628 -0.101072565

hidden_layers.1.weight f4 [128, 256]
000000 c8 88 f6 bc cb 60 f3 3b 47 71 ef 3c ff 72 7c bc
       -0.03009452 0.00742731 0.02922882 -0.015408277
000010 ab c0 3e 3c 26 f7 ba 3c 55 7b 59 3c c7 7a cd 3b
       0.011642615 0.022822928 0.013274034 0.0062707397
000020 eb d8 9c 3c fa 28 63 3c 08 b3 0f bd 04 38 aa bd
       0.019146403 0.01386475 -0.035082847 -0.083114654
000030 c7 63 34 bd b9 77 d4 bc 1d 75 3a bc 06 bf f3 bc
       -0.044040468 -0.025935994 -0.011380461 -0.029754173
000040 1e a5 cb bd a6 63 01 3d 1b 82 17 bd 0e 1a 73 bd
       -0.09943603 0.031589173 -0.036989313 -0.05935102
000050 f8 d7 92 bc f5 4a 62 3a 1c 6d fe bc 15 5a 95 bd
       -0.017925248 0.0008632385 -0.031057887 -0.072925724
000060 45 c4 16 bb 8f 3e d9 bb 9c 80 16 3d 9a cc c8 bd
       -0.002300517 -0.006629772 0.036743745 -0.0980465
000070 7d 5f 08 bd cd 52 5f bd df 34 c4 3b f5 c9 bb 3b
       -0.03329419 -0.054522324 0.005987748 0.0057308623
000080 3b 26 1b 3d 36 5c 22 bd 64 07 39 3d cc 6e 12 bd
       0.037878256 -0.03963872 0.045173064 -0.035750195
000090 0b f2 30 bd f4 e9 35 bd c7 69 0e 3d f1 50 2e bb
       -0.04319958 -0.04441257 0.034768846 -0.0026598538
0000a0 d9 d0 7e bd e5 a4 a3 bc 1f a2 6a bd 53 d1 45 bd
       -0.06221089 -0.019976089 -0.057283517 -0.04829533
0000b0 55 80 10 bd f2 4e f9 3c 83 51 44 bd 56 8a 3b 3c
       -0.035278637 0.030433152 -0.047929298 0.011446556
0000c0 4f 2d d7 bd 2c cd b7 3b 28 e6 8b bd 59 f2 24 bd
       -0.10506689 0.005609175 -0.06831008 -0.040270183
0000d0 8c d1 84 ba 3f ae 4a bc 53 03 62 bd c6 5c 49 bd
       -0.0010133251 -0.012370645 -0.05517895 -0.04916074
0000e0 da 54 27 bd 01 a0 45 bd 6d 6b a5 bd cb 6c d9 3c
       -0.040852405 -0.048248295 -0.080771305 0.026541134
0000f0 04 c7 a9 bc 89 50 da bc 34 89 09 bd 8d 8a 95 bd
       -0.02072478 -0.02664973 -0.033578113 -0.07301817
000100 b6 97 e2 bc 70 2f 34 3a 45 f4 e1 3b 88 0a 5d 3d
       -0.027660232 0.0006873524 0.0068955743 0.05396512
000110 8c f8 5c bd d5 35 84 bd d2 2a 1c 3d 01 64 af bd
       -0.05394797 -0.0645558 0.038126774 -0.08563996
000120 6d 8e 3b bd 5a ff 67 3d 22 a2 6d bd 04 0f 8f bc
       -0.045790125 0.056640007 -0.05801595 -0.017463215
000130 3f 3c 48 bd d9 52 0e bc 6d 5f 2d bd 59 c5 5c 3c
       -0.04888558 -0.008686745 -0.042327333 0.013474786
000140 de 74 4d 3d 58 fe bb bd cd 38 a2 3c b0 5b 14 bd
       0.05016028 -0.091793716 0.019802475 -0.036220253
000150 b5 2e 95 bd d0 a8 de 3c 36 8b 62 bd ab 32 f9 3b
       -0.07284299 0.027180105 -0.055308543 0.007604917
000160 5d 45 72 bd 30 ef 48 bd c6 14 7f bd 9b 72 52 3c
       -0.05914818 -0.049056232 -0.06227567 0.012844707
000170 8c 86 a9 bd 46 b3 0c 3d 35 13 86 3c d7 64 7c bd
       -0.08277616 0.034350656 0.01636658 -0.061619606
000180 d7 5e 82 bc 0a c9 49 bd a0 de cf 3b 4b 23 eb bc
       -0.015914364 -0.04926399 0.0063436776 -0.028703352
000190 ac a8 d0 3b 6b 5a 7f bd a2 9f 89 bd 6c 4e 1b bd
       0.0063677635 -0.06234209 -0.06719901 -0.037916586
0001a0 b5 c7 a3 bc 79 1a 6a bb 0e 0a 5b bd ae b5 bb 3b
       -0.019992689 -0.0035721345 -0.053476386 0.005728445
0001b0 e8 a6 fa bc d9 7c 08 bd 3c 64 81 bd 70 a6 0d 3d
       -0.030597165 -0.03332219 -0.06317946 0.034582555
0001c0 7b c4 5a 3d 3b b6 3b 3b 2b 19 1c bd f8 f3 6d bd
       0.053410035 0.0028642553 -0.03810994 -0.058093995
0001d0 25 e9 43 3c dc 4e a6 3b f0 a9 01 3b 08 6a 2b 3c
       0.011957441 0.0050753187 0.0019785129 0.010462292
0001e0 22 b5 44 bd 11 eb 8c bd b5 10 be bd b0 93 a3 bd
       -0.048024304 -0.06880773 -0.0928053 -0.079871535
0001f0 6b 7d 91 3c a0 0b 89 bc 8d 1e 13 bd 10 8d 69 bd
       0.01776 -0.016729176 -0.035917807 -0.057019293
000200 6f 19 ab bc ea 96 19 bd 94 7f 7f bd 93 e2 b9 bc
       -0.020886151 -0.03749744 -0.062377527 -0.022691047
000210 7f ba c7 bc b6 cf 43 bd ad c3 ec bc 24 96 cd bc
       -0.02438092 -0.04780551 -0.0289019 -0.025096007
000220 18 90 2f bd 21 42 c5 bc f2 c2 9f 38 6a 2d 5c 3b
       -0.042862028 -0.024079384 7.618022e-05 0.0033596405
000230 d3 88 86 bd 18 09 75 bd a0 1e b6 3b ad e1 23 bd
       -0.06569066 -0.059823126 0.00555785 -0.040010143
000240 04 b8 05 bd a8 b0 22 3d 2e 80 9f 3d 67 d6 84 bc
       -0.032646194 0.039719254 0.0778812 -0.016215516
000250 e1 28 f0 bd c3 fc 4c 3d 61 8f e2 bd 0c 25 7e bd
       -0.11726547 0.05004574 -0.110625036 -0.06204705
000260 be 9c e4 ba 2f 97 d4 bc cd 98 87 bd 28 94 04 3d
       -0.0017441732 -0.025950996 -0.06620941 0.032367855
000270 3b e2 e7 ba b7 bb 6e bd d7 e8 f4 3c 4e ba 0c b9
       -0.0017691323 -0.058284488 0.029896183 -0.00013420844
000280 57 fb b9 bc 00 5b bd 3c fd 02 a4 3c 2b 17 38 bc
       -0.022702856 0.023114681 0.020020956 -0.011235992
000290 db b1 65 bd 7e d7 43 bd 31 13 f4 bb a0 91 88 bc
       -0.05607782 -0.04781293 -0.007448577 -0.016671002
0002a0 23 38 96 bd b0 d6 83 bd ea 47 47 bd 87 30 24 bd
       -0.07334926 -0.06437433 -0.048652567 -0.04008534
0002b0 58 4b 45 bd 9f 91 9b bd bd b6 4f bd 57 68 3a bd
       -0.048167557 -0.075961344 -0.050711382 -0.045509662
0002c0 bb c9 8c bd 00 da 1a 3d 6d 6a e9 3c 19 9a 56 3c
       -0.068744145 0.037805557 0.02849313 0.013098263
0002d0 65 da be 3b c2 6b 23 bc 68 49 6f bd dc 9d dd bc
       0.0058243745 -0.009974422 -0.058419615 -0.027052812
0002e0 23 8b 8a ba 51 43 ff bc ac 25 43 3c c9 55 a3 3b
       -0.001057003 -0.031160029 0.011910837 0.0049845916
0002f0 fa 98 b5 bd 0d 39 e4 bb f7 7f b1 ba 95 9f b0 bb
       -0.088670686 -0.006964809 -0.0013542165 -0.0053901174
000300 59 0f 52 bd d0 65 1b bc 52 58 dd bc c2 d0 88 bb
       -0.051284168 -0.009484723 -0.027019653 -0.0041752765
000310 6c d0 96 bd 4c 3a 4e 3c 0d d3 23 bd b4 a6 61 bd
       -0.07363972 0.012587141 -0.039996196 -0.05509062
000320 a4 bc 87 bd 03 92 6c bd 0d 74 c2 bc d9 94 38 3c
       -0.06627777 -0.057756435 -0.023736978 0.011265957
000330 e9 0b 6b bd 56 63 2d 3c f8 72 a2 bd 9c e3 1e bb
       -0.057384405 0.010582766 -0.07932085 -0.0024244552
000340 1c 20 4f 3d 6b 7c 2d bd ac d3 f0 bc fd c4 48 bd
       0.05056773 -0.042354982 -0.029397808 -0.049015988
000350 cd e8 3e 3c 32 31 8a bd fc 44 56 3b 79 27 6a bd
       0.011652184 -0.067476645 0.0032694926 -0.05716655
000360 33 0c 23 3d 0e 50 95 3c 92 8c 5a bd 52 d8 c9 bd
       0.039806556 0.01822665 -0.053356715 -0.09855713
000370 c7 e6 52 3d 92 3c 6b bd 5f fc 99 3c 8f d8 2a bd
       0.051489618 -0.05743081 0.018797098 -0.041710433
000380 09 49 54 bd e5 2b b6 bb 51 c1 0f bd da ef 28 bd
       -0.051827464 -0.005559432 -0.03509647 -0.041244365
000390 ef e4 42 bc 4e 81 52 bd 4c 55 ce bc 75 00 3d 3d
       -0.011895402 -0.051392846 -0.025187157 0.046143014
0003a0 94 ea 62 bd 1a ef e8 bc ce 2c 04 bd a1 73 e3 3c
       -0.055399492 -0.028434325 -0.03226929 0.027765097
0003b0 40 a9 cf bd 2f 3d 93 ba d1 6b 8c bc ad 51 39 bc
       -0.10139704 -0.0011233444 -0.017141255 -0.011310977
0003c0 98 7c 64 bb c8 01 90 bd 7a a4 d2 bc 81 84 75 bc
       -0.0034864303 -0.0703159 -0.025713194 -0.014985205
0003d0 36 27 9f bc 32 c9 50 bd 60 16 bd 3c f5 76 fb bc
       -0.019427877 -0.050973125 0.023081958 -0.030696372
0003e0 07 4b 86 bd 92 e1 7a bd 94 b3 1c 3d 13 a1 82 bd
       -0.06557279 -0.061250277 0.038257197 -0.06378379
0003f0 71 56 f5 3c 46 c3 97 3c 07 2d be bb 50 de 99 bd
       0.029948445 0.01852573 -0.0058037075 -0.07513106

hidden_layers.1.bias f4 [128]
000000 80 46 0a be ed d1 e6 bb eb d4 3d bd 8d 39 31 bd
       -0.13503456 -0.007044068 -0.046345633 -0.043267775
000010 f4 af f4 3d 93 a2 1d be 12 30 6c bd 68 26 e6 bd
       0.11947623 -0.15394048 -0.05766303 -0.11237794
000020 da 86 0a bc cb 80 8b bd e8 6a 04 be 14 7d dd bd
       -0.008455003 -0.06811675 -0.12931406 -0.108148724
000030 d6 a0 f5 bd 75 95 9c 3d 1d d0 fa 3e cc 0d 72 3c
       -0.11993568 0.07645694 0.48986903 0.014773797
000040 5a 12 c7 bd 53 56 97 bd 2c 0a d3 bd de 78 70 be
       -0.09720297 -0.07389512 -0.103046745 -0.23483607
000050 23 ca 3c 3c d1 34 01 be 87 87 72 be 87 64 38 be
       0.0115228025 -0.12617804 -0.23684512 -0.18007098
000060 be dd a9 bd ee e0 0b 3e 91 32 19 be 46 b2 4e be
       -0.08294247 0.13660023 -0.14960696 -0.20185193
000070 6d e4 0d be 9b 2b 87 bd ca 2a d4 bd b9 72 9d bd
       -0.13856669 -0.06600114 -0.10359724 -0.07687897
000080 3e b5 36 be 31 50 60 be a3 80 5f be 67 e0 66 be
       -0.17842576 -0.2190559 -0.21826415 -0.2254654
000090 c7 f9 95 ba e8 be 76 3e 4e 35 d9 bd 7c 47 26 be
       -0.0011442237 0.24096262 -0.1060587 -0.16238207
0000a0 cf 4f 5a 3d 9d 91 03 be 39 f9 43 be d3 a4 6f be
       0.053298768 -0.12848516 -0.1913804 -0.23402719
0000b0 08 9c b2 bd 4a 22 ae bd 6a c9 a4 bc 79 3b 0c 3c
       -0.08721167 -0.08502634 -0.020115573 0.008559101
0000c0 dd 62 c2 bd 8f 61 18 be 30 8e 01 be 50 96 f1 bd
       -0.09491513 -0.14880966 -0.12651896 -0.11796248
0000d0 ac ef 00 bb 52 09 08 3d d5 6f e3 3c 85 93 85 bd
       -0.0019674106 0.033212014 0.027763287 -0.06522278
0000e0 75 46 ff bc b7 b5 69 be 10 1e bc 3d bc 1f 94 3b
       -0.031161526 -0.22823225 0.091854215 0.0045203846
0000f0 e1 27 7c be b0 0b 86 be 41 4b 98 bc c6 3b db bd
       -0.24624588 -0.26180792 -0.018590571 -0.1070476
000100 96 d0 76 bd b7 b7 3c 3c 7e e6 be bd f0 db 46 be
       -0.060257517 0.01151841 -0.09321307 -0.19419837
000110 45 d0 e0 bc bc 90 42 bd 3a 81 de bc 31 f5 01 be
       -0.02744306 -0.04750131 -0.02716123 -0.1269119
000120 af 8e 49 be 53 4e b6 3b 82 c8 98 bd 64 07 a5 bd
       -0.19683336 0.005563536 -0.07460119 -0.0805805
000130 26 94 e0 3c c1 27 ac bd 88 74 38 be 16 17 5b bd
       0.027414393 -0.0840602 -0.18013203 -0.053488813
000140 c2 bf be bc 3f 11 eb bd 6c a5 8e bd 0e 54 b8 bd
       -0.023284797 -0.11477899 -0.069651455 -0.09000407
000150 fe 54 05 be 06 69 f1 bd 25 b2 15 bd 9a 8e 7b bd
       -0.13020703 -0.1178761 -0.036546845 -0.061415292
000160 73 32 ae bc 6b 44 00 be 23 7e 22 bd bb 91 d0 3c
       -0.02126429 -0.125261 -0.039671075 0.025460115
000170 9c 11 04 be f1 15 dd bd 01 c8 92 bd a5 e0 d3 bd
       -0.12897342 -0.107952006 -0.07167054 -0.10345582
000180 47 4f 80 be 84 6b a5 bd 99 47 fb 3d c4 1b 36 be
       -0.25060484 -0.080771476 0.122695155 -0.17784029
000190 89 0f 81 bd df e8 91 3c 5f 6c 53 be a5 0e 14 bc
       -0.06301791 0.017811237 -0.20646809 -0.009036695
0001a0 5f 66 8b bd e6 21 22 be da fb 52 bd 3b 1c 02 3c
       -0.06806635 -0.15833244 -0.051509716 0.007941301
0001b0 db 25 4e bd 03 05 78 3d 88 ed b5 bc 57 d4 8f 3d
       -0.05032907 0.060551655 -0.02220799 0.070229225
0001c0 97 67 ea 3b 87 2b 0c be 09 3a 7b be 2c 64 13 be
       0.007153462 -0.1368848 -0.24533857 -0.14393681
0001d0 7a 4f c0 bd c4 15 60 be ca b0 05 be a7 e2 d1 bd
       -0.09390159 -0.21883303 -0.13055721 -0.10248309
0001e0 95 be b2 be f6 8b 70 bd 0c 4b 86 bd a5 11 8c bd
       -0.34911028 -0.058727227 -0.06557283 -0.06839303
0001f0 62 fc d2 bc 4f 37 78 3e 08 b5 b8 bd 71 80 c3 bd
       -0.025755111 0.24239849 -0.09018904 -0.09545983

hidden_layers.2.weight f4 [64, 128]
000000 47 77 fd 3c f2 41 8d be c9 60 6e 3e 81 df 6a 3d
       0.030940665 -0.27589375 0.23279108 0.057342056
000010 16 5e 71 bd e1 48 d9 3d a0 00 54 bd bf b5 ab 3d
       -0.058927618 0.10609604 -0.05175841 0.08384275
000020 e3 a3 bd bd e3 08 c7 bd 43 8b a4 bd 45 05 00 3d
       -0.092597745 -0.09718492 -0.080343746 0.031255025
000030 30 ca 52 bc 80 2c fc bc 21 a6 89 be f7 83 cd 3d
       -0.012865588 -0.030782938 -0.2688456 0.10034936
000040 0b 8a 06 3d b8 d1 18 bd ab 86 6f 3d 47 12 1c be
       0.03284649 -0.03730938 0.05847804 -0.15241347
000050 4c ce 1b bd 2e a6 b2 3c 8e 75 e2 bd 3d cb 2c 3e
       -0.038038537 0.021807756 -0.11057578 0.16874404
000060 78 76 8d bd e5 ab 12 3e bd a2 12 3f 9d cf c4 3d
       -0.06907362 0.14323385 0.5727957 0.096099116
000070 92 30 ea 3d bb f7 3d 3e 77 a5 05 3d e4 15 c1 bd
       0.11435045 0.18551533 0.032628503 -0.094280034
000080 0f 30 83 be 7b a0 ae be 80 a9 cf 3d 04 08 db 3c
       -0.25622603 -0.34106812 0.101397514 0.02673722
000090 56 11 ac bc d9 7e 82 3d dc 68 a9 be 3a 67 bc bd
       -0.02100436 0.063718505 -0.33087814 -0.091993764
0000a0 ae 06 77 bc cf 28 2e be 1d de de 3c 16 d8 47 be
       -0.015077276 -0.17007755 0.027205521 -0.19516024
0000b0 60 e9 13 bd f2 b9 8a 3d db 58 2b 3d de d1 c4 3d
       -0.036111236 0.067737475 0.041832786 0.096103415
0000c0 12 d6 6b be 58 c3 d7 be 3b 2f 55 bd f3 a4 19 be
       -0.2303088 -0.42141223 -0.052046996 -0.1500433
0000d0 97 8d 11 3e 6c dc 56 3e f3 96 b9 be 03 bf 00 bf
       0.14214168 0.20982522 -0.36247978 -0.5029146
0000e0 7d a2 bf bd 61 70 c7 3d f8 58 0a be 49 13 17 3d
       -0.09357164 0.097382315 -0.13510501 0.036883626
0000f0 b6 c9 18 bd ed 04 8d be eb aa 1c bd ee 6a ca 3e
       -0.03730174 -0.2754282 -0.038248938 0.39534706
000100 8b fb 61 bd d9 60 64 bb 7a d1 ec 3c 27 f4 1c be
       -0.05517153 -0.0034847765 0.02890848 -0.15327512
000110 01 a0 16 3c 9e 5a 7f bd 9c f4 e1 3d d7 d7 90 bd
       0.009193421 -0.06234228 0.11032984 -0.07072418
000120 d0 e9 b9 3e 89 28 73 3c 33 5c d9 bd 5f a1 7b bd
       0.36311197 0.014841207 -0.10613289 -0.061433192
000130 3c b4 3e 3e 49 a3 8e bd 81 93 15 be 6e d8 27 bc
       0.18623441 -0.06964738 -0.1460705 -0.010244472
000140 d3 33 90 3c da ec 2f 3e 7e bd b7 3d a1 77 29 bc
       0.017602837 0.17180195 0.0897169 -0.010343463
000150 0d 85 24 3d f0 ac 23 3e be e4 b2 3d e6 f3 9c bc
       0.04016595 0.15983939 0.08735035 -0.019159269
000160 28 f4 3d 3c f8 7a 68 3e 94 63 c0 3c 16 e4 8f 3c
       0.011593856 0.22703159 0.023484983 0.017564815
000170 24 b5 b4 bd 22 8f a5 bd 08 96 87 bb b7 d7 45 bd
       -0.08823612 -0.08083941 -0.004137758 -0.048301425
000180 2b bc 98 3d c8 bf 6f 3e cd 00 3d be 66 83 0a be
       0.07457765 0.23413002 -0.18457337 -0.13526687
000190 ac d7 ab 3c a9 57 16 bd d3 5c 94 be 75 86 93 bd
       0.020976864 -0.036704693 -0.2897707 -0.0720338
0001a0 b6 3b 49 3d 9a 4d 40 be 07 4e ad 3d de 85 b2 3e
       0.04912921 -0.18779603 0.08462148 0.34867758
0001b0 80 ef d9 bb ab 51 86 3e a6 7d 43 bd 81 83 65 3c
       -0.006650865 0.26234183 -0.04772725 0.014008404
0001c0 d7 63 2d bd fa 47 dc 3b fe a9 a5 3d 73 9d c2 bd
       -0.042331543 0.0067224475 0.08089064 -0.09502687
0001d0 06 b1 36 3d f5 91 8a bd cd 6b d0 be d7 6a ce bd
       0.044602416 -0.0676612 -0.40707245 -0.10078972
0001e0 8a fd b5 be b4 6b 83 3b 87 b8 b8 bc ea 4f be bd
       -0.35544997 0.004010642 -0.022548927 -0.09292586
0001f0 de 7b 5d 3c b7 33 8c 3d 7d 03 ad bd e2 08 ca 3e
       0.013518302 0.06845801 -0.08447931 0.39459902
000200 bf 5a e6 3d f4 5a 83 be ad 7a 47 3c 47 e5 64 bd
       0.11247777 -0.2565533 0.012175244 -0.05588272
000210 cd 41 9e bd 10 95 9b bd 70 c3 d6 bd b3 68 37 3d
       -0.07727394 -0.07596791 -0.104864955 0.044777583
000220 a7 86 f7 3d fa 4a b8 3b 1a 71 98 be 64 f7 1e 3d
       0.1208623 0.0056241723 -0.2977379 0.03881015
000230 c4 f1 95 3c b0 fd 0a be 9d d3 99 3e a7 d8 e4 be
       0.01830376 -0.13573337 0.3004426 -0.44696543
000240 4a e0 3e bb 66 4f 7d bd de b3 b1 bd 37 4a 78 be
       -0.0029125386 -0.0618433 -0.08676885 -0.2424706
000250 2f be 2b bd ca 35 ba 3c 69 f5 31 bd 3d f1 0e 3d
       -0.04192942 0.022730727 -0.043446932 0.03489803
000260 b8 a9 ef 3c 2a a2 38 be 83 61 a5 3e 76 ff ac 3e
       0.029255733 -0.1803061 0.32300958 0.3378865
000270 ae b7 20 bc ae 81 e8 be d1 df 36 3c d4 c2 8b bc
       -0.009809418 -0.45411438 0.01116176 -0.017060675
000280 e5 ae c4 3d ca a7 35 bc 7f 1e 03 3d b7 88 d7 bd
       0.09603671 -0.011087367 0.032011505 -0.10524123
000290 48 ce 0d be 43 6c 1b be e8 89 6f bd 46 2f 5a be
       -0.13848221 -0.15178017 -0.058481127 -0.21307096
0002a0 31 13 a3 3d 1f c4 7a bd 41 37 c8 bd bc 21 19 3d
       0.07962645 -0.061222192 -0.09776164 0.037385687
0002b0 34 c0 ee 3b cf df 00 bd c5 34 01 bd 9f de 4f bc
       0.007286096 -0.03146344 -0.031544466 -0.012687354
0002c0 e1 05 de 3d 01 8c 57 3d 2b ad 61 be eb b9 7a 3d
       0.10840965 0.052623753 -0.22038715 0.06121246
0002d0 bc 72 78 bd 28 85 6c 3d 99 90 01 be ec e2 df 3d
       -0.060656294 0.057744175 -0.12652816 0.10931954
0002e0 0e 81 56 bd 49 f4 a3 bc 9a e0 67 bf 4d f9 cf bc
       -0.05236917 -0.020013945 -0.9057709 -0.02538743
0002f0 15 55 65 be a4 89 31 3d 2b 55 9a bd a4 81 e7 be
       -0.22395737 0.043344155 -0.07535776 -0.45216095
000300 bf 5d ff bd a5 03 2d bd a0 e6 05 be a8 0b 2c be
       -0.124690525 -0.042239804 -0.13076258 -0.16801322
000310 28 6f cb 3d 40 0d 53 bd 57 2f 1c 3e 22 e6 3f 3d
       0.09933311 -0.051526308 0.15252434 0.04685033
000320 d6 6e 21 bc d8 78 b6 bd 4b ab a3 3d 3e 08 87 3d
       -0.0098530855 -0.08909768 0.07991656 0.06593369
000330 59 be f4 be 72 fa 82 bd 34 e9 ba bb e7 b5 ae bc
       -0.47801474 -0.06395425 -0.0057040695 -0.021326972
000340 c9 9b 53 bd 54 f0 05 3d 24 60 15 be 37 09 87 3d
       -0.05166224 0.032699898 -0.14587456 0.065935545
000350 9a f9 80 3e 08 c4 7c bd 8f 44 8a bd 85 4c 0b 3d
       0.2519043 -0.061710387 -0.06751358 0.03400852
000360 39 36 6a bd b0 a9 49 be b6 2c ff 3c 76 d5 cb bc
       -0.057180617 -0.19693637 0.03114925 -0.02488206
000370 89 b4 0f be b1 e9 1c bc d9 7c c4 bc 1d 6f 15 bc
       -0.14033712 -0.009577201 -0.023985313 -0.00912073
000380 e6 6d 62 3e 72 07 58 3c cb 61 af 3e 56 d7 36 be
       0.22112235 0.013185369 0.34254298 -0.17855582
000390 46 2b 17 bd a2 b2 4e 3d 74 c1 05 be 05 a8 89 bd
       -0.036906503 0.050463326 -0.13062078 -0.067215
0003a0 0e 6a 47 be 4e e3 9b 3e da 86 5d bd 77 58 77 3e
       -0.1947405 0.30446857 -0.054083683 0.2415484
0003b0 29 3a 30 3c 2a 09 48 bd a8 fc e2 3d 90 50 02 3e
       0.010756054 -0.048836865 0.110833466 0.12726045
0003c0 8c 01 5b 3e e3 e1 c5 bd a1 4f 26 be 8b 78 e2 3c
       0.21387309 -0.09662225 -0.16241314 0.02764537
0003d0 e7 f4 1e 3d 39 f9 98 be 6b 87 42 be 8f 6f 92 bd
       0.038807776 -0.29877642 -0.1899697 -0.07150184
0003e0 ef ed 71 bd f4 ab 3f 3d 60 35 63 bd a9 e3 33 bc
       -0.0590648 0.046794847 -0.055470824 -0.010979571
0003f0 32 a0 12 bd af 5f 46 be 11 5f 6f bd 86 be 80 be
       -0.035797305 -0.19372438 -0.05844027 -0.25145358

hidden_layers.2.bias f4 [64]
000000 6d c1 aa be 89 d1 82 3e f2 9e 03 3f 4c 1f 29 3e
       -0.33350697 0.25550488 0.51414406 0.16515845
000010 71 37 af 3e 49 fb 4c 3e 44 7a 0d be fd c0 85 3e
       0.34221986 0.20017733 -0.13816172 0.261238
000020 40 8d a2 bd cd 56 88 3e a3 6b 60 3d f0 1b 21 3e
       -0.079370975 0.26628724 0.05479015 0.15733314
000030 bf bd 90 3e a2 a5 10 be 18 cf 3c bd a7 e2 9c 3d
       0.28269765 -0.14125684 -0.046095937 0.07660418
000040 bc 87 fb bc 17 67 2c bd 97 33 7f be 0c f3 e6 3d
       -0.030704372 -0.0420905 -0.24922024 0.11276826
000050 66 4b de bd da 9c e9 bd 33 dd 6b be 39 00 5c be
       -0.10854225 -0.1140687 -0.230336 -0.2148446
000060 97 e6 ae bd 39 19 f5 bd e3 76 a0 bd 19 c8 2c 3e
       -0.08540075 -0.119677015 -0.07835176 0.16873206
000070 4c db af 3e 1d 50 30 bb b9 8b f3 bd c3 b8 f5 3e
       0.34346998 -0.002690322 -0.11891884 0.47992525
000080 64 4b 2d be 3d 30 2e be 1e b7 fb 3d fd bb 49 be
       -0.1692329 -0.17010589 0.12290786 -0.19700618
000090 18 ab 95 bd 6c d6 1a 3e f9 ca b5 be f0 05 26 3f
       -0.07308024 0.15120858 -0.35506418 0.6485281
0000a0 28 6b ef bd 2a e5 7a be 4f fc 8e bb 9f 25 f3 3e
       -0.1169036 -0.24501482 -0.0043635736 0.4748964
0000b0 22 fe a9 be 7b 2f 17 be b7 d4 6a be 04 33 b3 3e
       -0.332017 -0.14764206 -0.22932707 0.3499986
0000c0 a1 97 51 be 07 a1 3b be 2d a3 0a be fb 48 99 be
       -0.20467998 -0.18323146 -0.13538809 -0.29938492
0000d0 0c 0e 7d bb 13 d5 f9 bd 47 12 86 3e 30 87 13 be
       -0.003861311 -0.12198844 0.2618582 -0.14407039
0000e0 1a c4 85 3e 82 75 0c be c9 30 b6 bc b9 d8 e9 bd
       0.26126176 -0.137167 -0.02224006 -0.1141829
0000f0 e2 86 bb bd c9 6c 05 bd cd b9 23 be a1 2d 10 be
       -0.09156586 -0.03257445 -0.15988846 -0.14079906

hidden_layers.3.weight f4 [32, 64]
000000 71 bb 97 3e 5e e2 f8 be 38 7e d7 bd 96 10 1b bf
       0.29635194 -0.48610204 -0.10522121 -0.60572183
000010 af 99 35 be 24 f4 0a 3f bb 39 54 bc f9 0f 8c 3e
       -0.17734407 0.5427878 -0.012953217 0.27355936
000020 e6 ba cc bc 85 ec 46 bf 5f 1f 8e bd d0 e0 86 bd
       -0.024991464 -0.7770465 -0.06939577 -0.06585848
000030 ae d0 01 3e c0 8f b1 3e ce 71 4a 3e 4e 80 7a 3e
       0.12677261 0.34679985 0.19769976 0.24463007
000040 d2 fb 81 bd c6 bd 74 be 84 57 c0 bd fc 0b 8e be
       -0.06346859 -0.23900518 -0.09391692 -0.27743518
000050 ac 84 88 bc 09 40 cd 3d e3 43 40 bb 48 a7 4d 3c
       -0.016664825 0.10021979 -0.0029337339 0.01255209
000060 87 a5 f7 bd 04 08 69 3c da e5 b8 bc 44 e3 c5 3d
       -0.12092119 0.0142231025 -0.02257054 0.09662488
000070 85 1e be bd 73 28 b2 be 01 0d 71 3e 74 0e 6b be
       -0.09283165 -0.34796485 0.23540117 -0.22954732
000080 27 f4 e6 bc f5 07 3d 3e d4 2b 70 3e ea b3 0d be
       -0.028192593 0.18460067 0.23454219 -0.13838163
000090 5e fb e8 3e 6a 5a b3 3e ad ef df 3e 69 8b 55 3e
       0.45504278 0.35029918 0.43737546 0.20853962
0000a0 47 6b 29 bc cd 14 29 3e 1b e2 1d bf a0 af a5 bd
       -0.010340518 0.16511841 -0.61673135 -0.080901384
0000b0 e2 5a a0 3d 13 f2 c0 3c 6a 1e a7 bd 8c 8b 43 bf
       0.078298345 0.02355293 -0.08160098 -0.76384807
0000c0 43 e5 d1 3e 95 ba 10 3e 93 56 03 3e 74 ae dd 3e
       0.40995225 0.14133675 0.12825994 0.4329716
0000d0 23 d4 ff bd 24 cf e7 3d f4 15 4f be 8a 12 ab bd
       -0.12491634 0.11318806 -0.20223218 -0.083531454
0000e0 3f cd 9a be 14 85 fd bb 7c d3 85 bc 8b a7 55 bd
       -0.30234715 -0.0077368114 -0.016336195 -0.052161735
0000f0 17 9e 86 3c 04 27 2f 3f 28 22 9b be a9 39 8e 3d
       0.016432805 0.6841891 -0.30299497 0.069445916
000100 9b ac b6 3e 7c 23 53 3d ec 01 40 be 16 dd 46 3e
       0.35678563 0.051547512 -0.18750733 0.19420275
000110 9a dd 95 3d 38 81 cf 3b 29 23 24 3d 3a 6b f2 bf
       0.07317658 0.0063325427 0.040072594 -1.8938973
000120 88 8b 9e bd 68 0c 97 be 56 e4 1d 3e 2b 77 01 3d
       -0.07741457 -0.29501653 0.15419134 0.031607788
000130 40 ea 06 be f5 4e 5e 3e e7 6f 31 3e 52 10 24 3d
       -0.13175297 0.21709807 0.17327844 0.040054627
000140 e5 02 87 3d de c7 cb 3d 44 00 fe 3e da f1 81 bc
       0.06592349 0.09950231 0.49609578 -0.015862394
000150 70 7c c0 3c a3 3f a4 3d 77 39 2f be 3b 7b e3 bd
       0.023496836 0.0801995 -0.17111765 -0.11107489
000160 e0 7a bf bd 5b 93 15 bd 03 65 01 3e ba 75 ea be
       -0.093496084 -0.036517482 0.12636189 -0.45792943
000170 b6 84 b3 3e 32 a9 33 3d a0 0b ed bd fa a9 7a 3c
       0.35062188 0.04386253 -0.11574483 0.015299315
000180 8c 4c 93 bc d7 33 4a 3d 01 32 14 3e ee 9a 05 3e
       -0.017980836 0.049365845 0.144722 0.13047382
000190 22 d1 a7 3e 7a d0 03 bf e9 94 98 be 99 2e 79 3e
       0.32776743 -0.51489985 -0.2980111 0.24334182
0001a0 46 09 1e be c0 35 c3 3e 81 3d 85 bf 68 f4 57 3e
       -0.15433225 0.38126945 -1.0409395 0.21089327
0001b0 60 cd d3 be b6 86 d0 3d 43 24 93 bd 25 28 64 3e
       -0.41367626 0.10181944 -0.07184651 0.22280939
0001c0 d8 b2 25 3f 59 b5 b6 3e 88 4b 10 bd 4a 92 44 be
       0.6472602 0.35685232 -0.035228282 -0.1919643
0001d0 86 9d 81 3c 13 d0 50 3d 46 af cd 3d 04 e1 97 bd
       0.015822183 0.050979685 0.100431964 -0.07415965
0001e0 f0 f2 03 bf 30 ed 63 3d 7c 50 0e be b8 7e d8 bd
       -0.5154257 0.05564612 -0.1389789 -0.10571045
0001f0 70 1f b4 bd c8 81 c5 3e 17 af 04 bc a5 09 95 be
       -0.08795059 0.38575578 -0.008098385 -0.2910892
000200 c6 75 35 3c b3 e1 87 3e d4 74 c3 3d 56 f9 b8 3d
       0.011075443 0.26539382 0.095437676 0.09031932
000210 6e 2f a0 3e ff fe 02 3f e8 07 83 bc 41 58 c7 3e
       0.31286186 0.51170343 -0.01599498 0.3893452
000220 a1 f0 7f bd c0 9b 4f 3e 74 18 80 3e 3a f8 ed bd
       -0.06248534 0.20274258 0.25018656 -0.11619611
000230 0e a8 05 3e e1 c8 31 3e 85 1c 67 3e 45 ed a0 3d
       0.13052389 0.17361785 0.22569473 0.078577556
000240 09 72 ff 3e 01 bb ff be 61 a0 a5 bd a6 74 e6 3d
       0.4989169 -0.4994736 -0.080872305 0.11252718
000250 ec 28 1d be cf 42 58 bc 39 b8 a8 3d e6 ee 6b bc
       -0.15347642 -0.013199522 0.08238263 -0.01440022
000260 aa 3f 23 be 61 77 8b 3b c9 c3 2f 3e b9 06 1d bf
       -0.15942255 0.0042561744 0.1716453 -0.6133838
000270 9e 4f 89 be 52 ba 29 be d2 dd 30 be 13 e1 11 3e
       -0.26818556 -0.16574982 -0.17272118 0.14246015
000280 da 02 a8 3e b1 4e 24 be 94 f6 8a bf 31 0b 8e 3d
       0.32814676 -0.16045643 -1.08565 0.06935728
000290 c5 8e 79 bd 71 63 88 3e 25 c1 af 3d bb ed 92 be
       -0.06092717 0.26638368 0.08581761 -0.28697
0002a0 c2 12 30 3e cf c2 98 3e 68 24 d4 3d e8 c7 83 3b
       0.17194656 0.29836127 0.103585064 0.0040216334
0002b0 0a e0 a4 be a8 74 2d 3e 02 f4 ed bd 10 52 82 3e
       -0.32202178 0.16939032 -0.116188064 0.25453234
0002c0 62 9b 2d 3e b7 24 33 3e ec 4a 03 3d 94 c4 37 be
       0.16953805 0.17494474 0.032053873 -0.17946082
0002d0 ac 21 89 bd aa c8 07 3e 50 a5 9b bd a6 5c 30 bd
       -0.066958755 0.13260141 -0.0759989 -0.043057106
0002e0 ed bd 32 3f c5 fe b2 3d d3 a8 ea be 72 df 8a 3c
       0.69821054 0.0874 -0.45831928 0.01695225
0002f0 a4 5b 0e be 0b ed eb bc 84 0e b8 3e 11 db 02 3f
       -0.13902146 -0.028799554 0.35948575 0.5111552
000300 5a 93 8c bd fc f4 6e 3e 5d 94 f7 3c 49 3d ee bd
       -0.068640426 0.23335642 0.030222112 -0.11632783
000310 6a 74 0f 3e b4 fa c7 bd 76 1d ec bd 59 35 4b 3e
       0.14009252 -0.09764615 -0.11529057 0.1984457
000320 ca 9a c8 3c 18 4d a2 3d 67 14 a7 be 56 ac d3 be
       0.024487872 0.07924861 -0.32632753 -0.4134242
000330 f6 b4 32 3e 9c 74 b3 be bd f6 b8 be 79 5c 1d 3e
       0.17451844 -0.35049903 -0.36125746 0.15367307
000340 a3 3a 90 be 7d fe 3d be 0e aa b8 be 1c 5f fb 3d
       -0.28169736 -0.18554111 -0.3606724 0.12274
000350 b9 3b 2d 3e 6d 11 f8 3d d5 cd 83 be ee 00 5a be
       0.16917314 0.12112699 -0.25742975 -0.21289417
000360 1f 07 c3 3b a1 2c f4 bc 2f 85 38 3e 2c 87 4d bd
       0.0059517766 -0.029806437 0.18019556 -0.050177738
000370 86 30 9f 3c 9c 32 36 3c 39 58 03 be 7c ab 79 3e
       0.019432317 0.011120465 -0.12826623 0.24381822
000380 95 61 a4 3e df 0d 7a bd a4 6f 0a bd 50 55 c3 3d
       0.321057 -0.061048385 -0.033797875 0.095377564
000390 95 23 be be be 6e 15 3f 0a a5 d3 bd 97 f3 02 bf
       -0.37136522 0.58372104 -0.10334213 -0.5115294
0003a0 14 65 16 bc 95 65 e9 3c 7b 1a 8e 3e 08 65 86 bd
       -0.009179372 0.02849082 0.27754578 -0.06562239
0003b0 f8 72 a9 be 86 c1 ab bd 3b c0 6a be e6 94 97 bd
       -0.33095527 -0.08386521 -0.22924893 -0.07401447
0003c0 b0 81 d1 3d 2c 53 21 bf ac 8f e9 bb f3 bc 95 bd
       0.10229814 -0.63017535 -0.0071277227 -0.0731143
0003d0 76 54 59 be 1b 2f 9d be c8 d1 30 bc b3 1e 1b be
       -0.21223626 -0.307 -0.010792203 -0.1514843
0003e0 b4 6f 03 3f 25 ea 4e 3d d6 8e ff be 22 96 d1 3d
       0.5134232 0.050516266 -0.49913663 0.10233714
0003f0 2f 01 c3 3c fc 61 2b be 71 50 40 3e d2 9b 16 3e
       0.023804275 -0.16736597 0.18780686 0.14707878

hidden_layers.3.bias f4 [32]
000000 85 de fa 3d d1 64 94 3d 2f 8e a0 be 75 14 0b 3f
       0.122494735 0.07245792 -0.31358477 0.5432809
000010 aa e4 18 be a2 7d 1c 3f b9 e6 e5 3e 36 56 09 be
       -0.14930978 0.611292 0.4490259 -0.13411793
000020 11 27 26 3d 3e 2a 18 3f 19 bd 6b be 2d 17 05 be
       0.0405646 0.59439456 -0.23021354 -0.12997122
000030 7c 15 b5 3e 75 70 d8 bc 1a 60 a2 3e 4e ee 1a 3f
       0.35367954 -0.026420811 0.31713945 0.60519874
000040 50 e4 19 3f 26 5e 95 3e d4 07 98 bd 24 90 7c 3e
       0.60114 0.29173392 -0.07423368 0.2466436
000050 2a 30 19 be 92 43 ad 3e 25 16 f3 bd ef df 60 3e
       -0.1495978 0.33840615 -0.11869458 0.21960424
000060 ce 1e dc 3e 73 1e 33 3e 1d 91 15 be 72 2a d2 3d
       0.42992252 0.17492084 -0.14606138 0.10262002
000070 e2 63 34 be 28 d8 25 be ee 9b 50 be 1e f4 0f 3f
       -0.17616227 -0.16195738 -0.20371982 0.5623187

v_layer.weight f4 [1, 32]
000000 46 ca 60 bf b2 dd 71 be 67 ae 1c be d9 98 b1 3e
       -0.87808645 -0.23619726 -0.15300904 0.34686926
000010 12 90 78 3d 94 d0 d1 3e 3e a5 c8 bf de 59 14 3e
       0.06068427 0.40979445 -1.5675428 0.14487407
000020 6d 2c 90 bf 35 68 c6 3e 4b 95 18 3d be 39 bf bd
       -1.1263558 0.3875138 0.037251752 -0.09337185
000030 0c b4 c7 3e 6d f3 3d bf ce 3c 8a 3e 9c 3a 02 3f
       0.39004552 -0.74199563 0.26999515 0.5087068
000040 dc f8 ce 3e 6f 9c 80 3e eb 1b 58 be ee d9 a5 be
       0.4042424 0.2511935 -0.211044 -0.3239283
000050 dc 17 d1 bd f4 fd d9 3e 65 4a a9 bd 3b 95 95 bf
       -0.10209629 0.42576563 -0.08266143 -1.1686167
000060 48 d4 69 3e 08 53 a6 3d d6 7d ae bd 9e ec 24 bf
       0.22834885 0.08121306 -0.08520095 -0.6442355
000070 b4 7b 40 bf 29 c8 bc be f8 7a b1 bb 54 e4 d3 3e
       -0.75188756 -0.3687146 -0.0054162703 0.41385138

adv_layer.weight f4 [4, 32]
000000 a5 1f 47 bf e2 0a d6 bd 1b 36 b2 be c8 bf 3b be
       -0.7778266 -0.104512945 -0.34806904 -0.18334877
000010 3e a4 80 3b 12 4e 6b be 8c b3 52 bf f5 af 32 be
       0.003925829 -0.22979 -0.82305217 -0.17449935
000020 c1 12 d6 be 09 03 51 3e 79 38 0a 3d a9 7f 95 bd
       -0.41811183 0.20411314 0.033745263 -0.0729974
000030 7b 12 08 3e 22 10 73 bf af c0 19 3d 9f 77 80 be
       0.132883 -0.9494649 0.037537273 -0.25091264
000040 5a b8 7c bd cf e8 23 3e aa cd 07 3e b5 bc 1e bf
       -0.06169925 0.16006778 0.13262048 -0.62006694
000050 7d d0 a8 be 7b e6 e6 3d af a3 a7 3d e0 46 87 bf
       -0.32971564 0.112744294 0.08185517 -1.0568504
000060 1f fd 6f bf f4 5a 6f 3d 00 a4 97 bd fb 2b 1a bf
       -0.9374561 0.05843635 -0.074043274 -0.6022336
000070 2a 15 53 bf 43 33 1d bd 36 4e f1 bc 44 11 e9 ba
       -0.8245417 -0.038378965 -0.02945624 -0.0017781635
000080 22 5a b6 3f 2e 61 24 be eb 49 bf be 20 0b 83 bd
       1.4246256 -0.16052696 -0.37361082 -0.06398606
000090 41 45 7f 3d 94 01 00 3d 01 49 40 3e 90 6d cc bd
       0.062321905 0.031251505 0.18777849 -0.09981835
0000a0 fc 0d e7 3d 2c cf b5 3c 2a 0d 96 3d 4f d6 9f bd
       0.11281964 0.022193514 0.073267296 -0.07804548
0000b0 57 90 82 be 37 7a 68 be b5 26 37 3c 00 6b 07 be
       -0.25500748 -0.22702871 0.011178662 -0.13224411
0000c0 36 ad fb bb 0e 51 34 3e 89 94 43 3e 4a d1 d5 3e
       -0.0076805605 0.17609045 0.1909963 0.41761237
0000d0 9d fd 3e be 13 55 29 3d 34 20 f0 3c 87 1d 70 3f
       -0.18651433 0.0413409 0.02931223 0.93795055
0000e0 34 39 3c 3e ab e1 6c 3e 88 aa e5 3d b6 ed ad bc
       0.18381196 0.2313296 0.11214167 -0.021231513
0000f0 e7 5a ab 3e bb 2d cf bc ea 13 88 be 4e d4 a5 3d
       0.3346779 -0.02529036 -0.26577693 0.080971345
000100 cd ab ce be 1d e8 b2 be 82 2d 21 3e 82 e9 d6 3d
       -0.4036545 -0.34942713 0.15740016 0.10493757
000110 9d 7b 93 3d 14 a9 78 be cc 9b 80 bf c1 ad 3b 3e
       0.07201312 -0.24283248 -1.0047545 0.18328
000120 5c 71 91 bf fb c0 e0 bb a0 e4 b8 bd 73 fc c3 3d
       -1.136272 -0.0068589426 -0.09027982 0.09569635
000130 7e a0 98 3d 2b 88 8f 3e d2 ab 81 be 87 ad 24 3e
       0.074524865 0.28033575 -0.253264 0.1608182
000140 83 a5 bd bd 39 4a 45 be 4c cf ae 3e a4 d6 c0 3e
       -0.092600845 -0.19266595 0.3414253 0.37663758
000150 82 bc 64 be 6e 6f 65 bd e9 01 28 bd 69 58 29 bf
       -0.22337535 -0.05601447 -0.041017447 -0.6615053
000160 ed 8c c0 bd ff b6 a1 3e 87 2e f1 3d fb 06 00 3f
       -0.094018795 0.31584927 0.117764525 0.5001065
000170 42 08 f9 be ae b2 93 be dd 25 6e 3e fe 3a 2b bd
       -0.48639113 -0.2884726 0.23256631 -0.041804306
000180 fa 5a 16 bf 0d b6 a0 be 49 0b 97 be c7 7f 7a be
       -0.5873257 -0.31388894 -0.29500797 -0.24462806
000190 a3 0e 4b be 07 9f fd bc 19 38 6e 3f fc d5 d7 bd
       -0.19829802 -0.03095962 0.9305435 -0.10538861
0001a0 e6 a5 20 bf 77 d5 97 bc f3 38 0d 3e b3 a1 5c 3d
       -0.6275314 -0.018534405 0.13791256 0.053865146
0001b0 bb 71 04 3d 08 19 f1 bd 51 17 89 3e 6b f4 66 3d
       0.032335024 -0.117723525 0.26775602 0.05638544
0001c0 f1 fe d4 3d 81 35 89 be d7 41 3d be 9d e0 8d bf
       0.10400189 -0.26798633 -0.18482147 -1.1084172
0001d0 27 6a 01 bd 11 b0 8a 3e f6 5a 83 3d 1f 92 94 bf
       -0.031595375 0.27087453 0.06413834 -1.1607093
0001e0 17 ab 84 3e 87 79 14 3d 44 2a c1 bb 89 c8 1f bf
       0.2591178 0.03624871 -0.005894931 -0.6241537
0001f0 a0 2a 3c be 0c fa d4 be 9d d4 d7 3c d1 02 73 bd
       -0.18375635 -0.4159702 0.0263465 -0.059328858

adv_layer.bias f4 [4]
000000 02 eb 24 3e 8b 9f 1e be 41 a8 45 bd 79 9f 2d b9
       0.16105273 -0.15490548 -0.048256163 -0.00016557974
