per-dqn-checkpoint.pth (torch_old, 214008 bytes, 10 tensors)

hidden_layers.0.weight f4 [256, 37]
000000 eb ca 43 bd 8c 07 b0 3c c4 03 f6 bd 56 5f db bc
       -0.04780094 0.021487974 -0.12012437 -0.026778858
000010 d0 a7 98 be 61 af 19 bf a1 9f 29 bd 4c d1 ca 3e
       -0.2981553 -0.6003323 -0.041412 0.39612806
000020 89 e1 fb 3e 0c 06 9e be 4b 27 1b be 1e ee 61 3e
       0.49195507 -0.30863988 -0.15151708 0.22063491
000030 db ce 86 be fe 79 22 bf 1d e9 56 3e 59 ce a6 be
       -0.26329693 -0.63467395 0.20987363 -0.32579306
000040 f9 2c 1e 3e 1b c2 28 3e f9 10 80 3d 04 a4 26 be
       0.15446843 0.16480295 0.06253237 -0.16273504
000050 aa b6 f9 bd 87 a9 3c 3e 09 ed 34 3e 7f 1a 7a bd
       -0.121930435 0.18424045 0.17668547 -0.061060425
000060 03 9c f7 bd 6b 5c ab be 3c ee df 3d 69 72 5b 3e
       -0.12090304 -0.33468947 0.109341115 0.21430363
000070 1c da d3 bd 1f cc 09 be 8b 9a 3b be ce e1 70 3e
       -0.103443354 -0.13456772 -0.18320672 0.23523638
000080 92 a8 47 bd 9a 65 51 bd b1 e4 8e be 5b 56 ff bb
       -0.048744746 -0.051122285 -0.27908853 -0.007792277
000090 5d 04 19 3c 6b 83 19 3e 86 12 3d 3e 88 3d 03 be
       0.009339419 0.14991538 0.18464097 -0.12816441
0000a0 5f 64 bb 3d 2f 0f 74 be 40 5d 7f 3e 3e e4 0c bf
       0.09150004 -0.23833917 0.24937916 -0.5503577
0000b0 5b 6e 22 bf 05 68 00 bf 27 a5 9d bf 6b c6 6c 3d
       -0.6344964 -0.5015872 -1.2316025 0.057806414
0000c0 87 52 f2 bc d4 13 0d be 21 f4 da 3d 52 53 96 bb
       -0.029580368 -0.13777095 0.10691095 -0.0045875693
0000d0 ab c7 e0 3d 65 6a e6 3d eb a2 7d bd 30 14 00 be
       0.10975584 0.11250762 -0.06192295 -0.12507701
0000e0 c3 03 28 3d 51 5d 98 be c9 cf b3 bd 72 bc 0f 3d
       0.041019212 -0.29758695 -0.08779866 0.035091825
0000f0 38 e6 0a 3e 68 e5 3f 3e 68 1e 32 be a6 6c 14 3e
       0.13564384 0.18739855 -0.17394412 0.14494571
000100 7f 18 03 3d 22 aa 66 3d bc 1f c2 3d 2e 8b b0 3d
       0.032005783 0.056314595 0.09478709 0.086202964
000110 1a aa 60 3e e4 bb b7 3d b0 85 af 3c d1 56 17 3e
       0.21939889 0.08971384 0.021426052 0.14779212
000120 e3 58 23 3e 11 4d d4 3c 3b 89 b3 bc fa 1d a0 3e
       0.15951876 0.025915654 -0.021916023 0.3127287
000130 97 e8 90 be d7 06 2a be a1 49 99 be ce 5d 41 bf
       -0.28302452 -0.16604172 -0.29938987 -0.7553376
000140 fe 46 3f 3d 78 ed a5 3e d7 4e b6 be ac 70 2e bf
       0.046698563 0.32407737 -0.35607025 -0.68140674
000150 36 f7 97 be d4 06 7d 3d fc 09 c2 bd b7 bd a3 3d
       -0.29680794 0.06177409 -0.094745606 0.079951696
000160 9d 32 46 be b0 79 a4 be 29 19 de 3d 71 6d 41 3e
       -0.19355245 -0.3212409 0.10844643 0.18889405
000170 37 26 a5 3e 2c ee f3 bd 84 e6 62 be f9 8e 84 3e
       0.32255718 -0.11910662 -0.22158247 0.2589033
000180 56 f1 31 be 86 0e 63 3d 4b 2e d4 be c3 64 99 be
       -0.17377219 0.055433773 -0.4144157 -0.29959688
000190 45 f4 96 3e f9 a1 30 3d 5e 20 89 be 23 d4 6a be
       0.29483238 0.04312322 -0.26782507 -0.22932486
0001a0 3a 62 fe be 5a ca cc 3d b9 b5 9a 3d ad dd 1e bf
       -0.49684316 0.09999533 0.07554192 -0.62057
0001b0 78 e1 0e bf 98 4b 2f 3d e0 17 6a ba 0f fd 5a 3e
       -0.5581279 0.0427967 -0.0008929949 0.21385597
0001c0 b5 dc cb be de 18 53 3e 42 56 0f bd 6d 11 0a bf
       -0.39816824 0.20614955 -0.03499437 -0.5393284
0001d0 1e 75 0c be dc 09 92 3d 21 36 13 bd f8 c9 a4 3d
       -0.13716552 0.07130787 -0.035940293 0.08046335
0001e0 ba 71 94 3e a6 a7 5d 3d f3 67 cc 3b 31 d8 b0 3c
       0.28993016 0.05411496 0.0062379777 0.021587463
0001f0 f6 c9 0e bf 62 1c 15 3b 7b fb 51 3e 10 ac 99 be
       -0.5577692 0.0022752513 0.20506088 -0.30014086
000200 50 c1 a1 be 8c 0e cc be 3a 54 c0 be 4f a5 0d bd
       -0.31592798 -0.39854848 -0.3756426 -0.03458148
000210 ad 27 01 bd 1f b3 4c be 47 e5 65 3e 46 a0 06 3e
       -0.03153198 -0.19990204 0.22450744 0.13147077
000220 6d be e7 3d 21 f6 77 bd c3 3a 19 be 56 e9 20 3c
       0.11315618 -0.06053746 -0.14963822 0.009821257
000230 21 dc e3 3c f9 b5 75 3d 24 b3 8c 3e 6a fc 88 be
       0.027814927 0.059987996 0.27480423 -0.26755077
000240 89 b1 cc bc 7a 79 96 bd fd f8 94 3d 6e 19 2e 3c
       -0.024987 -0.073473886 0.07274053 0.01062618
000250 12 4f 29 bc a2 13 a4 be 53 81 aa bd c0 b5 c6 be
       -0.010333793 -0.3204623 -0.08325448 -0.3881054
000260 5b a3 93 be 9b c8 8a 3e 37 80 a9 bd be 1b d7 be
       -0.28835568 0.27106175 -0.08276408 -0.42013353
000270 91 3b a1 be 41 37 47 bf d0 7f 98 be f2 95 8a be
       -0.31490758 -0.77818686 -0.29785013 -0.27067524
000280 bf 53 4f 3d bd 9c 7a 3e 5a 01 eb bd 8c 73 36 be
       0.050616976 0.24473853 -0.11474867 -0.17817515
000290 0f 66 c2 be 1c 2a cd bb 17 78 83 3e 70 3e c1 bd
       -0.3796849 -0.0062611233 0.2567756 -0.09435737
0002a0 1d 66 96 3b 1d d0 87 be 1a a3 8c bd 31 c5 63 3d
       0.0045898096 -0.26525965 -0.06867047 0.05560798
0002b0 13 c6 13 3e a1 00 95 3e 14 d6 cc be d7 f8 4e bd
       0.14431028 0.29102042 -0.4000708 -0.05053028
0002c0 a6 a9 8a be d6 d6 38 bf fc 40 c3 bc 56 05 0e 3e
       -0.27082556 -0.72202814 -0.023834698 0.13869223
0002d0 81 f2 92 39 d0 f8 91 be c2 70 2f 3d 33 a7 d4 bd
       0.0002802797 -0.2851014 0.042832144 -0.10383453
0002e0 ab 57 ee 3d 26 95 9e bb 80 91 93 be 3a f7 e4 ba
       0.11637815 -0.004839557 -0.28821945 -0.0017468699
0002f0 99 ef 35 3e 48 07 10 be 6f bb 9f 3e 4c 6a 4b be
       0.1776718 -0.14065278 0.31197688 -0.19864768
000300 27 39 36 bf 8a 6a d9 be 31 eb be bf 1a 1e 1a be
       -0.7118096 -0.42464095 -1.4915525 -0.15050545
000310 80 fb 87 3c a9 2f 7a bd 29 0f 12 be 6e 74 d1 bd
       0.016599417 -0.06108061 -0.14263596 -0.10227285
000320 f3 43 d8 bb 2d cf 69 ba fb 5c 1f be f1 d2 bd bd
       -0.006599897 -0.0008919116 -0.15562813 -0.092687495
000330 2d 69 19 3c 1a a0 9a 3c b5 36 2c 3c 71 77 0a 3e
       0.009363455 0.01887517 0.01051109 0.13522126
000340 7e d2 82 3d 00 0d 29 bd ff cf 13 bc 14 bf 27 be
       0.063878044 -0.041272163 -0.009021758 -0.16381484
000350 d7 b9 66 3e 44 30 2b be 99 e2 00 3e 4a 6d 82 3c
       0.2253183 -0.1671763 0.1258644 0.015921254
000360 ad 87 68 be d7 b4 28 3d 4c 64 f4 bd 7a ee 05 bf
       -0.22708006 0.041188087 -0.119331926 -0.5231701
000370 49 bd ac 3c c9 92 40 3d bf 8b 32 3a 20 bd 0e 3d
       0.021086352 0.047014985 0.0006810985 0.034848332
000380 d3 3f bf be 1e d4 f3 bd 2e 39 1c be 52 51 d1 bd
       -0.37353382 -0.119056925 -0.15256187 -0.10220589
000390 67 65 9f 3c fd 40 8b bc 5b ca 72 be c6 14 75 3e
       0.019457532 -0.016998762 -0.23710005 0.23933706
0003a0 89 bc 05 be fb e5 67 be 79 ee 76 3e 72 75 b6 be
       -0.13060202 -0.22646324 0.24114408 -0.3563648
0003b0 71 b6 cc 3d e3 d6 22 3e 09 ef 83 be ac 76 cf bd
       0.099957354 0.15902285 -0.25768307 -0.10130057
0003c0 4f 29 3f be 2a d9 99 3d f3 6c 92 be c2 3b 70 3e
       -0.18668102 0.07512124 -0.28598747 0.23460296
0003d0 69 42 cd 3d e4 40 73 be 74 f1 44 3d 2a 12 9a be
       0.10022432 -0.23755223 0.04808183 -0.30091983
0003e0 35 fe 0c bf b3 5f 99 3e 83 4e 03 bf cc 9b 8e 3c
       -0.5507539 0.29955825 -0.51291674 0.017408274
0003f0 c2 3a 47 be 20 2c a9 3e 2d a0 3c be 19 3b 69 be
       -0.19456008 0.33041477 -0.18420477 -0.2277645

hidden_layers.0.bias f4 [256]
000000 73 04 43 3d 0d 2a ca 3d 96 a6 e0 3c 5b d0 93 bd
       0.047611665 0.09871302 0.027423184 -0.07217475
000010 01 97 57 3b c3 57 30 3d 73 4d 1b be c6 71 58 bd
       0.0032896402 0.043052446 -0.15166263 -0.052842878
000020 d9 13 aa be d8 6c 20 be 7c 36 0d 3d d3 d9 1b 3e
       -0.33218268 -0.1566652 0.03447579 0.15219812
000030 83 31 ac be 21 f1 13 be 83 4f 94 be c3 9d 54 3d
       -0.33631524 -0.14447452 -0.28966913 0.051908266
000040 f3 10 10 3d d9 df 35 3d 08 9e d5 bd be 41 5a be
       0.035172414 0.04440293 -0.10430533 -0.21314141
000050 10 3d c5 bd 20 1a a3 3d ea 29 db 3d 2b 5f 2c be
       -0.096307874 0.07963967 0.10701354 -0.16833179
000060 52 f0 24 3d 4f c6 fc 3d 7f 10 e1 3d 5f 55 b5 3d
       0.04026825 0.12342512 0.109894745 0.08854174
000070 0f 15 41 3d 7f 9b 36 3e f9 e0 c7 3d 79 92 9b bd
       0.047139224 0.17832755 0.09759707 -0.07596297
000080 1d e7 5a be b6 ea 89 3d fb 3b 5b bd ee 80 89 3d
       -0.21377225 0.06734221 -0.053524 0.067140445
000090 50 65 f1 bc 6e 83 43 bd c0 d5 cd bd 8a 7a f8 3d
       -0.029467255 -0.047732763 -0.10050535 0.121327475
0000a0 42 c9 1c be 60 cf 83 bd e7 6e 73 3d 12 23 ca 3d
       -0.15311149 -0.06436038 0.059431937 0.098699704
0000b0 cf ae ca bd be e3 d4 bd 6c 1a 82 be 92 bb 04 be
       -0.09896623 -0.10395001 -0.25410783 -0.12962177
0000c0 61 75 4a 3c 5e 4c 09 be 3b a8 0b be a4 af 15 3e
       0.012357087 -0.13408038 -0.13638394 0.14617783
0000d0 52 1c 97 bd ed 89 01 be 26 3b 21 be 28 8a 9a bd
       -0.073784485 -0.12650271 -0.1574522 -0.075458825
0000e0 02 1e 4d 3e 88 4c b7 bd 60 1e 3a 3e 72 20 51 bd
       0.20030978 -0.08950144 0.1817565 -0.051056333
0000f0 43 f5 c3 3d f2 31 d5 3c 70 9c 87 bc 2e 2d 34 bd
       0.09568264 0.026024792 -0.016554087 -0.0439884
000100 05 d4 a4 3c b2 ef d4 bd a4 ab 55 be 1c 4f 88 be
       0.02012063 -0.10397281 -0.20866257 -0.26622856
000110 cd 6a 61 be 67 bc 26 be 78 a3 1a be 8c 45 7d 3d
       -0.22013398 -0.16282807 -0.15101421 0.061833903
000120 d4 3f 80 be 8e 4e aa 3d f2 eb 99 bd 9d a9 c0 bd
       -0.25048697 0.08315764 -0.07515706 -0.09407351
000130 29 cf 10 3d 6c f4 44 bd 24 d8 bf bd 79 2f 18 3e
       0.035353813 -0.04808466 -0.093673974 0.1486186
000140 c4 70 aa bd 72 a4 04 3e 05 49 21 be 03 9f 6a bd
       -0.083222896 0.12953356 -0.15750511 -0.05728055
000150 bf 9f 61 bc 0f 0b e2 bd 8c 92 4c be 61 fc e9 3d
       -0.013770997 -0.110372655 -0.19977778 0.114250906
000160 e6 2f 5d 3d cc 42 77 3c 30 e6 0d 3e df 60 02 be
       0.054000758 0.015091609 0.13857341 -0.12732266
000170 1e 80 e1 bd 3f 52 25 3d e3 86 f9 bd c8 74 ad 3d
       -0.110107645 0.04036164 -0.12183931 0.0846954
000180 89 0e f1 bd 10 44 46 be 5b fb 60 bd 3a 12 e8 3c
       -0.117703505 -0.19361901 -0.05492721 0.028329004
000190 1b 34 16 bd fa 6b 5b be 6e 29 08 be 17 0c 93 bd
       -0.036670785 -0.21427909 -0.13297054 -0.0718004
0001a0 1d aa b7 bd f0 c4 9b be 4b 73 8e 3d 91 cc dd bd
       -0.089679934 -0.3042369 0.06955584 -0.108300336
0001b0 39 b5 55 be 70 7c 86 3c 31 f9 bd bd 1d b6 40 3d
       -0.20869912 0.016416758 -0.09276045 0.047048677
0001c0 ca 54 01 3e 81 e4 10 bd 27 a2 a5 3d 80 45 1d be
       0.1263 -0.03537417 0.08087569 -0.15358543
0001d0 98 4a 98 be 0a 80 fa bd c1 9a 3d be 88 60 fd bc
       -0.2974441 -0.12231453 -0.18516065 -0.030929819
0001e0 2e b8 01 bd 99 a5 f7 bc 95 a7 d3 bd a2 77 f0 bd
       -0.031669788 -0.03023033 -0.10334698 -0.11741568
0001f0 32 02 7a be 8d 55 9a bd 5e 06 ba 3d e2 70 e7 3c
       -0.244149 -0.07535849 0.09083246 0.028252069
000200 98 96 4b 3e 00 9f c1 bd 11 35 02 be 84 03 8e 3d
       0.19881666 -0.09454155 -0.12715556 0.06934264
000210 72 c9 c5 3d 7e da 8b bd df 14 06 3c b5 5d 56 be
       0.09657563 -0.068287835 0.008183687 -0.20934184
000220 16 07 e3 bd f3 80 0b be 52 25 ea bb 40 fe 00 be
       -0.11085336 -0.13623409 -0.007145562 -0.12596989
000230 84 8a ae bd 67 c2 33 3d 4e 59 a2 bc 3e 1b dc bd
       -0.085225135 0.04388657 -0.019817974 -0.107473835
000240 32 ba 86 bd e8 00 43 be a1 e9 74 be 47 90 33 3e
       -0.06578483 -0.19043314 -0.23917247 0.17535506
000250 cf f3 51 be e5 68 91 3d 2d ce 90 bd 6e 03 81 be
       -0.20503162 0.07100085 -0.07070575 -0.2519793
000260 b4 ea 58 be ad 70 b3 bd 0f 8a eb bd 06 3d 05 bd
       -0.21183282 -0.087617256 -0.11500942 -0.0325289
000270 6c 43 be bd fe 07 77 be 4d ac e0 3c 31 49 20 bd
       -0.092902035 -0.24124143 0.02742591 -0.0391323
000280 3f de 1f 3e 54 09 ad 3d 17 c5 ba 3d c1 d9 b3 bd
       0.15612124 0.08449045 0.09119623 -0.08781768
000290 1d 63 a0 bb ac ff 91 be 3b 84 a5 bd f8 d3 cd bd
       -0.0048946277 -0.28515375 -0.080818616 -0.100501955
0002a0 9f 04 46 be 24 6b e1 bd b9 52 02 3e 9a d9 d6 bd
       -0.193377 -0.110067636 0.12726869 -0.10490723
0002b0 e6 f5 87 bd 55 71 f4 3d 0d 6a 81 bd 4d 8c 21 be
       -0.06638698 0.11935679 -0.06319056 -0.15776177
0002c0 3f 2f ba 3d be 87 5e be 0d 4f 63 3d a8 12 79 be
       0.09091043 -0.21731469 0.05549531 -0.24323523
0002d0 d2 ef ac 3d 36 63 d2 bd c6 f0 13 be 74 51 a6 bd
       0.084441796 -0.10272829 -0.14447317 -0.08121005
0002e0 69 20 7c be 49 f0 da 3d 34 d1 11 3e 9b 44 d7 3c
       -0.24621738 0.10690362 0.14239961 0.02627783
0002f0 d9 e2 ac 3d 56 99 83 3d 74 fb 84 be a3 f6 33 3c
       0.08441705 0.06425731 -0.25973094 0.010984096
000300 0e c0 8e bc 2c dd ec 3d 1a 79 3b 3d 99 c0 f3 bd
       -0.017425563 0.11565623 0.04576979 -0.119019695
000310 c2 e7 74 3d 38 7f f1 bd 8a 41 3d be ce 7b dc bd
       0.059791334 -0.11791843 -0.18482032 -0.10765801
000320 d2 d3 90 3d 8a f2 a6 3d 41 5c 59 be 8b a1 81 3d
       0.070716515 0.081517294 -0.21226598 0.0632964
000330 6f 3f 63 bc 47 69 60 be 2b b5 c7 3d 6a 3a 02 3e
       -0.013870104 -0.2191516 0.09751352 0.12717596
000340 b5 e9 2e 3d f7 5d 76 bc b1 d4 67 be d1 f3 b4 be
       0.04270335 -0.015037051 -0.22639729 -0.35342267
000350 04 28 ea 3d 9c db 88 be 68 f1 48 3c b3 e6 30 be
       0.114334136 -0.2673005 0.012264587 -0.17275505
000360 92 67 34 be 50 d3 7b 3d a9 be 9a bc ca a4 b3 bd
       -0.17617634 0.06148082 -0.018889742 -0.087716654
000370 a5 bf 17 be 52 5d 5e be 12 73 68 be 88 93 1b 3d
       -0.148192 -0.21715286 -0.22700146 0.037982494
000380 9f c8 a0 be bb 4f b5 3b 00 ed 7e bc 1f ef a7 bd
       -0.31403062 0.0055331863 -0.015559435 -0.081999056
000390 65 16 fd 3d 52 32 21 be a0 e4 fe ba b6 35 82 bd
       0.12357787 -0.15741852 -0.0019446798 -0.06357901
0003a0 54 7b ca bc 3b 07 52 bc 2a ba b1 bd 23 22 34 bd
       -0.02471701 -0.012819107 -0.08678086 -0.043977868
0003b0 5a 8b 16 bc 37 3d a7 bd a3 ac 0d be 04 b0 38 be
       -0.009188497 -0.08165973 -0.13835387 -0.18035895
0003c0 a9 cd 86 3d b8 d9 d4 3d 00 7d 4a be 96 f4 67 bd
       0.06582195 0.10393089 -0.19774246 -0.05662974
0003d0 60 90 4e be 5f ae 68 bd 3a 4b ad bc b6 09 e3 3d
       -0.20172262 -0.05680692 -0.021154035 0.110858366
0003e0 da 25 ae 3d 98 75 a6 3c 72 39 61 bb aa 07 86 be
       0.08503313 0.020319745 -0.0034366515 -0.26177722
0003f0 97 e2 2f be a1 a4 d6 3d f9 35 99 bd 35 60 85 bd
       -0.17176281 0.10480619 -0.074809976 -0.06512491

hidden_layers.1.weight f4 [128, 256]
000000 3a 46 c1 bc d8 ab af bb 66 a2 0d 3d 84 4f 14 bd
       -0.023593057 -0.0053610615 0.034578703 -0.036208645
000010 d2 a7 bf bb 8e f8 2c 3c 6e 65 2b 3d 1a c9 04 3d
       -0.005848863 0.010557307 0.041844778 0.032418348
000020 18 43 e1 3c 53 4b 92 bc f6 90 8b bc df 35 c5 bd
       0.027497813 -0.017858183 -0.017036896 -0.09629416
000030 d1 6d de bb bb 3f 7f bd 7f 60 02 bd f7 39 d6 bc
       -0.0067879935 -0.062316637 -0.031830307 -0.026150687
000040 0b 0b 75 bd 7d 8e 72 3c 61 70 bf bc ef 1e 84 bd
       -0.059824985 0.01480448 -0.023369016 -0.064512126
000050 86 73 6c bd a2 1d 08 3c 17 5b 01 bd e5 eb 92 bd
       -0.05772736 0.008307846 -0.03158101 -0.071738996
000060 90 f9 81 bc 7e ca 72 bc 11 7f 26 3d 81 10 8e bd
       -0.015866071 -0.014818786 0.040648524 -0.069367416
000070 b2 da b6 bc 5e b2 4c bd 44 8b e5 bc 54 66 25 3c
       -0.022321079 -0.04997479 -0.028020509 0.010095198
000080 2a 6a 9b 3c 20 3f 34 bb b3 42 26 3d bd 54 9e ba
       0.018971521 -0.0027503446 0.040590953 -0.0012079697
000090 35 93 68 bd f0 b4 91 bc 88 17 2a 3d cb 4c ab ba
       -0.056781013 -0.017786473 0.041526347 -0.0013069151
0000a0 c5 16 47 bd c6 b6 83 bc d6 09 7b bd e7 f0 43 bd
       -0.0486057 -0.016078364 -0.061288677 -0.047837164
0000b0 a2 8c 6d bc e0 64 fa 3b 77 d5 1e bd 30 48 5a bb
       -0.0144988615 0.00764142 -0.038777795 -0.0033307187
0000c0 28 3f 64 bd 57 67 6f 3c 56 4d b9 bd 3b 21 6b bd
       -0.055724293 0.0146120405 -0.09047954 -0.057404738
0000d0 67 e9 ae 3c 9d d6 28 bc 81 7e 7f bd c2 c1 9b bd
       0.02135153 -0.010305074 -0.062376503 -0.07605316
0000e0 0a 8c 34 bd ae df 09 bd cc e7 bb bd e6 ef 37 3d
       -0.044078864 -0.033660583 -0.09175071 0.04490652
0000f0 27 03 5d bc 7c 64 94 bc bc c9 04 3d ec c5 cd bd
       -0.013489521 -0.018114321 0.03241895 -0.10047516
000100 37 6c 0c 3b ec 64 ed ba 08 ff 5c 3c 74 d3 91 3c
       0.0021426806 -0.0018111742 0.013488539 0.017801024
000110 60 b7 b5 bc 9f 30 8e bd c7 03 53 3d bf 1a 90 bd
       -0.022182167 -0.069428675 0.051517274 -0.070363514
000120 6d c9 89 bd e3 63 4f 3d a4 5c 15 bd ac ee 73 bd
       -0.06727872 0.05063237 -0.036465302 -0.059553787
000130 99 2b 8c bd 94 1c 07 3c 36 a9 6b bd 4d 09 1c 3c
       -0.06844253 0.00824656 -0.05753442 0.009523702
000140 7c 50 fa 3c e3 f7 8d bd 1b df d1 ba ea c4 34 bd
       0.030555956 -0.06932046 -0.0016011925 -0.044133104
000150 eb 92 96 bd c4 1c b3 3c 13 b6 9b bd 2d 58 b3 3c
       -0.07352241 0.021864302 -0.07603087 0.021892631
000160 c2 18 29 bd 70 e0 34 bd 9d dd 8b bd 70 4d 5c 3c
       -0.041283377 -0.044159353 -0.06829379 0.013446197
000170 9c a5 8f bd 46 b3 0c 3d 16 7f ff 3c 8d 98 bb bd
       -0.07014009 0.034350656 0.031188529 -0.09159956
000180 73 1e 98 3c 0a c9 49 bd 2a fa 8d 3b 5b e4 e2 bc
       0.018569207 -0.04926399 0.0043328004 -0.027696779
000190 7a 86 ff 3c 7d 76 29 bd 31 04 e1 bc 28 83 3e bd
       0.031192053 -0.041372765 -0.027467819 -0.0465118
0001a0 1b 1a e1 bc cc 18 b4 ba 74 75 50 bd 56 83 b4 bc
       -0.027478268 -0.00137403 -0.050893262 -0.022035282
0001b0 6d ba d9 3b ec 12 05 bd 6e 73 9b bc 2c da 26 3d
       0.006644538 -0.03248875 -0.01897594 0.04073541
0001c0 e6 5a f9 3c ba 6b f5 3b 50 3d 1e bd 87 7b 47 bd
       0.030438852 0.0074896486 -0.03863269 -0.04870179
0001d0 a4 81 8b 3c db 79 25 3b 57 02 1d bd e7 5f 99 bb
       0.01702959 0.0025249633 -0.03833231 -0.004680622
0001e0 e8 9b 7f bd dd 94 93 bd 51 a4 a8 bd d6 73 87 bd
       -0.062404543 -0.07206128 -0.08234466 -0.06613891
0001f0 1a 43 0e 3d 07 80 21 bb e6 24 11 bd 47 4a 3d bd
       0.03473196 -0.002464296 -0.03543558 -0.046213415
000200 1b 9f c8 bc 13 9d b3 bc dc 78 46 bd 5e f2 10 3c
       -0.02448993 -0.021925485 -0.048455104 0.008846847
000210 f9 14 5b bd f5 90 41 bd 15 9d b7 bc 24 96 cd bc
       -0.053486798 -0.047257382 -0.02241377 -0.025096007
000220 a1 73 d9 ba 7a 0f 38 bd c6 e3 7c bc 32 75 bc 3b
       -0.0016590246 -0.044936635 -0.015435165 0.0057512755
000230 e7 6e 3e bd 5f 19 04 bd dc b1 f5 3c 4d 21 18 bd
       -0.046492483 -0.03225076 0.029992037 -0.037141133
000240 cc 84 5c bd c1 d9 6f 3d e8 89 3d 3d b9 30 81 bc
       -0.053837582 0.058557276 0.046274096 -0.015770303
000250 2a 9a 6f bd cf c4 3b 3d 49 07 c8 bd 0c 25 7e bd
       -0.05849663 0.04584199 -0.097670145 -0.06204705
000260 4d 78 68 bb f8 e3 42 bd c1 0e 8d bd a8 f4 14 3d
       -0.0035472095 -0.04758069 -0.0688758 0.036366135
000270 ba 30 c7 3b de d1 aa bd 7a 6d 97 bc 1a 33 0e 3c
       0.0060788067 -0.0834081 -0.01848482 0.008679176
000280 11 0c 37 bd 35 3d 1d 3d cb 17 e5 34 f3 8b 03 bc
       -0.04468924 0.03838845 4.2671886e-07 -0.008028972
000290 75 04 88 bd 7e d7 43 bd 00 83 6b ba a0 91 88 bc
       -0.06641475 -0.04781293 -0.0008984059 -0.016671002
0002a0 dd f4 76 bd 0a a5 6a bd 2c 1e 57 bd 88 5a 62 bc
       -0.060292114 -0.0572863 -0.05251901 -0.01381553
0002b0 0c e7 1f bd 48 63 89 bd e1 51 0e bd a8 d1 1c bd
       -0.039038703 -0.067083895 -0.034746055 -0.03828588
0002c0 68 14 33 bd 00 da 1a 3d e4 05 03 3d b4 c9 cf bb
       -0.043720633 0.037805557 0.03198804 -0.0063411836
0002d0 a9 90 ba 3c 1b c8 2c 3c a0 ce 19 bd 68 88 8b bc
       0.022774057 0.010545756 -0.03755057 -0.017032817
0002e0 a0 9f 23 3c ce 38 eb bc cd 47 13 3d 51 ab 8e bc
       0.009986788 -0.02871361 0.035957146 -0.017415674
0002f0 53 f0 75 bd f0 15 11 3b c0 33 c1 3b 6f 73 55 3b
       -0.060043644 0.002213832 0.0058960617 0.0032570024
000300 f6 ef 31 bd 75 67 c9 3c c8 2c b1 bc e0 cb b0 3c
       -0.043441735 0.024585465 -0.021627799 0.02158159
000310 7f d5 10 bd 00 af d2 3c f5 5d 76 bd dd b1 9d bd
       -0.035359856 0.025718212 -0.0601482 -0.0769994
000320 3a e3 95 bd 79 41 40 bc a8 d7 77 3c e2 59 03 bd
       -0.07318731 -0.01173436 0.0151271 -0.03206814
000330 87 90 7e bd 22 e7 9a 38 af df 33 bd 63 56 f6 bc
       -0.06214955 7.386344e-05 -0.043914493 -0.03007049
000340 a6 a8 9a 3c 72 4f 7c bd 8b 15 63 bc e2 1b 25 bd
       0.018879246 -0.061599202 -0.013860117 -0.040309794
000350 31 1a db 3c a4 34 52 bd 8d b7 78 bc 5c 3d 89 bd
       0.026745887 -0.051319733 -0.015180481 -0.067011565
000360 f1 02 30 bc 4f 11 61 ba 2c 01 30 bd 7e 84 a2 bd
       -0.010742889 -0.0008585648 -0.042969868 -0.07935427
000370 a5 b5 c5 3c 9d 95 43 bd 76 14 02 3d b0 24 fa bc
       0.024134466 -0.047750104 0.031757794 -0.030535072
000380 e5 30 7a bd 17 59 b4 bc 5e 41 2e bd 29 b4 3f bd
       -0.061081786 -0.022015138 -0.042542808 -0.046802673
000390 7b da fa bc d0 a9 07 bc 54 14 14 3c cc ef 4d 3c
       -0.030621758 -0.008280233 0.00903805 0.012569379
0003a0 18 4c 64 3c ec df 1a bd 9e ea 21 bd c9 c5 1b 3c
       0.013934158 -0.037811205 -0.03953039 0.009507605
0003b0 47 b9 b6 bd ea c0 0f 3c d5 7e 34 bb 57 c6 9e 3c
       -0.089220576 0.008774022 -0.0027541418 0.019381685
0003c0 c8 6c 0f 3c db db 9d bd dc 63 60 3c 93 6a 19 bd
       0.008753963 -0.0770795 0.013695683 -0.037455153
0003d0 d2 f0 d7 bc 36 0d 6f bd 2e f9 f7 3c 7b 05 13 bd
       -0.02635995 -0.05836221 0.030270185 -0.0358939
0003e0 68 d0 5b bc 10 43 58 bd 5e 8b a7 3c 93 82 90 bd
       -0.013416387 -0.05279833 0.020452198 -0.07056155
0003f0 2b 97 cc 3c 32 1e af 3c 55 26 43 bc cf b2 83 bd
       0.024974426 0.021376703 -0.011910995 -0.064305894

hidden_layers.1.bias f4 [128]
000000 2a d0 cc bd 47 b5 f0 3c 10 5e a2 bd 69 8a 1d bc
       -0.10000642 0.029383315 -0.07928097 -0.009615519
000010 16 a2 94 bd 57 0a 09 3d 0a 6a 7d 3e 4c 47 a8 bd
       -0.07257478 0.033457126 0.24747482 -0.08216724
000020 41 06 b5 bc 15 b6 d4 bc 7e 80 7a 3c 55 fb 50 bd
       -0.022097709 -0.02596573 0.015289424 -0.05102094
000030 84 ab 8f bd 20 d4 44 bd 17 fa 25 bc 39 66 c0 3d
       -0.07015136 -0.04805386 -0.010130427 0.093944974
000040 9e 95 81 bd ed 62 81 bd 32 cf bb bd 95 01 b3 bd
       -0.06327365 -0.06317697 -0.09170379 -0.08740536
000050 de 85 da 3d e0 2d 8d bd f3 91 ac bd ec 4c ab bd
       0.106700644 -0.068935156 -0.08426275 -0.08364281
000060 4c ec 95 bd 10 8f b1 bc b6 c7 60 bd b0 28 89 3d
       -0.07320461 -0.021674663 -0.05487796 0.06697214
000070 33 83 54 bd be 82 12 3c 0f 35 72 bd 93 97 ab bd
       -0.051882934 0.008942304 -0.059132632 -0.0837852
000080 08 ef d1 bc 26 5b 36 bd 79 fe 0d bb c2 a2 a3 bd
       -0.025626674 -0.04452052 -0.002166657 -0.07990028
000090 04 1b f1 bd 31 c5 0c be da 87 3f bd 4e 0c bf 3d
       -0.11772731 -0.13747098 -0.046760418 0.09328519
0000a0 52 f0 38 bc a0 c2 ce bc 11 dc 4f 3d 69 0e 32 be
       -0.011287766 -0.025239289 0.05074698 -0.1738831
0000b0 fa 46 b5 bd 6b 2c 49 bd 12 ba 2f bb 2c 10 c2 bd
       -0.08851428 -0.049114626 -0.0026813787 -0.09475741
0000c0 d0 26 8e bb 1d d8 26 bc ad 1a a7 bd 1d 88 f4 bd
       -0.004338123 -0.010183361 -0.08159385 -0.11940024
0000d0 5e 8a ad 3c cc 0c e5 3c 38 57 c6 bc 7b 24 52 bd
       0.021184143 0.027960204 -0.024211511 -0.05130432
0000e0 e0 97 1e 3c 91 fa 33 be d4 15 4c bc 07 45 89 bb
       0.0096797645 -0.17576052 -0.012456376 -0.004189137
0000f0 96 9b 2d 3e fa 7b 2c 3d d4 92 17 3e f3 8e b7 3d
       0.16953883 0.04211042 0.14802104 0.08962812
000100 b8 7c bc bc 76 57 7f 3d a8 98 d2 3b 07 6d b0 bd
       -0.02300869 0.06233927 0.0064268894 -0.08614545
000110 21 96 e1 bd f0 b3 94 bc 4b 22 e3 3d 8c 29 ee bd
       -0.11014963 -0.018152207 0.11090525 -0.11629018
000120 c7 18 47 bd 9b 65 e3 3b f8 c7 95 bd 38 26 2a bc
       -0.048607614 0.0069396026 -0.07313532 -0.010385089
000130 82 78 80 b9 66 6d 8e bd ab 42 32 be fa fe 48 bc
       -0.00024503848 -0.0695446 -0.17408244 -0.012267822
000140 ca 3a c3 bb 4d 61 5b bd 8f 64 95 bd 5b 6f 83 bd
       -0.005957936 -0.05355959 -0.07294571 -0.06417724
000150 1d 30 49 3c c9 7c a6 bb 41 ec 82 3c 33 26 0e 3e
       0.0122795375 -0.0050807935 0.015981795 0.1388176
000160 b5 92 ed 3d 50 35 ba bd cd ad 10 3e f6 45 91 3c
       0.11600248 -0.090922 0.141288 0.017733555
000170 b1 8e 23 bc 6c 54 dc bd 0b a7 2b bd 3f bd b8 3b
       -0.009982751 -0.1075829 -0.04190735 0.0056377943
000180 61 1b 53 3d 4f b2 f6 bd 12 09 be bc 8a c2 b3 bd
       0.051539782 -0.120457284 -0.023197684 -0.0877734
000190 54 e3 2d bd be 64 ed bc 56 16 d3 bc d4 b5 99 3c
       -0.042453125 -0.028978702 -0.025767487 0.01876346
0001a0 ed b7 24 3e 1e 5a 22 bd da 48 99 3e b9 7c b7 3c
       0.16085787 -0.039636724 0.29938394 0.02239834
0001b0 93 b7 48 bd 69 9d 35 bd 15 50 51 3d f7 bf 8e bc
       -0.049003195 -0.04433957 0.051101763 -0.01742552
0001c0 58 d5 cb bb fa 94 89 ba c2 e0 a0 bc 54 1f d0 bd
       -0.006220501 -0.0010496669 -0.019638423 -0.10162225
0001d0 83 1b d4 bd 7e b2 bf 3d 08 76 09 bc d7 43 83 3e
       -0.1035681 0.093602166 -0.008389957 0.25637695
0001e0 7d 41 24 bc 4e cf ca bc 59 a7 50 bd 54 0a 7d bd
       -0.010025379 -0.024757054 -0.050940845 -0.061777428
0001f0 53 b5 34 bd bb c4 2a 3e b7 9f 8e bd 16 4c 57 bd
       -0.044118237 0.16676609 -0.06964057 -0.052562796

hidden_layers.2.weight f4 [64, 128]
000000 5b 72 87 ba ec 60 90 bd 92 22 29 bd 26 56 b0 bc
       -0.0010333763 -0.070497364 -0.041292734 -0.021525454
000010 31 a4 a4 3b 09 c8 2a 3d 9a d4 c6 3d d1 59 34 3c
       0.005024456 0.041694675 0.09708519 0.011007742
000020 bd 8c 98 bd 52 f6 67 bc d8 e7 25 bf 4a 63 75 3d
       -0.07448719 -0.014157848 -0.6480689 0.059909143
000030 7c 4b 92 be 36 ef 89 3d 4c 4a 7d 3d 60 fb 27 3c
       -0.28573215 0.06735079 0.061838433 0.010252804
000040 c7 7b a0 3b 79 3f 1a bd 34 e4 cf 3c 85 f6 9c bd
       0.004897568 -0.03765819 0.02537737 -0.07664207
000050 5c aa ac bc cb 34 02 3d d6 4e fd bc 73 ad 82 bd
       -0.021077327 0.03178863 -0.030921381 -0.06380739
000060 bf 2e 41 bd 4a 47 9f bd 45 e1 b2 bd 48 f0 e7 bd
       -0.04716372 -0.07777269 -0.08734373 -0.11325127
000070 c4 52 2f 3d b9 f7 8c bb 1d 77 29 3a d1 4a 18 be
       0.04280354 -0.004301992 0.00064645876 -0.1487229
000080 ff cd e3 bc f4 eb 07 be 6b 24 98 bd 29 87 c7 bd
       -0.027808188 -0.13273603 -0.07428821 -0.09742577
000090 70 f0 2a 3e cb 3b 9b bd 2b 87 78 bd 89 2b 29 be
       0.16693282 -0.07579764 -0.06067578 -0.16520514
0000a0 f4 e2 76 bc 1a c7 5f bd d5 58 2c 3e 5f c9 20 3d
       -0.015068758 -0.054633237 0.16830762 0.039254542
0000b0 07 cb 81 3c 13 66 92 3d 22 bc 3d 3c b5 13 7d bd
       0.015843881 0.07148375 0.011580499 -0.061786372
0000c0 84 c3 1b 3e 4f 94 f5 bd ce 0e 93 bc b3 28 bf bd
       0.15211302 -0.11991178 -0.017951395 -0.09333935
0000d0 e7 22 d8 3c 66 ea b7 3d fe af 09 be 7a 84 4a bd
       0.02638383 0.08980255 -0.13446042 -0.049442746
0000e0 47 e0 1e be 17 93 b5 bd 9f 23 30 3d 90 c1 69 bd
       -0.15515243 -0.08865946 0.04300272 -0.05706936
0000f0 e4 b6 d7 bd b6 cd 83 bd c8 72 e6 bd 9b ff 25 be
       -0.105329305 -0.064357206 -0.112523615 -0.16210787
000100 5a fc 34 be 5a f4 fa be 3d fc 96 bd a1 0b 00 3b
       -0.1767439 -0.4901455 -0.073723294 0.0019538181
000110 08 89 5d bd 9c 9b fb bd 18 7b ab be 64 f6 49 be
       -0.05408576 -0.122855395 -0.3349235 -0.19722897
000120 4f c6 91 3d 3a 34 e6 3a 01 b6 88 bd d4 15 62 be
       0.071179025 0.0017563172 -0.066753395 -0.2207864
000130 60 b1 a1 3d 60 59 43 bd 02 31 87 be 11 09 6f 3d
       0.0789516 -0.047692657 -0.26404577 0.058358256
000140 d5 b2 6a bc be 3d 64 3d 5e 53 d6 3d e3 1f 14 bd
       -0.014324863 0.055722944 0.1046512 -0.036163222
000150 e5 48 d2 3d 7b e6 6e 3d 28 53 3a 3d 2c 3f ce bd
       0.1026781 0.058325272 0.04548946 -0.10070643
000160 aa f5 33 3c 62 c6 1c be 56 d2 9c bd 01 51 36 3d
       0.010983864 -0.15310052 -0.07657306 0.044510845
000170 6f 14 7b bd 65 11 3a bc 6b b2 cf 3c 6c 3d 26 3d
       -0.061298784 -0.011356686 0.025353631 0.04058592
000180 69 5f 98 be 4b e4 ba 3b 04 2f 9e 3a 18 68 eb bd
       -0.29760292 0.005703484 0.0012068455 -0.11494464
000190 5c 48 98 3c 51 fc 96 bb 67 bd f7 bd d9 d5 a0 bd
       0.018589191 -0.004607715 -0.120966725 -0.07853288
0001a0 f4 64 01 bf cc 9a 2a be e3 dc 3a bd 21 0a 4f bd
       -0.5054467 -0.16660613 -0.04562081 -0.05054677
0001b0 37 ec f4 bc fe de 19 bb 29 71 29 be 40 e2 35 3e
       -0.029897792 -0.002347886 -0.16547073 0.17762089
0001c0 b9 2f db bd 37 a8 53 bd ff 9d 53 3d d8 23 16 bd
       -0.10702462 -0.051674094 0.05166435 -0.036655277
0001d0 43 b9 03 3d 33 31 a5 3c b8 e7 47 3d a0 8d 98 3c
       0.0321591 0.020165062 0.04880497 0.01862222
0001e0 be 2b 03 3d 3f b8 e9 3c 87 0f cb bd d5 2f 0e be
       0.032024138 0.028530238 -0.09915071 -0.13885434
0001f0 1a e6 a8 3c 19 00 06 bd 33 05 89 bd ac 3a 0b be
       0.020617533 -0.032714937 -0.06690445 -0.135966
000200 ec 18 20 3d 9d 53 a6 bc 36 63 ef bc b9 23 8b be
       0.039086267 -0.020303542 -0.029222112 -0.27175692
000210 7a b2 5d 3d 96 6e a1 bd ab da 95 3d 7c 4c 0b 3d
       0.054125287 -0.07882421 0.07317098 0.034008488
000220 4a 4c 58 3e 42 c8 23 3c ca 9e 82 3d 66 ff 1e 3c
       0.21122852 0.009996476 0.06377943 0.009704446
000230 4c 0b 21 be 26 f8 c1 3c 71 02 24 be 94 8a a1 3d
       -0.15726966 0.023677897 -0.16016556 0.0788776
000240 cd 31 35 3d a0 13 91 bc 98 40 73 bd ab fe ab bd
       0.044236947 -0.017709553 -0.059387773 -0.083981834
000250 2d 8d 00 be 01 4e c2 bd 6f 85 2a 3c 41 ae 55 bd
       -0.12553854 -0.09487534 0.01040779 -0.052168135
000260 ca 28 f2 bb 43 12 a7 3d ed 1c 04 3e f8 52 90 be
       -0.0073901163 0.0815778 0.1290166 -0.281883
000270 cf bf d9 bc af a7 0a 3e 27 6d 7c 3d 20 90 c8 bc
       -0.02658072 0.13540529 0.061627533 -0.024482787
000280 67 38 bd 3c 6b ad 4c bd 04 84 19 bd 01 0d ef bd
       0.023098184 -0.04997007 -0.037479416 -0.11672402
000290 b7 5d 21 3e 87 ef b1 3c 4e f5 03 3e b7 25 ba be
       0.15758406 0.02172066 0.12886545 -0.363569
0002a0 ff 3d 58 3e 98 a8 6b bc 5e a7 65 3d 90 3f 20 be
       0.211174 -0.014383458 0.056067817 -0.15649247
0002b0 93 7a da 3c 0c c2 aa bb c3 1a ba 3d b6 75 82 3d
       0.026669776 -0.0052111205 0.09087136 0.06370108
0002c0 9e 33 83 be ab 95 85 3d 69 49 f5 bc b0 fa db bd
       -0.25625318 0.065226875 -0.029942231 -0.10741174
0002d0 77 92 d9 3d a7 90 16 3d 23 c0 c2 bd 1f 3e 24 be
       0.10623639 0.036759045 -0.095093034 -0.16039322
0002e0 9a b3 58 bd d9 21 62 be c9 1c 82 bd ad 76 0a 3d
       -0.052905656 -0.22083224 -0.063531466 0.033804584
0002f0 5f 24 51 bc e2 62 38 3e b1 9e 87 bd 07 8b 2d bd
       -0.012765019 0.18006471 -0.06622065 -0.042368915
000300 5a 12 8a bd 12 23 94 bd ff ea 92 3c 9c d2 33 3d
       -0.067417815 -0.07233252 0.01793432 0.043902025
000310 d3 57 ff bc 09 0c c5 3c 3c de 09 be 06 b1 e3 3d
       -0.031169808 0.02405359 -0.13463682 0.11117749
000320 e6 5c 39 3b d1 66 24 bd 4b d4 80 be 9f 8b 8c bc
       0.0028284132 -0.040137116 -0.25161967 -0.01715642
000330 1f 74 1e 3e 43 2f 19 bd 44 9e f1 bd a3 41 13 3b
       0.15473984 -0.037398588 -0.11797765 0.0022469542
000340 67 97 85 bc ce 6e 83 3d c2 bc 22 bd 83 44 18 3d
       -0.016307546 0.06417619 -0.039730795 0.037174713
000350 03 ed 1e 3e c0 76 1a bc 58 c6 bb bd 1a 94 5e bd
       0.155201 -0.009427726 -0.091686904 -0.05434046
000360 87 74 1f 3e f2 33 c3 3c bc 1a 75 bd e4 44 69 be
       0.15571795 0.02382848 -0.05983995 -0.22780186
000370 bc 03 6d bb d5 02 43 3d f4 2e 19 3c 07 18 e3 3d
       -0.0036165556 0.047610123 0.009349573 0.11088567
000380 53 67 d7 bc 1c e4 18 bd b7 80 b2 3d b1 9b 37 3d
       -0.026294386 -0.037326917 0.08715957 0.044826213
000390 50 b3 b5 bd 96 9d 9f bd b3 61 9b bc 53 ca 7e bd
       -0.08872092 -0.07793729 -0.018967485 -0.06220467
0003a0 09 16 59 be 7b fe a7 3e 5b bc 64 3d 85 0e fc 3d
       -0.21199812 0.3281134 0.055843692 0.12307457
0003b0 a7 84 00 be 98 99 12 3d 8d 9a 3a 3e 45 96 1a be
       -0.12550603 0.03579101 0.18223019 -0.15096386
0003c0 20 30 ea 3c 0d 4f 2c bc 91 6a b6 3c 98 42 b2 3c
       0.0285874 -0.010516894 0.022267612 0.02176027
0003d0 21 62 5a bc 91 97 2b bd ff 77 4d 3e c7 33 15 be
       -0.01332906 -0.041892592 0.20065306 -0.14570533
0003e0 0b eb 8c bd 6f b2 82 3b d8 f2 13 be 61 19 c1 3c
       -0.068807684 0.003988556 -0.14448106 0.023571672
0003f0 52 2d a6 bd 9f 7e b5 bc f1 01 86 bd 67 54 b5 bc
       -0.08114113 -0.022155104 -0.06543339 -0.022134973

hidden_layers.2.bias f4 [64]
000000 b0 8a e8 3d d5 1b b8 3e fc 73 8c 3d a2 fd 78 3e
       0.113545775 0.35958734 0.0685806 0.24315503
000010 9b 00 19 3c df 82 76 3e dd aa 18 be 6d 0c 3a bd
       0.009338523 0.24073361 -0.14908929 -0.045422006
000020 e9 ad 5b bc 10 91 bd 3e d1 1f 42 3d da ca 9a 3d
       -0.013408163 0.37024736 0.047393624 0.07558222
000030 87 d9 03 3e 2c e7 70 3e a9 4e 35 3e 0a 09 5b bd
       0.12875949 0.23525685 0.17705788 -0.053475417
000040 94 c9 0d 3d e6 e5 72 3e 25 1a 87 bd 86 c8 93 ba
       0.034616068 0.23720512 -0.065967835 -0.0011274971
000050 19 5b 55 bd 2a 03 21 3e b8 30 e4 bd 96 ab cf 3b
       -0.05208883 0.15723863 -0.11142105 0.0063375933
000060 60 2c da 3e b4 e6 f1 bd 52 47 04 3f 58 7b ff 3e
       0.4261198 -0.11811581 0.51671326 0.4989879
000070 16 60 26 bd 96 97 0d 3e 8a 6d 49 3e 33 ea b1 3e
       -0.04061898 0.13827357 0.19670692 0.34748992
000080 2a 1f a2 3e 94 74 96 3e 30 e7 bf 3e 03 0b 04 be
       0.316644 0.29385817 0.3748107 -0.12894826
000090 56 85 d6 bd 26 7d 9f 3e 39 79 f9 bd 62 fe a6 3e
       -0.104746506 0.31150168 -0.121813245 0.32615954
0000a0 f4 ca 09 3f ee ce ae 3e 4b f8 c0 bd 5d 2e 35 3e
       0.53825307 0.3414225 -0.09422358 0.17693467
0000b0 af da ed be b0 52 4a 3e 4f c7 d7 be 2c c4 f3 3d
       -0.46455905 0.19758105 -0.42144248 0.11902651
0000c0 42 0b 3b 3e 53 9b ab bd 5d d9 fc bd 4d 5f 13 bd
       0.18266013 -0.08379235 -0.12346146 -0.035979558
0000d0 d7 d3 b8 3e 43 9a fb bd 62 e1 b6 bd 7f f7 b5 bd
       0.3609912 -0.122852825 -0.08929707 -0.08885097
0000e0 a6 e4 94 3e 41 31 27 be 21 76 b1 3e bf 6c 9b bd
       0.29080695 -0.16327383 0.34660438 -0.07589101
0000f0 a9 1f 38 3c eb 62 3b 3c 9b 55 50 3e ca 4e 01 3e
       0.011238017 0.011437158 0.20345156 0.12627712

hidden_layers.3.weight f4 [32, 64]
000000 8d 2d c9 be 2f 24 5b 3c dc 36 89 3f 89 0e d5 bd
       -0.39292565 0.013375326 1.0719867 -0.10403163
000010 3e ed 39 3c 40 78 ef 3d af a1 f5 bd 8c a2 b6 3e
       0.011348067 0.11692858 -0.11993729 0.35670888
000020 f1 6b 61 bd 91 19 9a bd da 29 5a 3f 84 e9 00 be
       -0.05503458 -0.07524408 0.8522011 -0.12589079
000030 3f 0f 28 3d 9b 4a ad bd 0c ad 5c bd 7d 4e bd bd
       0.041030165 -0.084614955 -0.053875968 -0.09243486
000040 ca a9 17 3e 35 e5 29 3e 71 af 0b be da d2 31 bc
       0.14810863 0.16591342 -0.13641144 -0.010853494
000050 67 d2 49 3d f9 53 d1 3e 87 f7 a0 bc ce 51 a3 3d
       0.04927292 0.4088438 -0.01964928 0.079745874
000060 e5 a6 0e be b3 6e dc bc 02 dd 63 3d 84 0a f4 3c
       -0.13930853 -0.026908254 0.05563069 0.02979017
000070 b9 5a c0 bd 63 df 55 be 2b 4d 8a 3c 2d 64 ad be
       -0.09392304 -0.20885997 0.0168825 -0.3386549
000080 b4 e1 6a be 30 3d d2 bd 24 a8 73 be 5a e5 61 bc
       -0.22937661 -0.10265577 -0.2379461 -0.013787592
000090 db 12 25 3e 09 e2 93 3e 7a e2 01 3d 98 1b 3d 3e
       0.16120474 0.2888339 0.031710126 0.18467557
0000a0 86 65 22 3e d4 9d f7 bd 12 54 b2 3d a6 d4 0b 3e
       0.1585904 -0.1209065 0.087074414 0.13655338
0000b0 08 63 fd be 3d 85 52 be de 82 49 be b9 00 93 3e
       -0.49489617 -0.20558639 -0.19678828 0.2871149
0000c0 66 93 c1 3e f7 39 96 bd ea bc 2b 3e 2d 5b 2e bd
       0.3780777 -0.07335275 0.16771284 -0.04256742
0000d0 9f 37 d2 bd 97 33 cf 3d 9d 6a b0 ba 40 2f 21 bd
       -0.10264515 0.10117262 -0.0013459508 -0.0393517
0000e0 8b 39 d5 bd 1c 1f 0a be 65 5a bb 3d a3 2c 14 bd
       -0.10411366 -0.1348843 0.09148101 -0.03617538
0000f0 9d 3b 34 3c 72 4e b3 3e 67 4e ef 3d 1a ad 6f be
       0.011000541 0.35020787 0.11684876 -0.23405877
000100 63 9a 8e bd 32 d9 1c bd 5f 0b ec bd 58 01 c8 bd
       -0.06963041 -0.03829307 -0.11525606 -0.09765881
000110 b7 65 e5 bd 54 0c 2e 3c 36 51 9c 3d f5 d7 4a 3d
       -0.11201041 0.010623056 0.07632677 0.04952236
000120 24 61 d6 bd 43 19 10 be 17 ab 19 bd fa 14 ed bc
       -0.10467747 -0.14072137 -0.03751668 -0.028940666
000130 87 cb be bd be f6 ab 3d 89 f0 f3 bc 1d 7a da bd
       -0.093161635 0.08396672 -0.029777782 -0.106678225
000140 a2 f0 f5 3c 28 71 be 3d 15 ce cf bc 0d 20 f0 3d
       0.03002197 0.092989266 -0.025366822 0.11724863
000150 e2 dd 7d 3b 7c 46 81 3c 3a d2 cf bd 4a 14 29 3d
       0.0038736989 0.01578068 -0.101475194 0.041279115
000160 4f ed 91 bd ec af 14 bd 6f f2 bc 3c 9a 94 94 bd
       -0.07125341 -0.036300585 0.02306482 -0.07254906
000170 cd d1 bc 3d 24 c0 4d bd 58 95 9c bd 5d e5 1c bd
       0.09219704 -0.050232068 -0.076456726 -0.038304675
000180 1b 85 04 be 8e c4 d0 bd 78 9e 1c 3d 66 37 cc 3d
       -0.129414 -0.1019374 0.038237065 0.09971504
000190 d8 d7 ae bd a6 fd c2 bd 71 d5 b7 bd 4a f2 af bd
       -0.08537263 -0.09521036 -0.089762576 -0.08591135
0001a0 56 e7 95 ba 7d 42 e0 3c 23 b1 d3 bd 36 5b 1c bd
       -0.0011436741 0.027375454 -0.103365205 -0.038172923
0001b0 d9 52 d0 bd 64 d6 22 3d f5 ff 5c bd af be cb bc
       -0.10172052 0.03975524 -0.053955037 -0.024871198
0001c0 df bf c2 3c 6e b2 d1 3d 09 c9 fa bc 40 2a 35 3d
       0.023773132 0.10239111 -0.03061344 0.044229746
0001d0 22 70 99 bb a5 e8 f9 3b 89 2f ee bc 80 e8 67 bd
       -0.0046825567 0.0076266103 -0.0290754 -0.056618214
0001e0 39 58 d4 3d 41 bd 3c bc 0a ee f4 bd cf 99 e4 bd
       0.1036839 -0.011519731 -0.11959465 -0.11162149
0001f0 7a 72 ad bd 3e 37 00 bd 4d de 44 bd e6 7f 85 bd
       -0.084691 -0.031302683 -0.048063565 -0.06518535
000200 4f 98 dd 3d 45 de af bc 1b 71 33 3c ad 06 2c be
       0.10820066 -0.021468291 0.010952259 -0.16799422
000210 28 40 ba bc d0 19 90 3d d0 31 81 3c 9c 9d 1d 3d
       -0.02273567 0.07036173 0.015770823 0.038480386
000220 7c c9 4c bd b0 3f f3 bc e1 01 ea bc 7d 46 85 3c
       -0.049996838 -0.029693455 -0.028565349 0.016268963
000230 4f 72 a9 3b 7f fb c2 3c 87 b4 56 ba e2 c8 14 3d
       0.0051710973 0.023801563 -0.0008190353 0.03632439
000240 00 32 89 3c 60 15 eb bd b0 00 f2 bc 9c b6 d7 3d
       0.016747475 -0.11478686 -0.029541343 0.10532877
000250 7e e0 cd bd 20 dd 36 bc 94 07 17 3d da 7f b6 bd
       -0.10052584 -0.011161119 0.03687246 -0.089111045
000260 60 d2 21 be e8 5b e1 bc 26 28 af 3d cf 35 8b 3d
       -0.15802908 -0.027509645 0.085525796 0.067973725
000270 54 a3 0d bd ff fa f9 bd 96 a1 36 bd 80 60 db 3a
       -0.03457959 -0.12206077 -0.044587694 0.0016737133
000280 4c cd 75 bd 08 48 d5 bd 81 5c d3 bd 16 bf 86 3d
       -0.06001024 -0.104141295 -0.10320378 0.065794155
000290 a2 48 a2 bd 9e 9a f7 3d f7 2f 84 3d 8c 51 09 bd
       -0.0792401 0.12090038 0.06454461 -0.033525035
0002a0 46 4d 08 3d c2 4c 10 be e0 40 9b bc 49 50 aa bc
       0.03327682 -0.14091781 -0.018951833 -0.020790236
0002b0 50 9f f0 bd 9d f6 7d 3d 1a 53 d0 bc 0e 8e 50 3d
       -0.117491364 0.062002767 -0.02543025 0.050916724
0002c0 62 55 cf bd 9e 04 9e bd ec 4a 03 3d 20 f2 76 3c
       -0.10123707 -0.077157244 0.032053873 0.015072376
0002d0 90 61 fb bc 46 95 de bd b0 2d 03 bd 28 ce b0 bc
       -0.03068617 -0.108683154 -0.032025993 -0.021582678
0002e0 e5 68 01 3e 21 56 f4 3d 06 41 a0 bd 08 5e a6 3d
       0.1263767 0.1193049 -0.07824902 0.08123404
0002f0 c7 f4 b1 bd 69 e5 aa bd c8 1c c8 bd 3a 22 51 bd
       -0.08689266 -0.08344538 -0.097711146 -0.05105803
000300 7a 2c b0 3d 52 98 94 3e ca c0 14 bf 86 8d e5 3d
       0.08602233 0.2902246 -0.5810667 0.11208634
000310 82 51 31 3e a7 83 6e 3d c8 16 86 bd ed aa b5 be
       0.17316249 0.058231022 -0.06547314 -0.3548197
000320 64 ad d1 bd cf a6 1b 3e 6f 9f e6 be d8 24 ba 3d
       -0.1023815 0.15200351 -0.45043513 0.09089059
000330 f0 f1 4b 3e aa 6d 63 3e 62 b3 ce bd fd 83 16 be
       0.1991651 0.22209802 -0.10092808 -0.14698787
000340 db 1b 7f be 18 c9 ea be a8 ae f4 bd 4b 0e 92 3d
       -0.2491297 -0.45856547 -0.119473755 0.071316324
000350 d6 0f e4 3d 39 eb ce 3d 64 6f 02 3d cc d0 4b 3d
       0.11135833 0.10103459 0.03184451 0.04975967
000360 89 df a8 3d 3e 63 ec bd 13 99 82 3e 9e 01 0d 3e
       0.08245761 -0.115423664 0.2550741 0.13770148
000370 22 66 8f 3d 3e 5a 99 3d e3 2b 2d bd a6 c2 93 3e
       0.07001902 0.074879155 -0.04227818 0.28859442
000380 de 47 90 3e 4d fa ac 3b 05 b0 40 3e 0d 89 0e 3c
       0.2817983 0.0052788616 0.18817146 0.008699668
000390 04 25 51 bd d3 85 af be a1 5b 31 ba fa 71 8b 3c
       -0.05106069 -0.34281787 -0.0006765668 0.017022122
0003a0 de 59 9f bb 6b d5 5d 3e 48 0f a3 3d 3b 6a b6 3d
       -0.004863008 0.21663444 0.07961899 0.089069806
0003b0 bc a5 98 be bc bb 10 bc 9f 7e a0 be d8 e0 9b bb
       -0.29813945 -0.008833822 -0.31346604 -0.004757028
0003c0 80 52 ec 3d b1 26 8f bd 22 7b 00 3d 39 0b 0b 3d
       0.11539173 -0.06989802 0.03136743 0.03394625
0003d0 93 bb 13 3e c0 55 96 bd 16 d3 6f 3d cd 54 ec 3d
       0.14427023 -0.07340574 0.058550917 0.11539612
0003e0 8d ec 2a 3e a0 0c 3f bd b1 d1 a6 3c 0d 0c 79 bc
       0.166918 -0.0466429 0.02036366 -0.015200627
0003f0 bd e2 60 3e e2 52 a4 3e 50 1f 6a 3e e8 8c c9 3d
       0.21961494 0.32094485 0.22863507 0.09841329

hidden_layers.3.bias f4 [32]
000000 cf 3f 8c 3e 58 76 d8 bd b3 a5 ea bd 80 bb 03 3f
       0.27392432 -0.10569447 -0.11457386 0.5145798
000010 00 c6 8b 3e 0a ee 16 3f 01 c3 c3 bc 5a 93 ce bd
       0.272995 0.5895697 -0.023896696 -0.10086699
000020 ba ab bd 3c 5b fb d6 3e d3 40 90 be a2 cd 32 be
       0.023153175 0.41988644 -0.28174457 -0.17461255
000030 38 4d 04 3d 53 8c cf be 49 fa 03 3f e9 ae d5 3e
       0.032300204 -0.40536746 0.5155378 0.41735008
000040 80 80 d6 3d ff 56 06 be f8 d8 15 be 50 88 f3 3e
       0.10473728 -0.13119124 -0.14633548 0.47564936
000050 75 7d bd 3e 70 b2 22 bc 56 9e c6 bd d0 6b 65 3e
       0.3700978 -0.009930238 -0.09698169 0.22404408
000060 72 18 fb 3c 7b 03 27 be 62 ff 21 be d2 bc 65 bd
       0.030651305 -0.16309921 -0.15820077 -0.056088276
000070 c4 a2 39 bc 9d 9a 7a bc 9a 8a d8 3a 9c 0b 48 3e
       -0.01133031 -0.015295652 0.0016520799 0.19535679

output.weight f4 [4, 32]
000000 a6 2d d6 be 29 cb 98 3d 62 46 9d 3d 74 73 81 3e
       -0.41831702 0.07460625 0.0767944 0.25283396
000010 dd 4a 1e 3e 3b 31 96 3e 0c 71 45 bd bc ea 25 3e
       0.15458246 0.29334435 -0.048203513 0.16202825
000020 11 02 df 3e 5c 25 00 3e 53 30 a7 3d db 15 06 bc
       0.43556264 0.12514251 0.08163514 -0.008183922
000030 4b 04 3f bf 14 27 99 be 41 c8 64 3e d9 8d 8c 3e
       -0.74615926 -0.29912627 0.22342016 0.2745197
000040 24 4b 0c be 61 c1 b9 3c 62 2f 53 bd 68 a2 0e 3e
       -0.13700539 0.022675218 -0.05155886 0.1392914
000050 6b 53 83 3e b1 a0 6d 3d c8 5f 87 be 7b 3a a4 3d
       0.2564958 0.058014575 -0.26440263 0.08018967
000060 1a b7 ad 3d bd a5 31 be 14 99 ef bc 9c e9 1d be
       0.084821895 -0.1734838 -0.029247798 -0.15421146
000070 1b 6f 88 be 9d 24 f4 be 89 ca 12 3e 67 a9 4f 3e
       -0.26647267 -0.47684184 0.14335074 0.20279466
000080 fc 49 3e 3e 3d 37 2a 3d 62 0b ce 3d 02 da 38 3e
       0.1858291 0.041556586 0.10060765 0.18051913
000090 4a 73 ac 3d 4a 90 68 3e 5e 2e 15 be 79 52 35 3e
       0.08420427 0.22711292 -0.14568469 0.17707242
0000a0 92 d8 ee 3d d0 34 ba 3e 26 f6 b1 be 6d 15 1d 3b
       0.11662401 0.36368418 -0.3475811 0.002396907
0000b0 83 ab 1c 3e a8 d5 ba bd 5b c2 33 3e e9 10 69 3e
       0.15299802 -0.09122783 0.1755461 0.22760357
0000c0 61 6a 5e be 98 71 bc bd 7a 84 fb 3d a6 ba 65 3e
       -0.21720268 -0.09201354 0.12281127 0.22434482
0000d0 2a 58 11 3e 5e 8e 7f bd a5 00 8e 3b 87 4a 7b 3e
       0.14193788 -0.06239163 0.004333573 0.24540149
0000e0 77 bc 1d be aa 24 95 bd 33 1e 00 3d 80 69 ac bd
       -0.15403925 -0.07282384 0.0312788 -0.0841856
0000f0 ae cd 6c be 70 82 b6 3d 6f bf 3e 3e c7 02 29 3e
       -0.23125336 0.08911598 0.18627714 0.16504966
000100 4f 24 51 3e ff 3a d4 3d 66 cb 16 be 21 3a ff 3d
       0.20424007 0.10362815 -0.14726028 0.12462259
000110 95 4c 7e 3e fb fe 92 3e 14 e5 f6 3d b3 c6 33 3d
       0.24833901 0.2871016 0.12055412 0.043890666
000120 66 00 01 bf b3 1f 58 3d 16 2e 8c be 18 a9 b7 3d
       -0.5039123 0.052764606 -0.2737891 0.08967799
000130 fc 0b 2c 3d 2f 6c 4f be a8 4a 96 3e 4a 1d f8 bd
       0.042003617 -0.20256113 0.29353833 -0.121149614
000140 f1 34 f4 bd 58 23 c0 3d ff 0e e7 3c 37 45 60 3e
       -0.1192416 0.09381741 0.028205393 0.21901403
000150 18 5b b2 3d 16 8c d9 3b b8 19 94 bd 3f 83 ac 3e
       0.08708781 0.006639014 -0.07231468 0.33693883
000160 f8 de 07 bc 2e 95 a2 3d 99 1e 9b 3d 55 32 31 3d
       -0.008292906 0.0793861 0.075741954 0.04326089
000170 6b 03 53 bc da 2a 13 bf 08 db be bd a2 1e b4 bd
       -0.012879233 -0.5748726 -0.09319121 -0.08794905
000180 38 31 df 3e 0f 95 44 bd 80 6d e8 bd 4d 02 7c 3e
       0.43592238 -0.047993716 -0.113490105 0.24610253
000190 00 7f bc bb c8 16 84 3e 41 e4 0f be 5a 29 07 be
       -0.0057524443 0.2579863 -0.14051916 -0.13199368
0001a0 5f b0 b6 3d 36 ea 42 3e 31 4e 06 be c6 40 47 be
       0.08920359 0.19034657 -0.13115765 -0.19458303
0001b0 be 1b 11 be 33 0c 24 3e 0e 61 93 3e d0 96 70 be
       -0.14170739 0.16020279 0.28784984 -0.2349503
0001c0 f5 41 db bd 8b 86 00 bc 78 60 60 3d f8 e5 89 3e
       -0.1070594 -0.007844578 0.0547795 0.26933265
0001d0 95 4a 14 3e 5c b4 8b bd bc eb 98 be f6 2c 62 bd
       0.14481576 -0.0682151 -0.2986735 -0.05521866
0001e0 69 7a d3 bd 5c e8 ee bd 84 b7 08 3e 3f 83 a7 3d
       -0.10326082 -0.11665413 0.13351256 0.0817933
0001f0 ea 5a 4c be 2a 02 b1 be d6 76 e6 3c bf cf 80 3e
       -0.19956556 -0.34571964 0.028132837 0.25158498

output.bias f4 [4]
000000 c2 33 ac 3e 1d 58 67 3e 91 d2 c9 3e a7 3c 48 3e
       0.33633238 0.22592206 0.39418462 0.19554387
