per-dqn-checkpoint.pth (torch_old, 62698 bytes, 8 tensors)

hidden_layers.0.weight f4 [128, 37]
-0.13739812 0.110267125 -0.009064532 -0.21861729 0.037275206 -0.11145982 0.1443425 0.014961199
-0.22818603 0.052071054 0.20542791 -0.31385756 -0.31346515 -0.20588754 -0.6092279 -0.07259968
0.032752495 0.13055405 -0.2301573 0.060540665 0.20093401 0.03491578 -0.13649769 -0.12234101
-0.3588551 -0.014517512 0.2681482 -0.523135 -0.15477867 -0.054117918 -0.37363115 0.18120654
-0.07841987 0.117333 -0.18581699 -0.014391195 -0.031102596 0.17605172 -0.010221103 0.1832638
-0.06545966 -0.20540608 0.26881215 -0.37340343 -0.46760148 -0.28988832 -0.99880457 0.17004173
0.028316261 -0.06610863 0.093108125 0.03445932 0.14468618 0.002438739 0.13964626 -0.047663935
-0.054986965 0.0042916806 -0.13399011 -0.13589424 0.040161695 -0.097495586 -0.08388572 0.024143875
0.1051913 0.08605601 0.050005853 0.09415039 0.2590922 0.14270587 -0.13475671 -0.06745939
0.04233074 0.007287893 0.33218846 -0.01419873 0.13594192 -0.010296566 0.12902406 -0.23233813
0.036101203 0.14312612 0.18865421 -0.36044967 0.2867661 -0.098988906 -0.07078369 0.00843602
-0.24817003 -0.22249442 0.06948547 0.2470378 0.124364816 0.22083105 -0.2469775 0.0054386067
0.27240327 -0.20163605 -0.18748446 0.003323956 0.12012588 0.15442786 -0.16583426 -0.13961312
-0.36008343 0.23491317 0.007298557 -0.30861196 -0.035259567 0.09907985 0.009047523 0.13936076
-0.021530697 0.04879959 0.13865128 -0.04619519 0.014100452 -0.0070451223 0.023988169 -0.007996591
0.15163597 -0.07116377 -0.051054146 0.21629229 -0.3489879 -0.15916677 -0.15148997 -0.34217772
0.211253 -0.24415818 -0.121785045 -0.15551387 -0.14315303 0.16200294 0.21338436 -0.1000662
0.14799204 -0.03650379 -0.02169037 -0.019997358 0.4313964 0.10043626 0.13235189 -0.067365564
0.011885471 0.16377491 0.0772498 -0.021770166 -0.06844772 -0.08366796 -0.12364954 -0.076407894
-0.066658884 0.34999585 -0.1311535 -0.6595558 -0.2823907 -1.454966 0.031110605 0.0036415833
-0.031192578 0.05822118 -0.018813761 -0.05484787 0.105282985 -0.020179123 -0.06801794 0.120955355
-0.14629164 0.02522449 0.15637906 -0.1188004 0.25479054 0.15120566 -0.23322266 0.11532911
0.023536911 -0.1494743 0.18882085 -0.0346784 0.13201006 -0.0128712645 0.10793705 0.03610347
0.050117373 0.11567129 -0.14795506 -0.051465884 -0.29074568 -0.16582845 0.013584317 0.31705207
-0.18413635 -0.16640814 -0.73149234 -0.1529454 -0.17605348 0.14408647 -0.23101072 -0.40002605
-0.29178467 0.008602856 0.07554516 -0.1371153 -0.21703164 0.02033204 -0.2335471 0.18045461
-0.13529135 -0.1251939 -0.20476723 -0.24194328 0.08300287 -0.054380637 -0.27076665 -0.057829507
-0.24096379 -0.06465999 -0.087147705 -0.37959266 -0.0013272337 0.12478057 0.11756552 -0.03770744
-0.11726375 0.18044007 -0.18947218 -0.15704878 -0.036775906 0.13411893 0.13223141 0.2436387
0.0147469295 0.14857695 0.16650638 0.0041867844 0.2433356 -0.13516665 0.0226481 0.008594699
0.21681277 0.23694837 -0.14398485 0.1745097 0.19416231 -0.22270246 0.18449222 -0.23633048
-0.05166401 0.08822827 -0.09740982 0.06607414 0.21124789 0.08269162 -0.18985078 -0.11075705
00000000: 18b2 0cbe bbd3 e13d 6783 14bc 36dd 5fbe
00000010: e3ad 183d 0c45 e4bd 85ce 133e d11f 753c
00000020: 99a9 69be 7548 553d b25b 523e f0b1 a0be
00000030: 817e a0be 2fd4 52be 5cf6 1bbf 24af 94bd
00000040: 7b27 063d f6af 053e 5bae 6bbe 7df9 773d
00000050: a5c1 4d3e d903 0f3d 0dc6 0bbe ec8d fabd
00000060: dbbb b7be dcda 6dbc b94a 893e 2dec 05bf
00000070: 4d7e 1ebe c0aa 5dbd 954c bfbe 358e 393e
00000080: 999a a0bd 494c f03d cf46 3ebe 0cc9 6bbc
00000090: dfca febc e746 343e 6a76 27bc 81a9 3b3e
000000a0: b70f 86bd f955 52be bfa1 893e bc2e bfbe
000000b0: 7669 efbe 3e6c 94be a8b1 7fbf 6b1f 2e3e
000000c0: 81f7 e73c f663 87bd 79af be3d 3725 0d3d
000000d0: 9d28 143e 40d3 1f3b 6eff 0e3e 423b 43bd
000000e0: 033a 61bd 3aa1 8c3b b434 09be dc27 0bbe
000000f0: 9780 243d c4ab c7bd 47cc abbd 60c9 c53c
00000100: 896e d73d 223e b03d f0d2 4c3d ebd1 c03d
00000110: bca7 843e 7d21 123e aafd 09be 2628 8abd
00000120: ff62 2d3d 47cf ee3b 9b14 aa3e caa1 68bc
00000130: 5c34 0b3e eeb2 28bc e21e 043e 0cea 6dbe
00000140: dbde 133d a78f 123e 922e 413e dc8c b8be
00000150: 02d3 923e b2ba cabd 0af7 90bd 3c37 0a3c
00000160: 4920 7ebe 94d5 63be 664e 8e3d 7af7 7c3e
00000170: fbb2 fe3d 8921 623e abe7 7cbe 5736 b23b
00000180: 7178 8b3e ae79 4ebe edfb 3fbe bad6 593b
00000190: 8f04 f63d 5622 1e3e 75d0 29be bef6 0ebe
000001a0: db5c b8be 148d 703e bc28 ef3b 6302 9ebe
000001b0: 566c 10bd 60ea ca3d 103c 143c 96b4 0e3e
000001c0: 2561 b0bc 14e2 473d 9afa 0d3e 2b37 3dbd
000001d0: 9505 673c c5da e6bb d682 c43c 2204 03bc
000001e0: 7646 1b3e 50be 91bd 271e 51bd ba7b 5d3e
000001f0: 8bae b2be 9dfc 22be 3020 1bbe eb31 afbe
00000200: b552 583e 9a04 7abe 706a f9bd 073f 1fbe
00000210: b596 12be 19e4 253e 6e81 5a3e 82ef ccbd
00000220: 3a8b 173e 0085 15bd 01b0 b1bc 80d1 a3bc
00000230: fddf dc3e 87b1 cd3d 4187 073e f5f6 89bd
00000240: 47bb 423c 9cb4 273e 2535 9e3d 5957 b2bc
00000250: 512e 8cbd 1b5a abbd f83b fdbd be7b 9cbd
00000260: 7484 88bd a832 b33e 1a4d 06be a6d8 28bf
00000270: 8495 90be 533c babf abdb fe3c a1a7 6e3b
00000280: 9487 ffbc 5579 6e3d 511f 9abc 29a8 60bd
00000290: 9b9e d73d b04e a5bc fd4c 8bbd 71b7 f73d
000002a0: 7acd 15be 97a3 ce3c d521 203e a04d f3bd
000002b0: e873 823e a8d5 1a3e ecd1 6ebe ab31 ec3d
000002c0: 7bd0 c03c ca0f 19be 415a 413e f00a 0ebd
000002d0: a52d 073e ffe1 52bc 1a0e dd3d 3be1 133d
000002e0: e047 4d3d 12e5 ec3d 8881 17be e4cd 52bd
000002f0: 9edc 94be efce 29be c190 5e3c a654 a23e
00000300: 3d8e 3cbe e566 2abe 1543 3bbf b89d 1cbe
00000310: 5d47 34be 678b 133e 138e 6cbe 37d0 ccbe
00000320: cd64 95be fef2 0c3c 6cb7 9a3d f467 0cbe
00000330: 8b3d 5ebe 618f a63c f926 6fbe 18c9 383e
00000340: d189 0abe d432 00be 80ae 51be fbbf 77be
00000350: 69fd a93d 3bbe 5ebd eda1 8abe a2de 6cbd
00000360: 36bf 76be 756c 84bd 7f7a b2bd f859 c2be
00000370: 93f6 adba f58c ff3d 31c6 f03d 1e73 1abd
00000380: fa27 f0bd 48c5 383e ff04 42be 65d1 20be
00000390: 55a2 16bd 7956 093e ac67 073e 6c7c 793e
000003a0: 1b9d 713c 8e24 183e a680 2a3e 4b31 893b
000003b0: f82c 793e 2069 0abe 8288 b93c c8d0 0c3c
000003c0: 2b04 5e3e 98a2 723e c470 13be acb2 323e
000003d0: 7cd2 463e 1d0c 64be 87eb 3c3e 9e00 72be
000003e0: a49d 53bd 06b1 b43d cd7e c7bd e151 873d
000003f0: 5e51 583e 395a a93d 3e68 42be 98d4 e2bd

hidden_layers.0.bias f4 [128]
-0.09728633 0.09578371 0.01032393 -0.026188789 0.06554953 -0.11907418 0.115975544 0.12888964
-0.19889936 -0.013508832 -0.018821897 -0.1408467 0.010685116 0.02975725 -0.07788756 0.021711137
-0.019226909 -0.03902454 0.03542772 -0.035800096 -0.10019779 0.14976054 0.08114192 -0.107538626
0.07362358 0.2103476 0.14778288 0.006114755 -0.056137994 -0.12096706 0.07933961 0.021273304
-0.075384974 0.053205743 0.1307719 -0.29552227 0.02201607 0.09361976 0.08952854 -0.070232004
0.027625272 0.116937004 0.15529884 0.013608684 0.092953496 -0.0774994 0.041365616 -0.14391062
-0.19693674 0.27649054 -0.034567628 -0.022715518 0.10888512 0.1006835 -0.033825364 0.0063721165
-0.19940014 0.029512689 0.0036562376 0.011974532 -0.06265433 -0.032357886 0.06506597 -0.11586997
0.1495675 0.03938789 0.07151616 -0.13319938 -0.15385476 0.015214881 -0.008746056 -0.10514706
0.18248521 -0.14894463 -0.16671297 -0.10580838 0.19101007 -0.12156416 0.008194697 0.13332765
-0.030180473 0.06481331 0.095806345 -0.0077033187 -0.0669309 0.20565009 0.07836985 -0.12621437
-0.029640218 0.055731174 0.11119221 -0.003463895 -0.0151088685 -0.16932586 -0.007377801 0.1606385
-0.02256932 -0.20320131 -0.095336415 0.15908489 0.008983384 -0.11116577 0.033432964 0.15928295
-0.14966999 -0.18259965 -0.13294165 0.114711784 0.027152441 -0.005091098 0.093205556 -0.06997676
-0.12189633 -0.16771358 0.057810374 0.23007745 0.0839453 0.082735136 -0.06296244 -0.13945994
-0.0010772849 0.14716847 -0.07371733 -0.25518832 -0.070080094 0.15834127 0.05355529 -0.020390457
00000000: 0e3e c7bd 402a c43d b325 293c df89 d6bc
00000010: d53e 863d 2add f3bd 9684 ed3d a5fb 033e
00000020: 46ac 4bbe 2654 5dbc 6130 9abc 1e3a 10be
00000030: a010 2f3c 7ac5 f33c 8383 9fbd 8edb b13c
00000040: c081 9dbc 32d8 1fbd a81c 113d 1fa3 12bd
00000050: 8034 cdbd d45a 193e bc2d a63d 363d dcbd
00000060: f6c7 963d 5c65 573e 6554 173e 485e c83b
00000070: f4f0 65bd 94bd f7bd ce7c a23d 5a45 ae3c
00000080: 7063 9abd 44ee 593d 12e9 053e b24e 97be
00000090: 0c5b b43c b7bb bf3d bd5a b73d ccd5 8fbd
000000a0: 654e e23c ab7c ef3d a906 1f3e f5f6 5e3c
000000b0: 675e be3d 01b8 9ebd fe6e 293d 4e5d 13be
000000c0: c9a9 49be 2b90 8d3e c996 0dbd e515 babc
000000d0: 29ff de3d 2733 ce3d 778c 0abd 30cd d03b
000000e0: 8d2f 4cbe 98c4 f13c 7d9d 6f3b d430 443c
000000f0: ea50 80bd b489 04bd 4f41 853d 3c4d edbd
00000100: 3928 193e 3255 213d 1177 923d 6b65 08be
00000110: 1a8c 1dbe d647 793c 9e4b 0fbc 5757 d7bd
00000120: 67dd 3a3e f184 18be ceb6 2abe 10b2 d8bd
00000130: 2598 433e a1f6 f8bd 0d43 063c 0b87 083e
00000140: 0a3d f7bc d7bc 843d 1e36 c43d 1f6c fcbb
00000150: 1113 89bd f095 523e 5f80 a03d 573e 01be
00000160: 0bd0 f2bc 5f46 643d beb8 e33d 8402 63bb
00000170: 308b 77bc c263 2dbe 7bc1 f1bb 6b7e 243e
00000180: 4be3 b8bc 0114 50be bd3f c3bd 26e7 223e
00000190: 0b2f 133c e1aa e3bd 01f1 083d 121b 233e
000001a0: 1743 19be 67fb 3abe db21 08be 03ee ea3d
000001b0: cc6e de3c 3ad3 a6bb 8ee2 be3d fa4f 8fbd
000001c0: c8a4 f9bd 1cbd 2bbe 92ca 6c3d 6c99 6b3e
000001d0: 83eb ab3d 0a71 a93d 74f2 80bd 96ce 0ebe
000001e0: af33 8dba 55b3 163e 1df9 96bd 0ba8 82be
000001f0: 2786 8fbd 3724 223e cb5c 5b3d e309 a7bc

hidden_layers.1.weight f4 [64, 128]
-0.09443913 -0.08558397 -0.056500994 0.00013393359 0.030230125 -0.020702355 0.022698311 0.059978846
0.011730769 0.0285799 0.020029811 -0.0047952128 0.046891842 -0.08923876 -0.10433591 0.02171313
0.0007149817 -0.1224007 -0.066883616 -0.06899624 0.05180905 0.05226104 -0.06538784 0.0067580915
-0.04316632 0.05402888 -0.116906084 -0.10156146 -0.13009971 0.014660447 -0.08554763 0.047845062
-0.014845379 -0.051363666 -0.034346804 -0.046071116 0.025680272 -0.08832827 -0.0073241107 -0.0057457215
-0.0954023 -0.08657121 -0.107818626 0.017833117 0.02731148 -0.0035872469 -0.09881903 -0.12585132
-0.05905407 -0.082338594 -0.116177045 -0.11487328 -0.07318318 -0.114702135 -0.008342068 0.021778233
-0.00677893 -0.1025187 0.041740503 0.023801012 0.014705945 -0.049775105 0.021231696 -0.11391877
0.006151247 0.024093213 0.037561025 -0.07245794 -0.04915979 -0.044098746 -0.007679335 -0.056849673
-0.013754114 -0.030682283 -0.0063720965 -0.05099724 -0.0879743 -0.10647292 0.05644766 0.07033156
-0.03605529 0.049323536 0.045438167 -0.095772274 -0.03041167 -0.09956084 -0.019202648 -0.039310135
-0.060392894 0.04369045 -0.08208282 -0.045639653 -0.11600984 -0.06904012 0.05509036 -0.069548026
-0.03937682 0.040191993 -0.06403032 -0.06511463 0.030834323 -0.042916864 -0.07392728 -0.04436304
-0.017077742 0.01849239 0.020420207 -0.09452093 0.07803725 -0.07167441 0.005978118 -0.02445544
-0.03395507 0.05693217 -0.11308904 -0.0040455963 0.04518341 0.06690479 -0.13185897 0.019929659
0.05662951 -0.10912982 0.010394894 -0.06919238 0.009674432 -0.12945727 0.016421467 -0.052395396
0.0022276852 -0.011351035 -0.027093742 -0.08317955 -0.089332156 -0.044628445 -0.03321803 -0.11615755
0.0654463 -0.07139212 -0.05254285 -0.02895505 -0.083419375 -0.046663556 -0.061824158 -0.08349864
-0.03650641 0.068401046 -0.01722284 0.033688407 -0.021575341 -0.039044186 0.05898931 -0.054424606
-0.09113847 -0.017951893 0.023107054 -0.07870265 0.02349624 -0.040072042 -0.033986375 -0.027433189
-0.029697048 -0.085746504 -0.011631989 -0.028683146 0.012680343 -0.002608362 -0.089945376 -0.09158671
-0.055972397 0.032487288 -0.06384547 -0.049567305 -0.00043424222 -0.07034803 -0.057422888 0.07167322
-0.05359819 -0.038635086 0.011003437 0.0057906806 0.059306473 -0.097450435 -0.005817134 -0.028891519
-0.06358087 -0.048325982 -0.09840336 0.019337505 -0.06430833 -0.096888885 0.061273243 -0.00485071
0.008482264 0.03555163 0.043896116 0.066149615 0.025049273 0.052159823 0.011084834 -0.018310769
-0.034102656 -0.07724377 0.002339743 -0.0050244564 -0.020730438 -0.06598543 -0.063993774 0.055578843
-0.011096032 0.01629582 -0.08770295 -0.049330357 -0.01084462 -0.032775298 0.047564495 -0.045251343
0.06596939 -0.029477075 -0.02028395 -0.07047443 0.00083729724 -0.09286746 -0.09030769 -0.08329756
-0.008846535 -0.00021770805 -0.027610442 -0.031293053 0.009598093 0.056355633 0.025841221 0.060938813
-0.021168398 -0.06771615 0.009336773 0.042680472 -0.073354416 -0.1037017 -0.004750992 -0.052558027
-0.08317337 0.03980331 -0.0419059 -0.08935797 -0.065529995 0.0436863 0.015564712 -0.102709286
-0.016417157 -0.029937604 0.030497042 -0.0812148 -0.026998417 0.016791604 0.024331298 -0.0015148204
00000000: 4d69 c1bd a646 afbd 966d 67bd 8670 0c39
00000010: 2ba5 f73c fc97 a9bc cff1 b93c 61ac 753d
00000020: 6932 403c 6520 ea3c 8f15 a43c 2921 9dbb
00000030: a911 403d d0c2 b6bd 11ae d5bd bcdf b13c
00000040: 9c6d 3b3a 38ad fabd 47fa 88bd e74d 8dbd
00000050: ba35 543d ac0f 563d 0fea 85bd fb72 dd3b
00000060: 2bcf 30bd 634d 5d3d 756c efbd 74ff cfbd
00000070: dc38 05be 5f32 703c 9933 afbd 2ff9 433d
00000080: 083a 73bc b562 52bd 3caf 0cbd 11b5 3cbd
00000090: 6f5f d23c 74e5 b4bd 18ff efbb 9b46 bcbb
000000a0: 4862 c3bd 3f4c b1bd 03d0 dcbd c216 923c
000000b0: 53bc df3c 0418 6bbb a261 cabd 2bdf 00be
000000c0: aee2 71bd 23a1 a8bd 3bee edbd af42 ebbd
000000d0: 10e1 95bd f4e8 eabd 2bad 08bc 4468 b23c
000000e0: c921 debb 53f5 d1bd 17f8 2a3d 57fa c23c
000000f0: 34f1 703c fbe0 4bbd 18ee ad3c 3e4e e9bd
00000100: 6690 c93b 215f c53c 97d9 193d d464 94bd
00000110: c75b 49bd e3a0 34bd eea2 fbbb 34db 68bd
00000120: ef58 61bc 6959 fbbc 05cd d0bb 7be2 50bd
00000130: df2b b4bd 790e dabd a935 673d fe09 903d
00000140: b6ae 13bd 7a07 4a3d 5f1d 3a3d 4124 c4bd
00000150: e521 f9bc 8ee6 cbbd df4e 9dbc aa03 21bd
00000160: 8a5e 77bd c2f4 323d 0a1b a8bd a5f0 3abd
00000170: 9196 edbd e864 8dbd 6ea6 613d 326f 8ebd
00000180: 9749 21bd 5ca0 243d 5422 83bd d25a 85bd
00000190: 4398 fc3c 98c9 2fbd 3067 97bd 05b6 35bd
000001a0: 9fe6 8bbc 5a7d 973c 4748 a73c 3094 c1bd
000001b0: fed1 9f3d 08ca 92bd 17e4 c33b c656 c8bc
000001c0: 7914 0bbd b531 693d 3a9b e7bd ec90 84bb
000001d0: 3d12 393d 6105 893d 0a06 07be 8643 a33c
000001e0: 58f4 673d 747f dfbd 584f 2a3c bcb4 8dbd
000001f0: 8281 1e3c 7290 04be 5086 863c 8e9c 56bd
00000200: 5bfe 113b b1f9 39bc b2f3 ddbc 0a5a aabd
00000210: c7f3 b6bd 51cc 36bd a10f 08bd 02e4 edbd
00000220: b608 863d 0836 92bd 2c37 57bd 2433 edbc
00000230: c7d7 aabd 4922 3fbd 543b 7dbd 5601 abbd
00000240: bf87 15bd d915 8c3d ea16 8dbc dbfc 093d
00000250: c5be b0bc ccec 1fbd c69e 713d 56ec 5ebd
00000260: cea6 babd d90f 93bc 014b bd3c db2e a1bd
00000270: 307b c03c 9522 24bd 4c35 0bbd 91bb e0bc
00000280: 3947 f3bc dd9b afbd 1994 3ebc ebf8 eabc
00000290: 37c1 4f3c 0df1 2abb 4835 b8bd d091 bbbd
000002a0: 5043 65bd 6411 053d 6ac1 82bd 1607 4bbd
000002b0: 01ab e3b9 a112 90bd 4334 6bbd 69c9 923d
000002c0: c789 5bbd d33f 1ebd c347 343c c0bf bd3b
000002d0: 58eb 723d 1894 c7bd a89d bebb e8ad ecbc
000002e0: b036 82bd 77f1 45bd b387 c9bd b069 9e3c
000002f0: 16b4 83bd ae6d c6bd a7f9 7a3d b4f2 9ebb
00000300: 32f9 0a3c 969e 113d 6acc 333d 7379 873d
00000310: 2234 cd3c 8aa5 553d 2a9d 353c 7700 96bc
00000320: 3aaf 0bbd fb31 9ebd 6056 193b 32a4 a4bb
00000330: e1d2 a9bc 5e23 87bd 2b0f 83bd a4a6 633d
00000340: 22cc 35bc d07e 853c 9b9d b3bd a10e 4abd
00000350: a2ad 31bc 643f 06bd fdd2 423d 7959 39bd
00000360: f61a 873d e879 f1bc 872a a6bc e654 90bd
00000370: 117e 5b3a 4b31 bebd 3df3 b8bd e997 aabd
00000380: 0ff1 10bc 8f48 64b9 4b2f e2bc 252d 00bd
00000390: 5241 1d3c 2ad5 663d f8b0 d33c fa9a 793d
000003a0: 5969 adbc c4ae 8abd 44f9 183c b8d1 2e3d
000003b0: d73a 96bd 8f61 d4bd 36ae 9bbb 1647 57bd
000003c0: cd56 aabd cc08 233d 85a5 2bbd 5001 b7bd
000003d0: 9734 86bd 68f0 323d 2203 7f3c 3f59 d2bd
000003e0: 467d 86bc b53f f5bc efd4 f93c f253 a6bd
000003f0: c92b ddbc 8c8e 893c 6e52 c73c f08c c6ba

hidden_layers.1.bias f4 [64]
-0.07621127 -0.09780864 -0.068615325 -0.045467053 0.031678244 0.012835691 -0.042970072 0.14693083
-0.027203908 -0.08089353 -0.0032058517 0.055853374 0.0348233 -0.0948408 -0.11586817 0.0431163
0.28392893 0.09922086 -0.076758154 -0.015417973 0.0677618 -0.011416507 -0.06800668 0.268507
-0.012188929 0.045385264 0.001557642 -0.016824577 -0.06884846 -0.058146823 0.0103515405 0.02479985
-0.1158913 0.078272395 0.13415876 -0.05394414 -0.03826239 0.012567201 0.025415968 0.077507235
-0.034297097 0.19409445 0.27653286 -0.071355 0.023867017 0.06935786 -0.06828937 -0.22525956
-0.10966995 0.0055816686 -0.058398135 -0.09792867 -0.16510385 0.058252174 -0.035830572 -0.018449962
0.08395849 -0.03253726 0.07541371 0.015120996 0.02891795 -0.042072073 -0.17425352 0.06616325
00000000: a814 9cbd e54f c8bd 3186 8cbd a93b 3abd
00000010: 0cc1 013d ca4c 523c 6301 30bd 0975 163e
00000020: bbda debc 82ab a5bd 4419 52bb 82c6 643d
00000030: e0a2 0e3d e53b c2bd 4b4c edbd b89a 303d
00000040: 225f 913e 4e34 cb3d 6133 9dbd aa9b 7cbc
00000050: b3c6 8a3d 4d0c 3bbc 1647 8bbd c079 893e
00000060: 13b4 47bc e6e5 393d cb29 cc3a b2d3 89bc
00000070: 6c00 8dbd 5d2b 6ebd 8299 293c 0e29 cb3c
00000080: 6b58 edbd 474d a03d ea60 093e 88f4 5cbd
00000090: 06b9 1cbd a9e6 4d3c 2635 d03c 1dbc 9e3d
000000a0: 1d7b 0cbd b2c0 463e b795 8d3e 9222 92bd
000000b0: c384 c33c 7e0b 8e3d 4cdb 8bbd 71aa 66be
000000c0: a49a e0bd 6ee6 b63b e232 6fbd d48e c8bd
000000d0: fc10 29be d599 6e3d 14c3 12bd 6024 97bc
000000e0: 6ef2 ab3d ca45 05bd 8172 9a3d 0ebe 773c
000000f0: 56e5 ec3c c453 2cbd 846f 32be 9980 873d

hidden_layers.2.weight f4 [32, 64]
0.07339739 0.055596314 0.040859416 0.06996816 -0.056548957 -0.080923855 0.10669337 -0.035394263
-0.04079682 -0.11048937 0.097398706 0.01576265 -0.07077178 0.09944175 0.06699183 0.012700643
-0.07780944 -0.11247883 -0.014245407 0.027217204 -0.086826436 0.03990575 0.081387214 -0.06847806
-0.12269172 -0.098957784 0.06321234 0.01838292 -0.011509574 -0.074631765 -0.08060819 0.09891707
0.018749936 0.003388885 0.12811702 -0.07491595 -0.07693309 0.022996271 -0.09102024 0.097150765
0.07523222 0.025656516 -0.17049375 0.050815023 -0.04679463 -0.04279853 0.09655682 -0.051568072
0.07520616 -0.069449924 -0.08496489 -0.037599694 -0.13040589 0.08221024 0.05003474 0.033457804
-0.12126805 0.03478323 0.05530409 0.1015065 -0.10941748 0.003547294 0.027379707 -0.030892089
0.005692983 0.07234592 0.019710308 -0.044727385 0.04545756 -0.11944531 -0.0674528 -0.097955115
0.11691386 0.24441798 -0.031975176 0.049484942 0.03354308 0.06525721 -0.06756216 -0.21238692
-0.040724438 -0.18350431 0.13571756 0.04996608 -0.10931377 -0.032111727 -0.12038447 -0.033468094
-0.06112389 -0.07187319 0.026509697 -0.050313417 0.18027249 -0.042773396 -0.36971053 -0.016017254
-0.068654425 -0.18171626 -0.35111198 0.034673598 -0.25446963 -0.010714703 0.002741911 -0.16079712
-0.011145753 -0.17944841 0.00958006 0.12090623 0.108265966 0.17124926 0.023379117 -0.08041043
0.16398811 -0.013450528 0.03200748 -0.03258645 -0.15076038 0.060803454 0.08480403 0.035122007
0.13976668 0.010991731 0.07533498 -0.022985745 0.21278934 0.023484766 -0.023555033 -0.042590924
0.03010561 -0.07406375 0.027965536 0.09261053 0.0652921 0.06901169 -0.054777216 0.0977255
0.010681921 -0.12202265 -0.028469807 0.042839624 -0.13356526 -0.03854235 0.044810623 -0.0681038
-0.09043995 -0.08849892 -0.016267162 -0.102579586 -0.017150098 0.002036308 0.021139393 -0.038427662
0.047340576 -0.011878353 0.07812176 0.072947234 -0.103118524 -0.04967753 0.05648681 -0.043778576
-0.08770066 -0.07105658 -0.04887988 -0.052227482 -0.029116448 0.07698513 0.008354416 0.05922184
0.08273448 -0.11104001 -0.1349316 -0.075492844 0.00440614 -0.04060187 -0.057032228 -0.10111484
-0.001454222 0.040839087 0.0052285865 0.10662746 -0.087555334 0.081124485 -0.09529206 0.0827323
-0.010093939 0.11193466 0.08800751 -0.087615974 -0.047736667 -0.030742014 0.013114137 -0.076358415
-0.027422644 -0.07576476 0.06340896 0.09092027 -0.02654827 -0.003804192 -0.093754455 -0.13522959
-0.10924274 -0.11421601 -0.11003516 0.040964883 -0.09535171 0.05990173 0.10095959 -0.0482789
-0.008814745 0.048968736 -0.12294501 0.09517799 0.11199184 0.087768234 -0.048796743 0.019878928
-0.058250524 0.019444302 0.093047485 0.026188716 0.024933368 -0.047483854 -0.092935994 0.089678824
-0.14584759 -0.0070915925 -0.019268788 -0.004224387 -0.15480971 -0.079998754 -0.07134676 0.01883915
0.048755288 -0.0967981 -0.08035157 -0.13699616 0.069563136 -0.14890158 -0.016721562 -0.06930427
-0.068538964 0.03843449 0.049715955 0.065225706 0.060624156 -0.07735676 0.0652971 0.10104114
-0.04432749 -0.010231152 0.0021350428 -0.13771898 -0.013303131 -0.014953971 -0.094306566 0.091442466
00000000: 5f51 963d f6b8 633d 345c 273d 774b 8f3d
00000010: e19f 67bd 68bb a5bd 0e82 da3d 93f9 10bd
00000020: 911a 27bd 4048 e2bd f978 c73d ac20 813c
00000030: ccf0 90bd 1ea8 cb3d 0333 893d 5c16 503c
00000040: 8e5a 9fbd 4d5b e6bd 9165 69bc 9df6 de3c
00000050: 0fd2 b1bd 3674 233d 57ae a63d 3a3e 8cbd
00000060: cc45 fbbd 61aa cabd 7975 813d c797 963c
00000070: a792 3cbc 8ad8 98bd e815 a5bd 0895 ca3d
00000080: 7799 993c 0e18 5e3b 1c31 033e 896d 99bd
00000090: 198f 9dbd ad62 bc3c d268 babd fbf6 c63d
000000a0: 5a13 9a3d 9d2d d23c ea95 2ebe 6a23 503d
000000b0: baab 3fbd 834d 2fbd 95bf c53d 0b39 53bd
000000c0: b005 9a3d c33b 8ebd 1202 aebd 2302 1abd
000000d0: 1f89 05be d85d a83d 3af1 4c3d 0d0b 093d
000000e0: 625b f8bd dc78 0e3d 8b86 623d a4e2 cf3d
000000f0: 4616 e0bd b879 683b 684b e03c 6811 fdbc
00000100: 348c ba3b 192a 943d 8377 a13c 1034 37bd
00000110: b531 3a3d be9f f4bd b224 8abd b19c c8bd
00000120: 8970 ef3d b548 7a3e 67f8 02bd b9b0 4a3d
00000130: 7864 093d 92a5 853d 085e 8abd f57b 59be
00000140: abce 26bd 8ee8 3bbe 8bf9 0a3e 3ba9 4c3d
00000150: e6df dfbd 9687 03bd 228c f6bd d715 09bd
00000160: 0b5d 7abd 4032 93bd dd2a d93c 7115 4ebd
00000170: 5a99 383e 2833 2fbd b34a bdbe 9e36 83bc
00000180: b19a 8cbd d413 3abe f3c4 b3be e705 0e3d
00000190: d849 82be b98c 2fbc a2b1 333b 00a8 24be
000001a0: ad9c 36bc 53c1 37be aff5 1c3c af9d f73d
000001b0: 8cba dd3d f75b 2f3e 9085 bf3c 39ae a4bd
000001c0: 80ec 273e 9a5f 5cbc 461a 033d 5f79 05bd
000001d0: ee60 1abe 0b0d 793d bcad ad3d 18dc 0f3d
000001e0: ff1e 0f3e a916 343c 3a49 9a3d 9a4c bcbc
000001f0: 73e5 593e 2063 c03c 7cf6 c0bc d273 2ebd
00000200: 0aa0 f63c bcae 97bd fb17 e53c 97aa bd3d
00000210: ddb7 853d 0056 8d3d 135e 60bd 4f24 c83d
00000220: 3903 2f3c 03e7 f9bd 8339 e9bc 9a78 2f3d
00000230: 55c5 08be 95de 1dbd 588b 373d 017a 8bbd
00000240: 9538 b9bd ec3e b5bd b642 85bc 3f15 d2bd
00000250: 5d7e 8cbc 9473 053b 852c ad3c 5366 1dbd
00000260: 31e8 413d 6c9d 42bc 4dfe 9f3d 5c65 953d
00000270: ce2f d3bd aa7a 4bbd b75e 673d 2a51 33bd
00000280: 679c b3bd 1d86 91bd 4536 48bd 7cec 55bd
00000290: 9e85 eebc 61aa 9d3d f6e0 083c 9a92 723d
000002a0: b270 a93d f268 e3bd 822b 0abe fe9b 9abd
000002b0: 6261 903b 254e 26bd a09a 69bd 4c15 cfbd
000002c0: 989b beba e346 273d 9054 ab3b 7f5f da3d
000002d0: 3650 b3bd 9824 a63d 7c28 c3bd 8d6f a93d
000002e0: 0c61 25bc 003e e53d 483d b43d 0170 b3bd
000002f0: 8687 43bd add6 fbbc addc 563c cd61 9cbd
00000300: 74a5 e0bc 8e2a 9bbd 8fdc 813d 6834 ba3d
00000310: c27b d9bc c04f 79bb 5602 c0bd a079 0abe
00000320: a8ba dfbd 15ea e9bd 1d5a e1bd cbca 273d
00000330: c247 c3bd 845b 753d e7c3 ce3d 19c0 45bd
00000340: b86b 10bc 7193 483d 98ca fbbd aeec c23d
00000350: fa5b e53d d5bf b33d 18df 47bd 22d9 a23c
00000360: 1a98 6ebd a849 9f3c ae8f be3d b889 d63c
00000370: 1041 cc3c 6e7e 42bd 3a55 bebd 88a9 b73d
00000380: 1259 15be 9760 e8bb 94d9 9dbc ba6c 8abb
00000390: 7086 1ebe 63d6 a3bd 401e 92bd 9054 9a3c
000003a0: a0b3 473d 153e c6bd 5d8f a4bd b948 0cbe
000003b0: 1e77 8e3d a879 18be a8fb 88bc 66ef 8dbd
000003c0: 285e 8cbd 7c6d 1d3d f5a2 4b3d 0e95 853d
000003d0: 0951 783d 396d 9ebd 7cba 853d a8ee ce3d
000003e0: be90 35bd 90a0 27bc 13ec 0b3b 3406 0dbe
000003f0: 60f5 59bc 8001 75bc cd23 c1bd 3046 bb3d

hidden_layers.2.bias f4 [32]
-0.07388847 -0.020380845 -0.050523132 -0.15639342 -0.12803207 -0.10586724 0.4095973 0.013547446
-0.09969632 0.24178407 -0.10134435 0.008567471 0.07684636 0.3027864 0.07107391 -0.23949477
-0.006488492 0.07479824 0.027140051 -0.097588554 0.21483913 -0.13615979 -0.012887339 -0.0670708
0.22904103 -0.049807765 0.0035422158 0.09770593 -0.08838289 0.34892088 0.050597385 0.006575145
00000000: d752 97bd bbf5 a6bc 58f1 4ebd 9925 20be
00000010: d71a 03be ecd0 d8bd bdb6 d13e 1bf6 5d3c
00000020: 962d ccbd 3e96 773e a08d cfbd 945e 0c3c
00000030: a061 9d3d d206 9b3e 338f 913d 1e3e 75be
00000040: 6a9d d4bb d22f 993d d054 de3c 82dc c7bd
00000050: cafe 5b3e 796d 0bbe 6b25 53bc 6a5c 89bd
00000060: bb89 6a3e 3a03 4cbd 8524 683b 0c1a c83d
00000070: 1702 b5bd c2a5 b23e 343f 4f3d 5074 d73b

output.weight f4 [4, 32]
0.037981447 -0.112317726 -0.0049282135 0.068599366 -0.09275453 0.08824821 0.20225473 0.06805885
0.12309345 0.2291922 -0.042687967 -0.25108424 -0.10684553 0.14935926 -0.1670696 -0.06741889
-0.12143832 -0.33343312 0.09925351 -0.13828404 0.09467745 -0.058079805 -0.065288626 0.003873248
0.048168182 -0.10901839 0.039414834 0.1617184 -0.18832462 0.23859389 0.12043002 -0.1787765
0.07291469 0.036892604 -0.12362279 0.004203322 0.001340116 0.14067832 0.05765672 0.048798304
0.121925 0.06884547 -0.27431196 0.07649435 0.038663093 0.24699064 -0.067545295 -0.09902357
0.070382856 -0.0068687224 0.058765564 0.066966616 0.029097019 0.025989458 0.10306602 -0.04873578
0.24924609 -0.16131231 -0.052984204 0.16715045 0.10367847 0.17717783 -0.19287084 -0.026169155
-0.0030154737 -0.26570883 0.0065247724 0.003550185 0.1541148 -0.028803859 0.25994557 -0.049807075
0.071862794 0.05905572 -0.19129975 -0.17679167 -0.15812522 0.20621331 0.06867901 -0.024442839
-0.23113555 -0.013198782 -0.11654225 0.2212946 0.36119264 0.21781854 0.14383318 0.120752096
0.13789812 0.008063868 -0.030807225 -0.08791356 -0.12904088 0.10300326 -0.033228777 -0.10894708
-0.14680682 -0.048277855 0.0031971317 -0.05474947 -0.092688926 -0.07556331 0.2531824 0.06357816
-0.1125417 0.079660356 -0.14271125 -0.17673038 0.17524089 -0.04728964 0.20832764 -0.20366763
-0.17055409 -0.390029 -0.03694534 -0.17896101 -0.07593262 -0.045209337 0.100052655 -0.051282097
0.22867617 -0.10150011 -0.12126719 -0.14789942 -0.0639162 0.23796563 0.22751862 0.06481748
00000000: 6f92 1b3d d606 e6bd da7c a1bb d37d 8c3d
00000010: 16f6 bdbd 7abb b43d dd1b 4f3e 7062 8b3d
00000020: 6b18 fc3d 5cb1 6a3e 94d9 2ebd 1d8e 80be
00000030: d4d1 dabd a2f1 183e 4b14 2bbe ea12 8abd
00000040: a7b4 f8bd bfb7 aabe 6d45 cb3d 559a 0dbe
00000050: 40e6 c13d 17e5 6dbd 0bb6 85bd 51d6 7d3b
00000060: 004c 453d 0945 dfbd 7371 213d 8299 253e
00000070: 2bd8 40be f551 743e 04a4 f63d 3011 37be
00000080: 4c54 953d b31c 173d f22d fdbd 05bc 893b
00000090: d5a6 af3a fa0d 103e 7429 6c3d bbe0 473d
000000a0: d0b3 f93d dbfe 8c3d 9e72 8cbe 12a9 9c3d
000000b0: 315d 1e3d 1deb 7c3e 3055 8abd dfcc cabd
000000c0: e324 903d 0513 e1bb 29b4 703d cb25 893d
000000d0: df5c ee3c d8e7 d43c 4714 d33d 2b9f 47bd
000000e0: 5e3a 7f3e 0e2f 25be f705 59bd 7d29 2b3e
000000f0: 6155 d43d 1b6e 353e ef7f 45be b260 d6bc
00000100: 419f 45bb fd0a 88be c2cd d53b 38aa 683b
00000110: 45d0 1d3e 12f6 ebbc 9617 853e 8102 4cbd
00000120: cd2c 933d 69e4 713d 15e4 43be e008 35be
00000130: 94eb 21be 9529 533e 95a7 8c3d 593c c8bc
00000140: ccae 6cbe b43f 58bc b4ad eebd 0d9b 623e
00000150: 3eee b83e d30b 5f3e 0149 133e e04c f73d
00000160: 2a35 0d3e 501e 043c 6f5f fcbc 060c b4bd
00000170: 4b23 04be 60f3 d23d e61a 08bd a61f dfbd
00000180: 8754 16be 00bf 45bd f886 513b fb40 60bd
00000190: b1d3 bdbd f0c0 9abd 20a1 813e 4435 823d
000001a0: 437c e6bd f824 a33d e622 12be cff8 34be
000001b0: 5972 333e c8b2 41bd d753 553e 3f8e 50be
000001c0: bba5 2ebe e2b1 c7be ff53 17bd 8e41 37be
000001d0: 9082 9bbd 6d2d 39bd 68e8 cc3d 2d0d 52bd
000001e0: 162a 6a3e 4adf cfbd ef5a f8bd f272 17be
000001f0: 7fe6 82bd 43ad 733e a4fa 683e 07bf 843d

output.bias f4 [4]
0.22165105 0.26147777 0.20288809 0.27810237
00000000: 7ef8 623e 6ae0 853e e5c1 4f3e 6f63 8e3e
